Dat/Nova pasta/models/CA_model_scripted.pt (torch, 82011 bytes, 5 tensors)

weight f4 [128, 8]
0.5569278 0.48056245 -0.011624874 0.0077374503 -0.16902451 -0.026288046 0.029449841 -0.018431414
-0.056111433 -0.17204079 -0.47626105 -0.141857 0.47725132 -0.15534134 -0.28347394 0.11359392
-0.023535788 0.03446415 -0.23350891 -0.24708328 -0.036124054 -0.020375365 -0.6425575 -0.18698893
0.014408391 0.5767445 0.24177799 -0.051390745 -0.24606055 -0.027894173 0.16353843 -0.21191555
-0.31379282 0.24437888 -0.023598699 0.010535253 0.040244654 -0.80513746 0.08714637 0.03219327
-0.006950219 0.44318917 -0.0056544114 -0.22212712 -0.23035116 -0.15001781 -0.11901865 0.4144891
-0.08069145 0.0003353219 0.21128027 0.036671527 -0.038329512 0.015137378 0.031014377 -0.09496736
0.07571102 -0.26386556 0.07170609 -0.08721844 0.20572908 -0.065490514 0.2523944 -0.5994416
0.0015854723 -0.004205153 3.7625463 0.0027259956 -0.0005591974 -0.0049205637 0.0016423408 0.0026695782
0.029738571 -0.07841824 -0.1705261 -0.28322914 0.05179815 0.26551425 0.03656908 0.5433455
-0.08798931 0.7676913 0.0024903133 -0.0019024239 -0.0037985984 0.028871104 0.18426128 -0.0032437092
0.8132287 0.20706135 0.007566741 -0.004600062 0.09558403 -0.026811568 0.14007173 0.092976995
-0.005028754 -0.3247519 -0.051537793 -0.040418666 -0.44837216 0.04380503 0.34940028 -0.09454751
-0.004009628 0.254097 0.5439789 -0.07562141 0.6111225 0.3168203 0.0692493 0.21234486
0.7375111 -0.03398677 -0.007321656 0.008194837 -0.11853816 -0.20023157 0.16818398 0.107664995
0.009650215 -0.33998746 -0.12289744 0.102769755 0.19537266 -0.47307298 -0.4625833 0.06134189
-0.016712591 -0.70534456 0.8715253 -0.10695663 -0.18947387 -0.44423825 -0.1920774 -0.04991944
0.08557037 -0.096896924 -0.24644768 0.21520725 -0.17232029 -0.051496003 0.11343381 0.1623322
0.48665166 0.069243595 0.01517159 -0.026847707 0.06950968 0.28411746 -0.52473444 -0.08240083
0.01692957 -0.010342888 -0.6146275 -0.04085534 -0.034781046 0.031598233 -0.0056818575 0.026432866
-0.049691536 0.005530423 -0.5622161 0.41341668 -0.3495241 0.14395216 -0.2968964 0.6707932
0.00942598 -0.0069807335 -0.9910464 0.0011278851 -0.0029430238 -0.0042779306 -0.004374062 -0.00535488
-0.03946981 -0.10489436 0.42938623 -0.008850022 0.21197723 0.10563382 0.020135699 -0.13873649
-0.45261955 -0.2499757 0.023528354 -0.010289318 -0.8595131 0.08762205 0.09717984 0.10528769
0.015214547 -0.007967114 0.350926 0.018087784 -0.01709078 0.059343167 -0.05156171 0.0279271
-0.54659915 -0.08099103 0.043339062 0.001188822 0.2700085 0.05407109 -0.046136316 -0.09552689
-0.33028305 0.16351555 -0.022010481 0.00019475806 -0.062041577 0.007982718 0.074669756 0.5246144
-0.0011326324 0.42593595 -0.57501906 0.20088503 0.26974452 0.64326555 0.26763123 -0.006995258
0.0057020844 -0.05105517 0.24952047 0.050194066 -0.35048792 0.06272862 -0.113770574 -0.088680655
-0.5581317 0.2929727 0.015749006 -0.0062394035 0.05622003 0.19792068 -0.0047428864 -0.041838244
0.057169516 -0.13698657 -0.35992494 0.06933437 0.14223312 0.26505423 -0.22588181 -0.058819056
0.68958825 0.01283958 -0.019112315 0.0020977694 0.058248587 0.16881348 -0.11439435 -0.1376884
00000000: d292 0e3f 480c f63e 4176 3ebc 708a fd3b
00000010: c314 2dbe 075a d7bc cb40 f13c 7afd 96bc
00000020: 1ad5 65bd 762b 30be 7dd8 f3be f642 11be
00000030: 495a f43e cd11 1fbe 7f23 91be eea3 e83d
00000040: 20ce c0bc 482a 0d3d f61c 6fbe 6603 7dbe
00000050: d1f6 13bd 3dea a6bc a67e 24bf 077a 3fbe
00000060: 2c11 6c3c 87a5 133f a694 773e 1a7f 52bd
00000070: 4cf7 7bbe 5282 e4bc 9e76 273e 6400 59be
00000080: 74a9 a0be 753e 7a3e 0f52 c1bc 0e9c 2c3c
00000090: 94d7 243d 7d1d 4ebf cc79 b23d 17dd 033d
000000a0: aabe e3bb b1e9 e23e a448 b9bb 4b75 63be
000000b0: 2de1 6bbe 459e 19be 0dc0 f3bd ea37 d43e
000000c0: 8f41 a5bd 25ce af39 db59 583e e234 163d
000000d0: 68ff 1cbd c402 783c dd11 fe3c 3f7e c2bd
000000e0: 610e 9b3d 6319 87be a4da 923d 959f b2bd
000000f0: a5aa 523e e41f 86bd d739 813e 0175 19bf
00000100: 9fcf cf3a 61cb 89bb 8fcd 7040 9ea6 323b
00000110: 1a97 12ba ae3c a1bb d043 d73a 17f4 2e3b
00000120: 4e9e f33c be99 a0bd 659e 2ebe 6903 91be
00000130: 4c2a 543d 7cf1 873e 76c9 153d b118 0b3f
00000140: bd33 b4bd 6b87 443f 8634 233b c15a f9ba
00000150: e8f1 78bb 1883 ec3c fdae 3c3e 6994 54bb
00000160: c22f 503f e407 543e 6df2 f73b 1ebc 96bb
00000170: 8fc1 c33d efa3 dbbc f76e 0f3e b96a be3d
00000180: 3fc8 a4bb e245 a6be 4b19 53bd 0b8e 25bd
00000190: 0991 e5be e76c 333d 98e4 b23e 20a2 c1bd
000001a0: 3363 83bb 0119 823e 3442 0b3f 66df 9abd
000001b0: 8672 1c3f 4536 a23e 94d2 8d3d ee70 593e
000001c0: 87cd 3c3f b635 0bbd 81ea efbb a343 063c
000001d0: 23c4 f2bd 8109 4dbe 6c38 2c3e 777f dc3d
000001e0: ef1b 1e3c d612 aebe a7b1 fbbd f378 d23d
000001f0: c50f 483e 9f36 f2be b8d7 ecbe a241 7b3d
00000200: d8e8 88bc 7691 34bf 481c 5f3f 140c dbbd
00000210: 7005 42be 3273 e3be f0af 44be 5478 4cbd
00000220: 853f af3d e571 c6bd c85c 7cbe 4a5f 5c3e
00000230: bb74 30be 79ed 52bd fc4f e83d 6a3a 263e
00000240: 682a f93e 96cf 8d3d 4392 783c b9ef dbbc
00000250: 175b 8e3d d877 913e ff54 06bf c4c1 a8bd
00000260: e2af 8a3c 3775 29bc 3a58 1dbf ee57 27bd
00000270: 9276 0ebd 266d 013d e02e babb bd89 d83c
00000280: 5a89 4bbd 8d38 b53b 65ed 0fbf 5aab d33e
00000290: d3f4 b2be 3268 133e ce02 98be 1ab9 2b3f
000002a0: 6d6f 1a3c a3be e4bb 38b5 7dbf 8bd5 933a
000002b0: bfdf 40bb e22d 8cbb 4b54 8fbb fd77 afbb
000002c0: 18ab 21bd dbd2 d6bd 83d8 db3e afff 10bc
000002d0: 8f10 593e 8b56 d83d 9ff3 a43c f010 0ebe
000002e0: c0bd e7be a1f9 7fbe 89be c03c 8794 28bc
000002f0: 0d09 5cbf 3073 b33d 3906 c73d 13a1 d73d
00000300: 6f46 793c 8088 02bc 93ac b33e d52c 943c
00000310: f701 8cbc d211 733d 5f32 53bd 60c7 e43c
00000320: eced 0bbf a0de a5bd 4d84 313d 3fd2 9b3a
00000330: 8e3e 8a3e a679 5d3d 6ff9 3cbd 9aa3 c3bd
00000340: dc1a a9be 9f70 273e 534f b4bc f837 4c39
00000350: 4f1f 7ebd f2c9 023c 75ec 983d 214d 063f
00000360: d674 94ba 4714 da3e 7334 13bf ceb4 4d3e
00000370: f41b 8a3e 0dad 243f f606 893e 7a38 e5bb
00000380: 8dd8 ba3b 3a1f 51bd 4b82 7f3e 4b98 4d3d
00000390: 2773 b3be dd77 803d 8c00 e9bd 349e b5bd
000003a0: b8e1 0ebf 8500 963e 0f04 813c e973 ccbb
000003b0: f946 663d b8ab 4a3e 376a 9bbb 945e 2bbd
000003c0: 952a 6a3d 3546 0cbe 1548 b8be 2eff 8d3d
000003d0: 8fa5 113e 30b5 873e 904d 67be 40ec 70bd
000003e0: db88 303f 1a5d 523c 6e91 9cbc bb7a 093b
000003f0: 1296 6e3d 71dd 2c3e 9647 eabd 30fe 0cbe

bias f4 [128]
-0.21459655 0.5990825 -0.7708844 -0.5582664 -0.20411529 -0.72318196 -0.7672413 -0.59218246
-0.025443504 -0.6653863 -0.5473522 -0.43534163 -0.09264326 -0.887633 -0.37073725 -0.9416925
-0.7614852 -0.72918606 -0.3052137 0.8388798 -0.028157758 -0.792345 -0.7240745 -0.39214167
-0.82036287 -0.33152026 -0.52266735 -0.8145279 -0.4524653 -0.38944894 0.5290671 -0.16665286
-0.1902551 -0.09179823 -0.60039127 -0.61942047 0.8705093 -0.71081555 -0.79344344 0.8355602
-0.35276923 0.072289795 -0.7309017 -0.5710399 -0.6315824 -0.4877062 -0.34400597 -0.4671509
-0.48116097 -0.9938794 -0.2905817 -0.13087068 -0.82492244 1.191247 -0.0911971 -0.4590432
-0.44810826 -0.37382236 -0.84600914 0.18417034 0.244593 -0.2837164 -0.2862883 -0.8410282
1.3048357 -0.2832216 -0.8534683 -0.13771226 -0.048200924 -0.58689815 -0.6238562 -0.7158883
-1.0311315 -0.35744035 -0.8012869 -0.531365 -1.0924256 -0.16969012 -0.9303836 -0.68801814
1.2624704 -0.0652806 -0.14625017 -0.45966923 -0.15327471 -0.81804115 -0.50067073 -0.2820231
-0.35013664 0.61960745 -0.102356374 0.9963162 0.34798607 -0.29803747 -0.35375652 0.98146784
-0.7455262 -0.7346342 -0.7750565 -0.7549056 -0.51047343 -0.41405666 -0.54750067 -0.15371193
-0.93492657 -0.67827344 0.53921306 -0.22251074 -0.49551818 -0.44506776 -1.0817739 -0.612668
-0.6537819 -0.026143232 -0.8152607 1.0869391 1.1696628 0.31635723 -0.6393286 -0.17959522
-0.8219913 0.24129938 0.49765784 -0.42018506 -0.7550529 0.7516414 -0.16664526 -0.7088122
00000000: 33bf 5bbe 795d 193f ae58 45bf 8cea 0ebf
00000010: 9903 51be 7422 39bf ed69 44bf 4599 17bf
00000020: e56e d0bc c256 2abf 461f 0cbf 19e5 debe
00000030: c0bb bdbd eb3b 63bf 46d1 bdbe c212 71bf
00000040: b2f0 42bf f0ab 3abf f844 9cbe d4c0 563f
00000050: 19ab e6bc 1fd7 4abf f25c 39bf cbc6 c8be
00000060: 4d03 52bf 06bd a9be 87cd 05bf e784 50bf
00000070: 88a9 e7be da65 c7be f170 073f 0ca7 2abe
00000080: 3cd2 42be b600 bcbd 3eb3 19bf 5792 1ebf
00000090: b3d9 5e3f 02f8 35bf 1c1f 4bbf 46e7 553f
000000a0: 2b9e b4be ac0c 943d 601c 3bbf ac2f 12bf
000000b0: 62af 21bf a1b4 f9be 8d21 b0be 672e efbe
000000c0: bb5a f6be e16e 7ebf 20c7 94be f702 06be
000000d0: 1e2e 53bf c87a 983f 8cc5 babd b607 ebbe
000000e0: 726e e5be a565 bfbe 0e94 58bf 2697 3c3e
000000f0: 9676 7a3e 4743 91be 6194 92be a04d 57bf
00000100: db04 a73f 6c02 91be e67c 5abf 7104 0dbe
00000110: 556e 45bd f53e 16bf 0ab5 1fbf 7544 37bf
00000120: 1efc 83bf 6c02 b7be 2321 4dbf 8907 08bf
00000130: 9ad4 8bbf 3fc3 2dbe 9f2d 6ebf f521 30bf
00000140: a198 a13f d6b1 85bd 9bc2 15be c459 ebbe
00000150: 0cf4 1cbe 256b 51bf f52b 00bf 5565 90be
00000160: 1c45 b3be 989e 1e3f 38a0 d1bd 940e 7f3f
00000170: 3b2b b23e 5e98 98be 931f b5be 7a41 7b3f
00000180: ceda 3ebf fd10 3cbf 1a6a 46bf 7e41 41bf
00000190: 63ae 02bf 3cff d3be 0129 0cbf a966 1dbe
000001a0: 5957 6fbf 54a3 2dbf de09 0a3f dbd9 63be
000001b0: 8fb4 fdbe ecdf e3be 9177 8abf cfd7 1cbf
000001c0: 405e 27bf 552a d6bc edb4 50bf d220 8b3f
000001d0: 83b7 953f 93f9 a13e 0aab 23bf cfe7 37be
000001e0: 066e 52bf 2f17 773e 02cd fe3e 7f22 d7be
000001f0: 264b 41bf 926b 403f 0ea5 2abe b774 35bf

weight f4 [128, 128]
-2.7519283 0.14524212 -0.8541833 -0.039182976 -0.11075473 -0.11184277 -0.17347825 -0.23304802
-0.0132036675 0.08726497 -0.044347115 -1.9592677 -0.22265063 0.110077694 1.0404992 0.7492209
-0.22546814 -0.13167982 0.21665071 0.0053139534 -0.3461844 0.40342125 0.55043995 0.05403152
0.039584134 0.21216135 0.13343115 0.19989686 0.2225779 -0.021511693 -0.3717007 -0.04184606
-0.124006264 0.06332835 0.5906554 0.3209945 0.23405962 -0.2505535 0.27314797 0.04579951
0.2340216 0.109049655 0.26269284 -0.047178783 -0.100471914 -0.43025824 0.04580551 -0.90107626
0.29960012 0.023301557 0.2534026 0.2888791 -0.10785343 -0.12285461 0.13465072 0.54151297
-0.062201574 -0.15494743 -0.03624733 0.2889754 -0.045200445 -0.26395175 -0.426675 0.0006982327
0.020147132 0.03547314 -0.07210505 0.07794061 -0.44894338 -0.120440826 0.62143123 -0.17216067
-0.057817247 -0.12553126 -0.80971354 0.6528538 -0.29837182 0.052134473 0.45709032 -0.43231025
-0.029123107 -0.17225781 0.026601307 0.30827138 -0.22826724 -0.21416566 0.9875244 -0.17233397
0.5708191 -0.1181414 0.55102926 0.057459295 0.07071023 0.38553944 0.5719786 -0.24429382
0.18770985 -0.43315595 -0.42486054 0.15949252 0.26735696 0.008483955 0.07464714 0.24071783
0.075752564 -1.2357863 0.14694862 0.22542788 -0.7112992 0.05472582 0.08941119 0.077075444
-0.6576965 -0.22466853 -0.43074092 -0.016170947 -0.12197522 -0.04177919 -1.5112466 0.28529942
1.172894 -0.09541103 -0.11388076 -0.30148968 0.17562601 0.0066003324 -0.67961013 -0.07437389
-0.009502778 0.009248706 -0.07190754 0.026299601 -0.03471465 -0.023104858 -0.0071300203 -0.06069594
0.021596799 0.0029497463 -0.13137832 -0.06826979 0.08527309 -0.055764634 -0.10051404 -0.07853827
-0.07429151 -0.020771816 -0.03147936 -0.065219074 -0.054422174 0.074729025 -0.008203186 0.08401346
-0.10554729 -0.063018955 0.022497347 -0.055521198 -0.12584138 0.044062372 -0.030538255 -0.035927
-0.025213774 -0.048869286 -0.013493114 -0.07621454 -0.101966076 -0.09518455 -0.118873194 -0.07305159
0.046822503 -0.068209656 -0.038997557 -0.10697921 0.049241394 0.010844978 -0.0621682 -0.016954446
-0.038038466 -0.021645801 -0.031101739 0.025417397 -0.09934842 -0.11612039 -0.14843662 0.007557027
0.025185477 -0.05326481 0.0122788185 -0.07755197 -0.067185156 0.042828303 -0.06729557 -0.100829504
0.007571962 -0.13853304 0.05054952 -0.0102728605 -0.0061450936 0.04273959 -0.041662488 -0.0058223368
0.090148576 -0.10109049 -0.0253169 0.015900873 0.017560922 -0.11655994 -0.0007363235 -0.07176979
-0.1083777 -0.082272574 -0.06251893 0.019799022 -0.108522706 0.022831323 -0.060049858 -0.021079818
0.10842508 -0.0356139 -0.13103788 -0.08515434 -0.08842224 0.047585372 -0.047114998 -0.019717837
0.0189306 -0.04751972 -0.04750367 -0.08480257 -0.007027343 -0.040969055 -0.07042934 -0.02088075
-0.023487993 0.073772795 -0.04538349 -0.0018410461 -0.020605508 0.077357896 0.05517979 -0.041899465
0.013315233 0.024253504 -0.0884804 -0.0153824305 -0.117764525 -0.060287587 -0.068817 0.014600514
0.013211846 -0.15481368 -0.0037235473 0.100353196 0.017797261 -0.16347043 0.053743992 -0.09801318
00000000: 981f 30c0 5aba 143e c2ab 5abf 547e 20bd
00000010: 60d3 e2bd d20d e5bd 48a4 31be 24a4 6ebe
00000020: 3254 58bc fab7 b23d 52a5 35bd 49c9 fabf
00000030: 87fe 63be 6a70 e13d 142f 853f f1cc 3f3f
00000040: 1fe1 66be 13d7 06be afd9 5d3e ac20 ae3b
00000050: 153f b1be 3b8d ce3e a2e9 0c3f 2850 5d3d
00000060: f922 223d d340 593e 2da2 083e c3b1 4c3e
00000070: 76eb 633e 4a39 b0bc 8e4f bebe c666 2bbd
00000080: fff6 fdbd 4bb2 813d 3135 173f 6459 a43e
00000090: 53ad 6f3e 8c48 80be 0dda 8b3e 4498 3b3d
000000a0: 5ca3 6f3e 6d55 df3d ad7f 863e 8a3e 41bd
000000b0: 38c4 cdbd cf4a dcbe 8f9e 3b3d efac 66bf
000000c0: 3065 993e e8e2 be3c fcbd 813e f6e7 933e
000000d0: 42e2 dcbd 339b fbbd e1e1 093e 98a0 0a3f
000000e0: 14c7 7ebd 8aaa 1ebe 1578 14bd 95f4 933e
000000f0: 1a24 39bd af24 87be 2575 dabe 9a09 373a
00000100: 990b a53c 494c 113d d0ab 93bd 549f 9f3d
00000110: e8db e5be aea9 f6bd 1e16 1f3f e34a 30be
00000120: c7d1 6cbd 448b 00be 6349 4fbf 6d21 273f
00000130: 31c4 98be f58a 553d be07 ea3e c557 ddbe
00000140: 9593 eebc 5a64 30be fcea d93c bfd5 9d3e
00000150: e3be 69be 3e4e 5bbe 66ce 7c3f 5178 30be
00000160: 3321 123f 1ef4 f1bd 4110 0d3f 705a 6b3d
00000170: 86d0 903d 6d65 c53e 316d 123f 2928 7abe
00000180: 0337 403e 9ec6 ddbe 5287 d9be 0252 233e
00000190: 03e3 883e 4900 0b3c 9ae0 983d bc7e 763e
000001a0: 2924 9b3d 3f2e 9ebf b379 163e 91d6 663e
000001b0: b417 36bf 2e28 603d 371d b73d bbd9 9d3d
000001c0: cc5e 28bf 820f 66be 138a dcbe ef78 84bc
000001d0: 25ce f9bd a820 2bbd 8770 c1bf c412 923e
000001e0: 6421 963f dc66 c3bd 513a e9bd db5c 9abe
000001f0: 4ed7 333e 9a47 d83b eefa 2dbf 5751 98bd
00000200: 8ab1 1bbc e287 173c 4344 93bd 4372 d73c
00000210: f330 0ebd 6646 bdbc f2a2 e9bb 4e9c 78bd
00000220: c5eb b03c 8850 413b 0a88 06be 08d1 8bbd
00000230: a8a3 ae3d 7569 64bd 4eda cdbd acd8 a0bd
00000240: 2626 98bd a829 aabc 80f0 00bd 9491 85bd
00000250: c9e9 5ebd 880b 993d a866 06bc 400f ac3d
00000260: 2d29 d8bd 1510 81bd 5b4c b83c 326a 63bd
00000270: 90dc 00be bf7a 343d 5d2b fabc 3128 13bd
00000280: 1e8d cebc 292b 48bd 3912 5dbc 5e16 9cbd
00000290: 97d3 d0bd 1ef0 c2bd ca73 f3bd 129c 95bd
000002a0: f4c8 3f3d 81b1 8bbd e7bb 1fbd eb17 dbbd
000002b0: 58b1 493d 22af 313c 15a4 7ebd 0de4 8abc
000002c0: 39ce 1bbd 8952 b1bc 13c9 febc 2538 d03c
000002d0: 2f77 cbbd 87d0 edbd c5ff 17be f0a0 f73b
000002e0: c651 ce3c 342c 5abd 192d 493c 91d3 9ebd
000002f0: 5f98 89bd bb6c 2f3d 43d2 89bd b37f cebd
00000300: 391e f83b 9bdb 0dbe 030d 4f3d 804f 28bc
00000310: c85c c9bb b50f 2f3d 49a6 2abd 4dc9 bebb
00000320: d19f b83d 8808 cfbd 6365 cfbc 8c42 823c
00000330: ecdb 8f3c fab6 eebd d505 41ba 0afc 92bd
00000340: 21f5 ddbd 867e a8bd ed09 80bd 8f31 a23c
00000350: 2741 debd c108 bb3c d7f6 75bd 95af acbc
00000360: f80d de3d e1df 11bd cb2e 06be 6665 aebd
00000370: b816 b5bd e1e8 423d a8fb 40bd 4d87 a1bc
00000380: 5814 9b3c 0aa4 42bd 3593 42bd f8ac adbd
00000390: a045 e6bb 2bcf 27bd 423d 90bd 1b0e abbc
000003a0: e469 c0bc 3116 973d 0ae4 39bd 424f f1ba
000003b0: e2cc a8bc d16d 9e3d 3404 623d c69e 2bbd
000003c0: 2328 5a3c 49af c63c 3635 b5bd 9706 7cbc
000003d0: 872e f1bd 1ef0 76bd edef 8cbd ff36 6f3c
000003e0: 8076 583c 7a87 1ebe c206 74bb fa85 cd3d
000003f0: 90cb 913c cb64 27be a922 5c3d 22bb c8bd

bias f4 [128]
-0.35343492 -0.15043838 -0.41717753 -0.010434573 -0.08010926 0.04624238 0.076175496 0.7624488
-0.53387076 -0.5414604 0.049213767 -0.62517494 -0.72530943 -0.20635416 -0.17804745 -0.17369542
-0.061457884 -0.23187333 -0.31078893 0.53988904 -0.23890978 0.8660135 0.030944701 0.34859022
0.30589166 -0.18475632 0.12388258 -0.1329694 -0.04344124 -1.2164623 -0.09316534 0.34680122
-0.38833553 0.25102144 -0.18345703 0.7760958 0.7442778 -0.49309424 -0.21790054 0.1559898
-0.11184241 -0.28037092 -0.24540874 -0.2756009 -0.26601714 -0.18259479 0.045354377 0.08907537
0.34942698 0.80965936 -0.39537758 -0.48370326 -0.1456837 -0.30426642 -0.19691198 -0.018320704
-0.012890214 -0.4676627 0.31396535 0.008564551 -0.020390358 -0.13901113 -0.44269317 -0.2609106
-0.27479997 0.12962733 -0.097956374 -0.3968668 -0.0429131 0.018199934 0.24820139 -0.30108938
-0.54202795 0.109724514 -0.08586032 -0.19461538 0.05002411 0.15840349 -0.4871854 0.09058845
-0.9872463 -0.32053638 -0.07406662 -0.023865383 0.031069387 -0.077698015 -0.6444391 0.8304405
-0.51456743 0.66485536 0.58747596 0.56165177 0.011395386 -0.66830695 -0.6044648 -0.2297696
-0.39005408 0.005932718 0.17217831 -0.4253752 -0.08289122 -0.3567405 -0.093248405 -0.6612808
0.27716848 -0.5293156 -0.15319338 0.3196795 0.2893139 0.06921567 0.3066997 -0.10956699
-0.17253122 -0.19180816 0.14613412 0.6025554 0.098307624 -0.1740282 -0.27493694 -0.35053486
0.48965308 -0.4000972 -0.6660981 0.06537417 0.2878655 -0.18578295 -0.20602906 -0.3089981
00000000: 6cf5 b4be 850c 1abe 4b98 d5be c5f5 2abc
00000010: 5310 a4bd a668 3d3d e601 9c3d d82f 433f
00000020: c1ab 08bf 269d 0abf 6094 493d 770b 20bf
00000030: e1ad 39bf 814e 53be 1252 36be 36dd 31be
00000040: 43bb 7bbd 3470 6dbe ba1f 9fbe 2b36 0a3f
00000050: c4a4 74be 10b3 5d3f be7f fd3c 6b7a b23e
00000060: d59d 9c3e c330 3dbe 26b6 fd3d 2129 08be
00000070: 71ef 31bd 09b5 9bbf 78cd bebd ee8f b13e
00000080: ead3 c6be e285 803e 29dc 3bbe 37ae 463f
00000090: fd88 3e3f d976 fcbe 5221 5fbe cabb 1f3e
000000a0: a20d e5bd c78c 8fbe 6e4c 7bbe 901b 8dbe
000000b0: 6633 88be 21fa 3abe 83c5 393d 266d b63d
000000c0: 18e8 b23e d645 4f3f ee6e cabe f4a7 f7be
000000d0: 1c2e 15be cfc8 9bbe 4ba3 49be 4d15 96bc
000000e0: 7a31 53bc 7c71 efbe 11c0 a03e 5552 0c3c
000000f0: ae09 a7bc ef58 0ebe aea8 e2be 1396 85be
00000100: 95b2 8cbe 07bd 043e 5a9d c8bd 2032 cbbe
00000110: a6c5 2fbd 0718 953c 8128 7e3e 6328 9abe
00000120: 58c2 0abf 3fb7 e03d 89d7 afbd 4149 47be
00000130: 15e6 4c3d 8634 223e 5d70 f9be 7086 b93d
00000140: 2cbc 7cbf 581d a4be 3db0 97bd 5681 c3bc
00000150: 3a85 fe3c 2320 9fbd f6f9 24bf c097 543f
00000160: b1ba 03bf f633 2a3f d364 163f 69c8 0f3f
00000170: b7b3 3a3c 2a16 2bbf 35be 1abf b948 6bbe
00000180: 2bb5 c7be 3f67 c23b 834f 303e c7ca d9be
00000190: dfc2 a9bd b1a6 b6be 05f9 bebd b349 29bf
000001a0: 07e9 8d3e 3a81 07bf bade 1cbe 08ad a33e
000001b0: f420 943e f2c0 8d3d be07 9d3e a864 e0bd
000001c0: 06ac 30be 5c69 44be 2fa4 153e 1241 1a3f
000001d0: 8255 c93d 7334 32be 89c4 8cbe 4e79 b3be
000001e0: cfb3 fa3e 8ad9 ccbe 6885 2abf e5e2 853d
000001f0: 1b63 933e e33d 3ebe 48f9 52be 0035 9ebe

weight f4 [1, 128]
0.021671293 -0.02408018 -0.02654636 0.021312956 0.022335019 0.025286358 0.02074411 -0.08364693
0.029334623 0.03178802 -0.0016911449 0.042137697 -0.03945481 -0.058034163 0.01872799 0.004946929
-0.015809126 0.029626476 -0.025958646 0.011582099 0.012001339 -0.19706236 0.017318454 -0.028004324
0.019968526 -0.030626522 0.0019314474 0.006522105 0.02354283 -0.05012274 -0.008319855 -0.010011606
-0.019379292 -0.03161667 0.025993248 -0.045353483 -0.028196268 0.025673132 0.025850415 -0.03016697
0.011419335 -0.00094499305 0.0348765 0.02116906 0.023326546 0.016518379 0.001952777 0.005933737
0.025494749 -0.055284027 -0.35475782 0.9456122 0.054388776 0.051686153 -0.019211918 0.013012214
0.009568131 0.0076904474 -0.027553283 0.041589536 0.010239412 0.010279955 -0.16473615 0.033395246
0.00036403906 -0.014863275 0.010254655 0.029293315 0.017724777 0.01991772 0.18692046 -0.2711754
-0.032685142 0.0017210707 0.0050973548 0.040400624 0.0031277512 -0.00584676 -0.03236939 0.024560329
-0.036459647 -0.04165219 0.029105086 -0.017799404 0.024811229 -0.005556215 0.020950895 -0.17889129
0.022316134 -0.025716867 -0.023078125 0.018625049 0.013936635 0.02543829 -0.028609766 0.03254773
-0.038395707 -0.03590423 0.013689314 -0.42180574 0.028915443 0.03319815 0.0015056236 0.023277353
0.007821238 0.018982809 0.028772011 0.019400546 -0.022400165 0.025062956 0.022847628 -0.01807546
0.03213559 0.026565844 0.0024816294 0.0025417756 0.012918549 0.019027555 -0.022771582 -0.013892383
-0.009409413 -0.053394567 0.048159126 -0.056068026 0.026125178 0.021824114 -0.048523244 0.02304026
00000000: ff87 b13c cc43 c5bc c177 d9bc 8298 ae3c
00000010: eef7 b63c 5625 cf3c 8def a93c 154f abbd
00000020: 2a4f f03c 2834 023d 68a9 ddba 9498 2c3d
00000030: 5e9b 21bd 3bb5 6dbd 716b 993c d919 a23b
00000040: 2482 81bc 39b3 f23c 3aa7 d4bc d8c2 3d3c
00000050: 44a1 443c b7ca 49be 6edf 8d3c 5369 e5bc
00000060: 0995 a33c 79e4 fabc 9f28 fd3a 62b7 d53b
00000070: e5dc c03c 814d 4dbd 0050 08bc b807 24bc
00000080: 52c1 9ebc 7b80 01bd cbef d43c 93c4 39bd
00000090: dcfb e6bc 7650 d23c 40c4 d33c b920 f7bc
000000a0: 2a18 3b3c 69b9 77ba a9da 0e3d bd6a ad3c
000000b0: 5017 bf3c 8d51 873c 53f4 ff3a cb6f c23b
000000c0: 5dda d03c 8171 62bd d1a2 b5be a413 723f
000000d0: c4c6 5e3d dcb4 533d 5062 9dbc 2e31 553c
000000e0: a6c3 1c3c 2600 fc3b 6cb7 e1bc ca59 2a3d
000000f0: 35c3 273c 426d 283c 98b0 28be 74c9 083d
00000100: 7fdc be39 1885 73bc 2403 283c 89f8 ef3c
00000110: 8d33 913c 7d2a a33c 1468 3f3e 81d7 8abe
00000120: dbe0 05bd 8d95 e13a b607 a73b 207b 253d
00000130: f5fa 4c3b 2d96 bfbb c495 04bd be32 c93c
00000140: b656 15bd 7d9b 2abd ca6d ee3c 0ed0 91bc
00000150: eb40 cb3c e910 b6bb 36a1 ab3c 472f 37be
00000160: 53d0 b63c 2eac d2bc 560e bdbc 8f93 983c
00000170: 7c56 643c f663 d03c 075f eabc c550 053d
00000180: d144 1dbd 5010 13bd 2549 603c ecf6 d7be
00000190: 14e0 ec3c c9fa 073d 5858 c53a 26b0 be3c
000001a0: a624 003c d681 9b3c 48b3 eb3c e5ed 9e3c
000001b0: 8d80 b7bc d450 cd3c f32a bb3c fd12 94bc
000001c0: 9ca0 033d 9da0 d93c d5a2 223b eb93 263b
000001d0: 52a8 533c addf 9b3c 788b babc e19c 63bc
000001e0: f029 1abc 43b4 5abd 8142 453d 96a7 65bd
000001f0: 7804 d63c 7cc8 b23c 4fc0 46bd edbe bc3c
