Dat/Nova pasta/models/CD_model_scripted.pt (torch, 82011 bytes, 5 tensors)

weight f4 [128, 8]
000000 68 e7 68 b8 41 e2 17 ba 76 e5 fd bc bf 90 89 bb
       -5.5528624e-05 -0.00057939073 -0.030993205 -0.0041981633
000010 e3 8c b5 3c 85 e2 ea bb 4f 95 bd 3a cd 5d 84 bb
       0.022161907 -0.0071681165 0.0014464053 -0.0040395022
000020 34 9b b1 3c 65 8b 24 3f b1 7a 63 3c c6 33 4e bc
       0.021680452 0.642752 0.013884232 -0.012585586
000030 36 81 f7 bb 98 96 a2 3c 63 38 d1 3c 99 17 41 bc
       -0.007553245 0.0198472 0.025539583 -0.011785411
000040 03 20 93 be e7 f9 34 bc 8f d7 fc 3e a0 3e 82 bc
       -0.2873536 -0.0110459095 0.49383208 -0.015899003
000050 2e 2a 0c 3d 71 48 42 3d 10 d7 af bd 17 10 92 bc
       0.034219913 0.047432367 -0.08585942 -0.017829938
000060 69 7d 8d 3b 91 20 e5 3b 84 c3 46 bd 68 50 62 bb
       0.0043179286 0.0069924076 -0.048526302 -0.003453279
000070 60 68 a6 ba d1 b6 b8 bb 1c bb f2 3a 63 34 99 3b
       -0.0012695901 -0.005637028 0.0018518898 0.0046754344
000080 10 ca c3 3e 5a 09 d3 bd 6b dd b4 3d 2f e3 dd bc
       0.382401 -0.10304518 0.088312946 -0.027085869
000090 37 d5 52 bd 28 82 b5 3e 48 c0 e0 b9 e3 28 38 3d
       -0.05147287 0.35450864 -0.0004286787 0.044960868
0000a0 91 97 f6 3b ef 5e e7 3c e7 d1 51 3e 8d 01 74 3d
       0.0075253923 0.02824351 0.20490228 0.05957179
0000b0 7e 72 25 3d ac 42 48 bc 6f 8f bc 3c 39 12 c3 bb
       0.04039239 -0.012222927 0.023017613 -0.0059531
0000c0 9d 0b da 3c c0 a2 bf 3d 7b e0 dc 3d 65 5f 93 be
       0.026616866 0.09357214 0.10785004 -0.28783718
0000d0 3d b8 5a 3e 55 11 11 bd 3d bb 9c 3e c6 71 53 be
       0.21359344 -0.03541692 0.306116 -0.2064887
0000e0 05 c4 be 3b d8 b3 e9 bc 5f 24 4a 3c 8c 35 58 bd
       0.005821707 -0.028528139 0.012337773 -0.05278544
0000f0 73 18 b4 3d 0e a3 76 bd d3 ca 1c 3c 40 1c 52 3b
       0.08793726 -0.060214095 0.009569841 0.0032060295
000100 9d 48 66 3f 11 1b 8d bd 69 85 81 3c 93 56 13 3c
       0.8995455 -0.06889928 0.015810685 0.008992809
000110 86 cb d3 3d 71 4c 5e 3e b2 5a 85 bd 34 a6 f8 bd
       0.103415534 0.21708848 -0.065114394 -0.12141076
000120 7c 37 33 bd e5 ad 4b 3e e3 9d e7 bd a0 ee 08 bd
       -0.043754086 0.19890554 -0.113094114 -0.033430696
000130 fa ef 0a 3d 42 4f d6 be 41 fc 7b 3d 16 53 a8 3c
       0.033920266 -0.41857344 0.061519865 0.020547431
000140 b6 64 42 bf 5e d9 57 bc 82 70 29 3d 98 4a 1b bc
       -0.7593492 -0.013174383 0.04136706 -0.009478234
000150 18 47 ff bd a0 c2 49 be 27 06 90 3d c5 79 bf 3d
       -0.12464732 -0.1970315 0.070324235 0.093493976
000160 df 1b 74 3f a3 d2 5f 3d e9 e9 70 3c d0 4c bc ba
       0.9535503 0.05464424 0.014704206 -0.0014366154
000170 18 49 82 3c 70 18 b5 3b b4 b9 85 bb 28 02 38 3d
       0.015903994 0.005526595 -0.0040809754 0.04492393
000180 57 2f 61 be 9b cb 22 be d9 47 9d be de ad c8 b9
       -0.21990715 -0.15897982 -0.30718878 -0.00038276514
000190 f4 61 2f be 97 5f ed bc 27 0d 3b 3d 00 3f 29 3d
       -0.1712721 -0.028976245 0.04566684 0.041319847
0001a0 2c 2c 27 bf 52 de f9 bd a7 e9 44 3c a2 ea 86 ba
       -0.65301776 -0.12200607 0.012018598 -0.0010293315
0001b0 92 79 b0 be be c2 ab 3d 8f 3f a3 3c ef 7f f1 3c
       -0.3446775 0.083867535 0.019927768 0.029479949
0001c0 91 a4 ae bc a2 c7 93 3c 48 54 95 3b cb 20 10 3c
       -0.021318706 0.018039528 0.0045571662 0.008796881
0001d0 6e 1f ae 3c bf 8a 1b b9 5c 68 c3 bc 93 5e 1a bd
       0.021255221 -0.00014833639 -0.023853473 -0.03768785
0001e0 2e 09 2a bf 6c cd 26 3e 69 97 6d bc 8e a9 9d 3b
       -0.6642026 0.162893 -0.014501431 0.0048114723
0001f0 9a 7b 05 bd fc 98 44 bc c2 e4 33 bd da f0 03 3f
       -0.03258858 -0.011999365 -0.043919332 0.51539385
000200 05 af 98 bb f7 3b e6 3b 26 34 b6 be 6e 0b 05 bc
       -0.004659536 0.0070261913 -0.3558666 -0.008120401
000210 67 61 bb bc 55 5d b8 bb 9a 1f 69 3a 15 1f 7d bb
       -0.022873593 -0.0056263604 0.00088929536 -0.0038623263
000220 27 05 5c bd f1 56 b0 bd d0 52 a2 bd ee 81 3b be
       -0.05371585 -0.08610333 -0.079259515 -0.18311283
000230 23 a4 4c bd d5 15 9e 3e 86 c9 8c bd a3 1a 85 3e
       -0.04996122 0.30876032 -0.06874375 0.25996885
000240 1b 0d 9e bc c6 16 e0 bd 04 e1 ac 3d ba 30 19 bd
       -0.019293359 -0.10941844 0.08441356 -0.037399985
000250 60 20 19 3e 76 a4 93 3d f6 75 7e 3e 6e df 01 3e
       0.14953756 0.07209103 0.24849686 0.12682888
000260 64 36 36 bc 1b 52 9d 3e 07 aa 1a bd 4d 20 29 3a
       -0.011121366 0.30726704 -0.037759807 0.00064516516
000270 54 05 b5 bd 49 62 00 bd e8 ec d6 bc 17 0f b0 be
       -0.08838907 -0.031343732 -0.026236013 -0.34386513
000280 20 02 1f bf c1 04 2d 3e 28 8b 30 bb 79 a3 4b 3c
       -0.6211262 0.16896345 -0.0026938412 0.012429112
000290 c9 f6 fb bc f9 0b 76 bc 9f 2a 35 bd 88 ec 00 3f
       -0.030757325 -0.015017503 -0.0442301 0.5036092
0002a0 89 90 08 3d cb 9b b1 be 6d 0e f1 bd 7a 28 93 bc
       0.033340964 -0.34689173 -0.117703296 -0.017963637
0002b0 22 e2 c6 3d a3 0e c2 bc 81 32 09 bc 66 1c 88 be
       0.097111 -0.02368862 -0.0083738575 -0.26584166
0002c0 2b 61 16 3d e6 53 69 3e fd 1b fa bd c6 f2 6d bc
       0.03671376 0.22785911 -0.122123696 -0.014523214
0002d0 06 fc e2 3e d3 23 33 bd 05 5b 7d 3c 2b 77 69 bd
       0.44332904 -0.043735337 0.015463595 -0.056998413
0002e0 63 33 07 bf 70 4f b2 3d 8d cf 57 3e bb b9 d8 3a
       -0.52812785 0.08706558 0.21075268 0.0016534844
0002f0 fe 17 19 bd 64 6b bb 3c e6 80 53 3d 77 36 ca 3c
       -0.037376396 0.022878356 0.0516366 0.024684174
000300 fa c3 03 bb ba f7 39 3a 2b 28 8e bf 4f e0 89 ba
       -0.0020105825 0.0007094104 -1.1106008 -0.001051912
000310 16 54 9d ba 92 b4 a8 3a 8d 4e 28 3b d0 1f 9d ba
       -0.0012003209 0.0012871197 0.0025681586 -0.001198763
000320 d3 d2 b9 3e 91 ff 21 3e 70 01 c6 3c f6 16 fc 3b
       0.3629366 0.15820147 0.024170607 0.007693167
000330 52 69 b3 ba af aa fb 3c 90 29 01 bf 11 be 51 3d
       -0.0013688004 0.030721037 -0.50454044 0.051206652
000340 4c de aa bd e2 27 ad bb 48 26 5a 3e de 1e b4 3b
       -0.08343181 -0.0052842954 0.21303666 0.0054968437
000350 21 60 9e 3d 1a 30 44 3e 75 83 0f 3e 4c 83 76 3d
       0.07733179 0.19158974 0.1401499 0.06018381
000360 52 90 07 3c db 5b 07 3c 39 f8 38 3e 22 c1 17 3d
       0.008274155 0.008261646 0.1806344 0.03704942
000370 f6 f1 24 3d 76 c1 d2 3c 95 38 ad 3d e3 44 46 3c
       0.040269814 0.025727015 0.08458058 0.012101385
000380 1e 21 5c 3d 66 db 38 be b2 59 b7 bc 3b ce c2 3c
       0.05374252 -0.18052444 -0.022381637 0.023779979
000390 be 67 97 be 34 ea 07 bd 1d f3 a2 3c 7d bc ba 38
       -0.29571337 -0.033182338 0.019891316 8.90428e-05
0003a0 cd 1f 42 bc 1e f7 1e bc 78 86 58 3d a6 24 b0 3b
       -0.011848402 -0.009702472 0.052862614 0.0053754626
0003b0 45 39 cd 3a a7 45 0a bb ee e1 0e 3b b1 03 51 3c
       0.0015657326 -0.0021098645 0.0021802145 0.012757228
0003c0 6f 4d a5 bc 42 e5 ce bd 98 9c 4d 3c 51 f7 58 3d
       -0.020178525 -0.10102321 0.012549542 0.052970234
0003d0 f0 63 65 3e dd cc a3 bd 37 33 58 bd ad 79 6e bc
       0.22401404 -0.07998059 -0.052783217 -0.014555377
0003e0 1f 41 31 bd 2a d4 c7 bd 75 5c 3f 3e 1c 72 b7 3c
       -0.043274995 -0.09757264 0.18687613 0.022393279
0003f0 23 00 2d 3c 04 33 16 3e ad ba 4f bd d9 10 0e 3e
       0.010559115 0.14667898 -0.050715137 0.13873614

bias f4 [128]
000000 cf 26 24 be 7a e4 44 be b9 aa 08 bf e5 82 01 be
       -0.1603043 -0.19227782 -0.533855 -0.12647589
000010 b5 ce 41 bf cf 95 08 bf 19 04 82 bf 7f 60 b9 be
       -0.75706035 -0.5335359 -1.01575 -0.36206433
000020 16 92 f5 be cd bc 40 bf 09 e4 17 bf 6f d7 44 bf
       -0.47963017 -0.7528809 -0.5933233 -0.76891226
000030 05 26 00 bf 0d 16 b5 be 2a 87 70 be 1b 51 04 bf
       -0.50058013 -0.35368386 -0.23489061 -0.5168626
000040 f7 e5 3c 3f 88 4c 53 bf 65 e9 ff be 73 20 10 bf
       0.737884 -0.8253865 -0.49982753 -0.56299514
000050 1c 5d 0b be 95 be 38 bf 49 e1 61 bf 00 43 17 bf
       -0.13609737 -0.72165805 -0.8823438 -0.5908661
000060 76 17 ab 3f 52 68 26 be d4 de eb be 87 d7 1c bf
       1.3366535 -0.16250733 -0.46068442 -0.6126637
000070 d9 1f cb be 80 6e 28 be a1 ca ed be 1e 50 04 bf
       -0.39672735 -0.16448402 -0.46443656 -0.5168475
000080 02 cb 49 be 89 8e 13 be ca 45 17 bf 67 27 15 bf
       -0.19706348 -0.14409842 -0.59090865 -0.5826325
000090 4e 12 27 be 0d c0 3f be a7 e3 5f bf f5 25 c1 bd
       -0.16315576 -0.18725605 -0.87456745 -0.09431068
0000a0 c0 ea 26 bf b0 20 e3 ba 76 ec 48 be 8f 4d ee be
       -0.6520195 -0.0017328467 -0.19621453 -0.46543548
0000b0 b3 06 65 bf 66 a9 cb be 53 6e a4 be 42 1b 09 bd
       -0.8946335 -0.39777678 -0.3211542 -0.03347326
0000c0 ed d1 7c bf af 78 b0 bd f2 6c 5e bf 1b 88 17 bf
       -0.9875782 -0.086167686 -0.8688499 -0.59192055
0000d0 f4 46 06 bf e5 a6 d3 be 63 41 56 bf 41 26 7d be
       -0.52452016 -0.41338268 -0.8369352 -0.24721624
0000e0 8b 66 f2 be ef f9 32 be 89 19 82 be 3e 99 36 bf
       -0.4734386 -0.17478155 -0.25410107 -0.7132758
0000f0 f7 60 85 bf 57 84 2d bf 8b 91 47 be fa 77 28 bf
       -1.0420216 -0.6778006 -0.19489114 -0.6580807
000100 c9 3e 0f bf fe 6e 0c bf d2 8a 71 be 7b 59 1c bf
       -0.5595518 -0.5485686 -0.23588112 -0.61074036
000110 a5 ff 49 bf 74 b6 25 bf a1 0f 9e be 37 00 25 bf
       -0.7890571 -0.64731526 -0.308713 -0.6445345
000120 08 63 0e bf 2a 0d 60 bf 64 22 5b bf d6 fe c4 be
       -0.5561986 -0.87520087 -0.8559935 -0.38475674
000130 76 9a ad be b8 3d b8 be 18 79 3a bf 8d 90 ca be
       -0.33906907 -0.35984588 -0.72841024 -0.39563408
000140 e1 76 2b bf 9c 15 00 bf ed e9 aa be d6 28 53 be
       -0.6697827 -0.50032973 -0.33381596 -0.20621046
000150 8f 90 ae be ec 01 f6 bd fd 06 8d be 34 24 22 be
       -0.34094664 -0.12012085 -0.27544394 -0.15834123
000160 b7 ea 38 bf 83 8a 14 be 9d 17 6d bf 95 9e 58 be
       -0.72233146 -0.14505963 -0.92614156 -0.21154244
000170 6e eb 76 3f 6f aa 5d bf 3b 2f 7f be e6 3c 20 bf
       0.9645299 -0.86588186 -0.2492036 -0.62592924
000180 70 9f 11 bf c3 e6 35 be ea 2d 15 bf 9a 68 75 be
       -0.5688391 -0.1776381 -0.58273184 -0.23965684
000190 81 98 2c bf e3 8e 1d be 99 13 12 be 39 77 6f bf
       -0.674202 -0.15386538 -0.14265288 -0.93541294
0001a0 cf e2 38 bf 7e b2 00 bf 5a 17 3f bf af f9 3e bf
       -0.7222108 -0.5027236 -0.74645007 -0.74599737
0001b0 bd d7 41 bf 5c a1 11 bf 73 2a 35 be 2f d8 16 bf
       -0.75719815 -0.5688684 -0.17691974 -0.5892362
0001c0 2e 51 36 bf c3 31 29 bf 07 33 16 bf fa 56 0d bf
       -0.7121762 -0.66091555 -0.5867161 -0.5521084
0001d0 46 4f 9f be d0 27 d9 bb b1 e2 3f bf 8e 1c 3b be
       -0.31115168 -0.0066270605 -0.7495528 -0.18272611
0001e0 d4 ba 90 be 40 90 13 bf a6 73 51 bf 10 9a d8 be
       -0.2826754 -0.57641983 -0.8181709 -0.4230504
0001f0 dc 7b 4d bf 65 71 42 bf 1e 5a 8e be a5 18 1d bf
       -0.8026712 -0.75954276 -0.2780313 -0.6136573

weight f4 [128, 128]
000000 7b 8d 0d be eb 35 a9 3e 2c 3a 60 3e f3 d2 c3 3c
       -0.13823502 0.3304895 0.21897191 0.0239043
000010 8c d8 25 3d 23 6b 12 3d 15 9f 97 be f3 8c b8 bc
       0.04048972 0.035746705 -0.29613557 -0.022528147
000020 88 0c df bd 58 46 b6 be b9 37 b5 3e bd c6 b4 bb
       -0.10891062 -0.35600543 0.35394076 -0.0055168555
000030 a2 32 42 bd b2 07 14 3e e3 ac 17 3e d6 2d aa bb
       -0.04741157 0.1445606 0.14812045 -0.0051934524
000040 c6 de 90 be ba 4d cd 3d ef 8a 88 3c 00 dc 72 3c
       -0.28294963 0.10024591 0.016667811 0.01482296
000050 92 8e 16 bd 5c c1 f4 3c ac 1f b8 3e 2d f3 96 3e
       -0.03675706 0.029877357 0.35961664 0.29482403
000060 4e c5 b5 bd fa 5a 0d 3b 97 f5 09 be 61 d8 84 3d
       -0.088755235 0.0021569119 -0.13472591 0.064865835
000070 64 29 c0 be 04 2e e3 bd 8b 40 c4 bc a4 56 5c bd
       -0.3753158 -0.11092761 -0.023956558 -0.053793564
000080 67 44 de bd e6 76 19 3f 90 8a a0 3d 7a 84 11 bc
       -0.108528905 0.5994705 0.07838929 -0.0088816825
000090 73 40 b1 bd df b7 15 be bc 1c 9b 3f 18 45 90 3e
       -0.08654871 -0.14620923 1.2118144 0.28177714
0000a0 7c 00 a1 bd 78 fd bc bd 64 4e 5c 3e 8c 7b 16 3d
       -0.078614205 -0.09228033 0.21514279 0.036738917
0000b0 57 0c 2f bf 46 cd b2 bd b2 db 77 be f4 e5 2b be
       -0.68378204 -0.08730559 -0.24204901 -0.16786939
0000c0 8b 39 dd be 32 20 92 3d 67 7f c4 3e 57 01 58 be
       -0.43207964 0.07135047 0.3837845 -0.21094261
0000d0 8a 93 b7 3d 25 0c 83 ba d2 9e 5c bc 55 74 a3 3e
       0.08963688 -0.0009998126 -0.0134656 0.31924692
0000e0 01 aa 2a 3f e1 c7 06 be ce 23 08 bf 1a e1 1c 3e
       0.66665655 -0.13162185 -0.53179634 0.15320244
0000f0 92 4b 5a bc bd 75 ce bc 81 9e a1 bc 1e 12 39 3d
       -0.013323681 -0.025202626 -0.0197289 0.045183294
000100 03 a8 dd bd b1 b1 ca bf 85 68 58 be 61 da 97 3e
       -0.10823061 -1.5835477 -0.21133621 0.29658797
000110 a4 bb 57 3e 3f 26 11 bc 3c 1a 0d be 49 c2 3a 3f
       0.21067673 -0.008859216 -0.13779539 0.72952706
000120 a7 1e 96 3c 0a 4e da bd 42 67 a0 3d 83 f5 48 be
       0.018325163 -0.10659416 0.07832195 -0.19624905
000130 ac a5 6b be 98 71 99 3b 6e e8 68 3e e4 05 76 3c
       -0.23012418 0.004682731 0.22744915 0.015016053
000140 2f f2 3f bd f9 19 d1 3d fc 74 09 be 98 94 0c bd
       -0.046861824 0.10210032 -0.13423532 -0.034321398
000150 ee 89 9a bb ea 02 5b bd 92 d6 0c be 9a 7e ab 3c
       -0.0047161495 -0.053469576 -0.13753727 0.020934392
000160 fc b3 d5 bd 04 b6 4f bd 6c 4c e9 3d e5 33 86 3d
       -0.1043472 -0.050710693 0.113915294 0.06552867
000170 04 0c 72 be 7a 77 c0 3a 2a 76 2d bf 31 db 37 3d
       -0.23637396 0.0014684044 -0.6775843 0.04488677
000180 d2 f8 d3 bd 2f b1 02 bd 81 9b 03 bf 0c 42 70 3d
       -0.10350193 -0.031907257 -0.51409155 0.058656737
000190 dd 15 80 be ab 14 6b 3c b9 d8 aa 3d ae 8d 45 3f
       -0.2501668 0.014348189 0.08342118 0.7716931
0001a0 ed d6 6f 3d da b0 28 be 4c 0b 87 3f f7 c3 d9 3d
       0.05855458 -0.16473714 1.0550323 0.106330805
0001b0 c2 5b 4a bf 4c 78 ca bd 53 67 90 3c 4d 47 00 bf
       -0.7904626 -0.09886226 0.017627394 -0.50108796
0001c0 1e fe d3 3d 21 42 26 be 99 77 2c be 5f eb 0b bf
       0.103512034 -0.16236164 -0.16842498 -0.5465602
0001d0 93 e8 d8 bd 5e ae 10 bb dd 20 19 3e 98 c4 b0 be
       -0.10591235 -0.0022076587 0.14953943 -0.3452499
0001e0 31 cb 15 3e ac f6 d1 bd 2e ff d6 bd 1d 78 dc be
       0.14628293 -0.10252127 -0.104978904 -0.4306039
0001f0 e7 b9 ac 3d 90 40 8e 3d 06 8f 66 be fe b7 d9 bc
       0.084338956 0.06945908 -0.22515497 -0.026576992
000200 44 c3 bc bd 68 5f 74 be 65 07 f9 3d 7b d3 d2 3d
       -0.092169315 -0.2386452 0.121596135 0.10294243
000210 e2 fd 54 3e 11 49 f4 3d e6 5f 0d 3e 52 da 1a be
       0.20799974 0.11927999 0.13806114 -0.15122345
000220 f2 a4 e8 3e 4c 12 0f bd 8a ae d8 3e 5e e0 2e 3d
       0.45438343 -0.03492956 0.42320663 0.042694442
000230 02 f6 b2 be 8f 09 0e bd b5 bc f1 3d d2 b4 37 bc
       -0.34953314 -0.034677085 0.11803571 -0.0112125445
000240 59 9e 96 bc 58 25 d1 3d 04 7c 4e bd 39 ee af 3d
       -0.018386053 0.10212201 -0.05041124 0.08590359
000250 01 a8 fb 3d b5 31 c0 bd bc a6 b2 3d e7 f7 cc 3d
       0.122879036 -0.09384481 0.08723208 0.10008221
000260 62 13 e0 bd 71 9e 32 be e6 51 00 3e 71 e4 46 3d
       -0.10941197 -0.17443253 0.12531242 0.048557702
000270 cc 9a e4 3d 52 6d 57 bd cd 3a 4f 3e c4 94 bf 3d
       0.11162338 -0.05259449 0.20237274 0.09354547
000280 f0 d2 0d 3d 43 b0 8f 3e 3f 59 e5 bd af 48 5a 3e
       0.034624994 0.28064165 -0.11198663 0.21316789
000290 6c b3 a9 3d 5b ee 41 3d bf 89 aa be 87 6e 75 3e
       0.08286175 0.047346454 -0.33308217 0.23967944
0002a0 97 03 5c be 9a 7b 61 bd 77 6a 5c 3c 95 8c 94 be
       -0.21485744 -0.055049516 0.013453118 -0.29013506
0002b0 e6 5e e3 bd 1f 21 e8 bd 6a 51 a5 3f e2 44 45 3c
       -0.11102085 -0.11334442 1.2915471 0.012040349
0002c0 8b d8 ce be 7b b2 c6 3d 32 73 74 bc 86 7a 17 3e
       -0.40399584 0.09702011 -0.014920043 0.14792833
0002d0 17 f3 81 3d 61 65 6b be 88 c9 98 3d 3b 8e de 3e
       0.06345194 -0.22987892 0.07460314 0.43467888
0002e0 2c 4f 6b be b3 1e 07 bb ee 5d e5 3e 2d 11 20 3e
       -0.2297942 -0.0020617663 0.44798225 0.15631552
0002f0 8b 57 a6 3e 7f 3e 1b 3d a8 78 27 bd 1c a6 05 3e
       0.32488665 0.037901398 -0.04088655 0.13051647
000300 33 32 24 3d d3 07 b4 be 79 fe 22 be 73 19 6e 3d
       0.040086936 -0.3516222 -0.15917386 0.05812974
000310 0e d6 38 bd c7 db 89 3d 9f b9 7e be f1 7d b7 3d
       -0.045126013 0.06731372 -0.24875496 0.08959568
000320 9a a8 8d bd dd ad ab 3e 4d 95 be bb 68 e5 15 be
       -0.06916924 0.33531085 -0.005816138 -0.14638293
000330 0e 5d 23 be dc 17 f2 3d 39 11 81 bd e8 26 40 be
       -0.15953466 0.11820957 -0.06302113 -0.18764842
000340 fb b6 2e be dc 2c 00 be 27 8e 63 3e 9b 9f 09 3e
       -0.17061989 -0.12517112 0.22222196 0.13439791
000350 c0 12 ff 3d 41 4f 59 3e 82 6c 32 3c d6 6e c2 bd
       0.12454748 0.21221639 0.010890128 -0.094937965
000360 8c 88 fa 3d 96 ab e1 3d 54 fa d4 3e 18 58 51 be
       0.122330755 0.110190555 0.41597235 -0.20443761
000370 8c f2 ed 3c 74 88 69 3d 36 59 0e be d6 62 37 3d
       0.02904632 0.057014897 -0.13901219 0.04477199
000380 5f 8d f6 bd df 9d 4f 3d 35 3f b1 bd 70 d7 3b 3d
       -0.12038683 0.050687667 -0.08654634 0.045859754
000390 ff 82 02 3e 0f 17 d3 bd f4 3e 04 be e5 91 8b be
       0.12745284 -0.103071325 -0.1291464 -0.27259746
0003a0 55 69 9c 3d 3f 05 43 be 35 a5 c8 3e 63 62 44 bc
       0.07637278 -0.1904497 0.39188543 -0.011986348
0003b0 bd 04 6a 3e 95 b3 1c 3d da 91 01 3d dc 62 dc 3d
       0.2285337 0.0382572 0.031633236 0.107610434
0003c0 dc 2c b5 bd d8 1e 17 be 27 5f e8 be 6c 34 60 be
       -0.08846447 -0.1475786 -0.45385095 -0.21894997
0003d0 9d 4b 2d 3e 87 a6 c9 bd 09 81 aa 3e f1 f4 3d bd
       0.16923375 -0.09846216 0.3330157 -0.046376172
0003e0 a1 69 85 be 36 d6 90 3c 08 3c 05 be bb b5 59 3e
       -0.2605715 0.017680269 -0.13011181 0.21260731
0003f0 2c 36 8a bc 78 45 93 bd 38 7f 7e 3e 0b 76 13 be
       -0.016871534 -0.071909845 0.24853218 -0.14400499

bias f4 [128]
000000 b2 65 79 bf d6 6e 0a bf 00 ba 21 bf 55 6d e7 be
       -0.974208 -0.5407537 -0.6317444 -0.452006
000010 02 87 2a bd e7 58 cc bd 70 65 dc bd 24 00 0e be
       -0.04163266 -0.09977894 -0.10761535 -0.13867241
000020 a0 0b 08 3d 5e 6a ee be c4 51 74 3e d9 6b 02 bf
       0.03321421 -0.46565527 0.23859316 -0.5094581
000030 9b 37 67 bf 6d 62 1e bf 66 1d 31 3f 74 3c 19 be
       -0.9031922 -0.61868936 0.69185483 -0.14964467
000040 b8 35 b0 3e 58 31 27 3f 1c 61 ad 3e 62 e7 84 be
       0.34415984 0.6530967 0.3386315 -0.2595778
000050 53 e1 03 bf 43 84 02 bf cf 95 29 3e b6 d4 24 bd
       -0.5151569 -0.50983065 0.16561054 -0.04024192
000060 8e b7 2d 3d b4 a9 16 bf 06 bb 28 be 93 db d4 3d
       0.04241138 -0.58852696 -0.16477594 0.10393443
000070 f9 3b df 3e f6 26 5e bf ac cf b7 3e 34 1f be 3b
       0.43600443 -0.867782 0.3590063 0.0058020595
000080 0e 3d 6a bc ab d0 f6 bd 6c 04 10 3f 0c ab 1a 3f
       -0.014296783 -0.12051519 0.5625675 0.60417247
000090 19 77 c4 be 45 f8 0d bf 53 71 b9 be f2 96 2c 3e
       -0.38372114 -0.55456954 -0.36219272 0.16854456
0000a0 b1 92 41 be 93 40 63 be a1 68 96 bd 9b 62 d6 3c
       -0.18903615 -0.22192602 -0.07344175 0.026170066
0000b0 36 24 03 be b7 c5 a3 be 0a ef 21 3d a3 eb 73 3e
       -0.12806782 -0.31986782 0.039534606 0.23820357
0000c0 5c 6f 66 be c9 c6 7e 3b 3f cc 43 be e5 d5 20 bf
       -0.22503418 0.003887581 -0.19120882 -0.6282638
0000d0 79 25 0f 3d 0b 38 14 bf e5 62 f7 3c 4d fd 58 bf
       0.034947846 -0.57898015 0.030198524 -0.84761506
0000e0 95 73 50 3e ed 95 3c 3d 23 47 f4 be 72 a5 82 be
       0.20356591 0.046041418 -0.47710523 -0.2551685
0000f0 90 15 d6 be 07 41 2f 3e 21 94 f8 3c c3 5d c2 be
       -0.41813326 0.1711465 0.03034407 -0.3796216
000100 52 2a f7 bd dd 51 f0 be ce ff 46 be 27 4c ec bd
       -0.12068619 -0.46937457 -0.19433519 -0.115379624
000110 b3 12 90 be 56 ed 45 bf bd 34 49 be a6 00 a7 3c
       -0.28139266 -0.7731527 -0.19649024 0.020386051
000120 07 46 ad 3e 8d f0 e5 be 62 47 5d 3e 01 60 a3 be
       0.3384249 -0.44910088 0.21609262 -0.31909183
000130 eb d7 0a 3f 0a 18 00 be 26 af b3 be 48 6c 85 be
       0.54235715 -0.1250917 -0.35094565 -0.26059175
000140 69 8b 44 3e b2 59 75 3d 39 67 80 bd 2e 31 af 3e
       0.19193806 0.059899993 -0.06269688 0.3421721
000150 1a 5f e0 bd cd fe e0 3a d0 8d 51 bd 8f f5 9a 3d
       -0.10955639 0.001716578 -0.051160634 0.07566368
000160 ec 62 65 be ba b5 68 be 72 d6 72 bd 62 f0 a1 be
       -0.22401017 -0.22725573 -0.059286542 -0.3162871
000170 70 46 cd bd ab ef 6c 3d 43 1c 1c be ad 73 cd be
       -0.100232005 0.057845753 -0.15245156 -0.40127316
000180 9a ee fe be b2 74 8d be ff 79 45 be 13 a0 00 be
       -0.49791414 -0.27628094 -0.19284819 -0.12561063
000190 51 c0 24 3f a0 ee f8 be fa ea f8 3d 48 5b 0a bf
       0.6435595 -0.48619556 0.12154193 -0.54045534
0001a0 9a 6d 15 bf ed 19 8a bd 3b 4e e8 be f3 46 8c 3e
       -0.58370364 -0.06743226 -0.45372185 0.2739788
0001b0 e7 06 4d bd 5e 4f e9 be f9 1b 84 bf 16 23 d3 3e
       -0.05005541 -0.45568365 -1.0321037 0.41237706
0001c0 34 f4 dc be 81 94 c1 be 65 41 79 3e 75 d4 c1 3c
       -0.43155062 -0.37808612 0.24341352 0.023660878
0001d0 49 35 19 bf 36 34 8f be ec 6d 10 be 0e d6 cc 3b
       -0.5984693 -0.2796952 -0.14104432 0.0062511032
0001e0 09 89 76 be ba eb f2 3d a6 b3 3d be b3 b0 e3 be
       -0.24075712 0.118613675 -0.18525562 -0.44470748
0001f0 f4 1c 13 be eb 85 88 be be fe 3d 3d 0d cf 39 bf
       -0.14366513 -0.2666467 0.04638552 -0.7258156

weight f4 [1, 128]
000000 02 30 ed 3d ac 38 83 3d 76 aa 58 3d c9 d4 4a 3d
       0.115814224 0.06407294 0.05289694 0.049519334
000010 88 2d 38 bd a1 20 53 bd d3 f1 f0 bc be 47 b0 bd
       -0.044965297 -0.05154479 -0.029412186 -0.08607434
000020 c9 ae 73 3c b3 92 86 bc e4 4d 24 bd 51 2a 87 3a
       0.014873215 -0.016427374 -0.040113345 0.0010312294
000030 33 dc 14 3e f7 f8 21 bb 39 32 5d bd d1 28 31 3d
       0.14537124 -0.0024715045 -0.054002974 0.043251816
000040 a7 29 ff bc 95 08 89 bd eb 40 f9 bc 33 ca ab bc
       -0.031147791 -0.0669109 -0.030426463 -0.02097044
000050 dc c3 ef 3c 19 8e 7f 3d 37 78 30 bd 6a f4 e6 3c
       0.029268198 0.062391374 -0.043083396 0.028192718
000060 c0 f4 38 bc 30 31 f6 3c 45 f5 fb 3c 50 bd 98 bc
       -0.011288822 0.030052751 0.030756602 -0.018644959
000070 4b 8f 1d bd 49 2c a8 3d ee 05 a7 bc e9 43 20 bd
       -0.038466733 0.08211572 -0.02038857 -0.039127264
000080 2d e7 27 3d 69 3c 5a bc 7e bd 12 be 12 99 35 be
       0.04099195 -0.013320067 -0.14330098 -0.17734173
000090 c7 43 01 3d fb 15 58 3d 50 5d 3d 3d 6d 38 16 bd
       0.031558778 0.052755337 0.046231568 -0.036674906
0000a0 e9 bc 7a 3e 8a 51 ba bc 7b 91 1d bb 30 dc e5 3b
       0.24486126 -0.022743959 -0.0024043012 0.007014774
0000b0 2f d7 de bc bb b2 48 3d b1 0b 9f ba f6 20 2e bd
       -0.027202217 0.048998576 -0.0012134222 -0.042511903
0000c0 b4 79 4a 3d 0d f8 74 bd fc 36 8e be de 41 87 3c
       0.04943247 -0.059806872 -0.27776325 0.0165109
0000d0 fd 0e 83 3c 6f bb cf 3e 98 0a 7a bd 90 5f 01 3d
       0.015998358 0.40572688 -0.06104526 0.031585276
0000e0 25 c0 d2 bb 11 6e 92 3c dd 43 2a ba f8 c0 1a 3d
       -0.006431597 0.01787475 -0.0006495098 0.037781686
0000f0 00 45 68 3b f0 5e 1f bd af 4c 84 bc 5f be ff bc
       0.0035441518 -0.0389089 -0.016149847 -0.031218706
000100 a4 ab d0 3c 71 74 1f 3c 2b 95 dd bc 79 fb 7f be
       0.02547247 0.009732352 -0.027048668 -0.24998273
000110 83 b8 ff 3c f8 1f ee 3d e4 e6 0a 3d a9 9b fc 3b
       0.031215912 0.11627191 0.0339116 0.007708986
000120 d2 33 22 bd 74 09 14 3d c1 30 1a bc 6f 07 d9 3c
       -0.0396002 0.036141828 -0.009411038 0.026492802
000130 62 84 d6 bc c1 f8 86 bc 28 54 4a bc a0 b2 2a 3d
       -0.026186172 -0.016476037 -0.012349166 0.041674256
000140 02 e8 8f bb ec 37 c7 bc db b1 84 bb 1f cd b3 bc
       -0.004391671 -0.024318658 -0.0040495223 -0.021948395
000150 99 00 06 bf 9c 65 60 ba 08 23 77 3c 7e 40 2d 3c
       -0.5234466 -0.0008560063 0.015084036 0.010574458
000160 08 1d 7f 3c c7 0f 97 bd 61 2c 0b 3c 55 e8 5a 3d
       0.015570886 -0.07376056 0.0084944675 0.053444225
000170 24 71 91 3b 66 63 b7 3c ce ac aa 3d b9 82 b9 3c
       0.0044385362 0.022386264 0.08333741 0.022645341
000180 f1 83 34 3d 62 c5 5f 3d 2b 19 c3 bc 2a 5a c7 3c
       0.04407114 0.0546316 -0.023815712 0.024334986
000190 18 c3 50 be 6d 4d 21 bd c2 9a d9 39 7d 5a 1f 3d
       -0.20386922 -0.03938048 0.0004150477 0.038904656
0001a0 7a b6 64 3c 75 69 70 bd f8 52 fe 3c 09 cf e4 bd
       0.013959521 -0.05869432 0.031045422 -0.11172301
0001b0 67 1f 95 be d5 e5 ee 3c 58 81 9a 3d 89 4b c1 bc
       -0.2912552 0.029162327 0.075442016 -0.023595588
0001c0 d0 db 87 3d 98 0e 12 3d 12 bf 80 39 c2 2c f3 bc
       0.06633723 0.03565845 0.0002455642 -0.029684428
0001d0 ca 51 1d 3d d8 4b 81 3d ac 8e ed 3c d7 81 e0 3c
       0.03840808 0.06313294 0.028998695 0.027405662
0001e0 7a 2e 1b 3d ad e3 e4 bc 40 ac e7 3c 3c c0 5f bb
       0.03788612 -0.027940596 0.028280377 -0.003414168
0001f0 e7 f5 5f bd c0 89 80 b8 22 6c 63 bc 8f cd 5e 3d
       -0.05467787 -6.1291736e-05 -0.013880761 0.054395255
