Dat/Nova pasta/models/CL_model_scripted.pt (torch, 82011 bytes, 5 tensors)

weight f4 [128, 8]
000000 a6 28 e3 3e ab 98 8c bc bc f3 14 3f 8e 1b 9c 3c
       0.4436695 -0.017162642 0.5818441 0.019056108
000010 57 0a cb 3b 6e 72 0b bc 31 da 3c bc c0 e2 a7 bb
       0.006196301 -0.008511169 -0.01152663 -0.0051234663
000020 05 87 5d bc d7 4c 13 3d 80 d3 60 bc 77 b3 d6 3c
       -0.013520961 0.035961952 -0.0137223005 0.026208622
000030 d0 80 d6 3c ec f3 9d 3c f7 88 51 bc 94 27 06 bd
       0.02618447 0.01928135 -0.012789003 -0.03275259
000040 a0 db 3f 3e ab 2f 44 3d a6 2b 78 bd 0d 9f 49 3b
       0.18736124 0.047897022 -0.0605885 0.0030764968
000050 55 f7 4c ba ba 7f 00 3e fb 8e 75 bc ef 21 27 bc
       -0.0007818838 0.12548724 -0.0149877025 -0.0102009615
000060 2f 63 3e bb d9 a6 02 bd bd c4 90 3f ea 77 73 3b
       -0.0029050817 -0.0318974 1.131004 0.0037150332
000070 9a 64 72 bc 88 39 e5 3c 44 7e 53 bd c6 6b 9e bc
       -0.014794493 0.027981535 -0.05163409 -0.0193385
000080 37 3c b7 be f7 f0 86 bd 8c 2c 03 3c 72 17 b2 3c
       -0.35788128 -0.06588929 0.008006226 0.021739695
000090 53 28 2e 3e 13 c9 cd 3d 93 cc 70 bd e9 bc 2b be
       0.1700757 0.100481175 -0.058788847 -0.16771282
0000a0 5c c1 1c 3b 9f 16 eb 3b 42 2f ea bc f1 53 91 bc
       0.0023918962 0.0071743275 -0.028586987 -0.017740222
0000b0 b4 c9 9c 3c ca 92 64 bb 5c 78 9c bb 39 98 d4 39
       0.019139148 -0.0034877532 -0.00477509 0.00040549206
0000c0 6b 88 31 3f 17 80 9d bd f7 a0 25 3d 00 31 f8 bb
       0.6934878 -0.07690447 0.04043671 -0.0075742006
0000d0 2f 6f 08 bd c8 3e b3 bc 88 9f a2 3c 51 1c 06 3d
       -0.033309158 -0.021880522 0.019851461 0.03274185
0000e0 65 c9 50 3f af e2 bd 3d 3c 5b 11 be 5c fc 01 3c
       0.81557304 0.09271752 -0.1419496 0.007933702
0000f0 16 fb 33 3c 5b 6a 15 bb 82 c2 58 be 6b 3b fb 3d
       0.0109851565 -0.0022798989 -0.21167949 0.122671925
000100 da 52 42 3f 81 16 5b 3d 78 0a f1 3b 1a 8f aa bd
       0.7590767 0.05348826 0.0073559843 -0.08328076
000110 77 a1 80 3e d6 0f c6 3e 9f 05 b5 be 51 ae cf be
       0.25123188 0.38683957 -0.3535585 -0.4056268
000120 19 a1 63 bf b9 04 b9 3e 66 86 77 bb 8f 09 7a 3b
       -0.8891769 0.36136416 -0.0037769317 0.003815267
000130 64 e2 2d bb ce 76 27 ba 9c 41 c0 bb dc 9d d2 39
       -0.0026532644 -0.0006388248 -0.0058671962 0.00040171936
000140 c4 83 0b 3e d4 49 7c 3b a8 f9 82 bf 0f 77 ca 39
       0.13624483 0.0038496153 -1.0232439 0.00038617148
000150 1c a4 45 3d 7a fb 71 3d 8e ea 8d bd 17 b1 88 bd
       0.04825221 0.059077717 -0.069295034 -0.06674402
000160 e7 e0 09 bf b5 9e 2f 3f ae 22 bd ba 6a 63 28 3b
       -0.538588 0.6860154 -0.0014429891 0.002569402
000170 2e 38 a6 3b a6 ff 19 3c 64 f7 21 bc a0 b0 ff 3b
       0.005072615 0.00939933 -0.009885643 0.0078030378
000180 8e ae 86 bd f8 4d a2 be b4 aa 97 bd 72 a8 54 3c
       -0.065762624 -0.3170011 -0.07405606 0.012979614
000190 0f b8 99 be 9b 20 a4 bd c8 d5 a7 3e 4f ac 2b 3d
       -0.30023238 -0.080140315 0.3278029 0.041912373
0001a0 b3 49 57 3f c2 35 8f 3c d6 92 2f 3d 4e 42 18 3e
       0.8409683 0.017481688 0.042864643 0.14869043
0001b0 57 f0 82 3e 2f 9e 26 3e 2e c8 0c be 71 83 7c be
       0.2557399 0.1627128 -0.13748237 -0.24659516
0001c0 ce 6e 80 3d 66 a7 17 3d b3 2a 5f bd 16 3b 2d be
       0.06271134 0.037024878 -0.05448408 -0.16917071
0001d0 96 0e e6 3d f1 ff 14 be ec e8 6e 3e 8c 49 0a be
       0.11233251 -0.14550759 0.2333104 -0.13504618
0001e0 61 59 01 bf 60 05 0d bc d3 cf 6d be ee 5f 9e bb
       -0.50527006 -0.0086072385 -0.2322381 -0.004833213
0001f0 2e 44 37 3d 26 02 b4 3c 63 3b 61 bc b1 1a 13 bd
       0.044742756 0.02197368 -0.013747069 -0.035914127
000200 03 ec 54 bd 59 81 2b bc 39 6f 62 3c 28 dc e7 3c
       -0.05198289 -0.010467851 0.013820463 0.02830322
000210 90 93 05 bd 98 54 90 3c c9 f5 f7 3d dd 76 0c 3e
       -0.03261143 0.017618462 0.12107427 0.13717218
000220 4c 4a 9a bb 2f a3 55 ba 4b 1b 01 bd 2a da b7 bb
       -0.004708564 -0.00081496214 -0.03152017 -0.005610724
000230 6a f8 36 3c ef 73 b5 bc eb b5 91 bc 70 81 87 3c
       0.011167625 -0.022150008 -0.01778694 0.016541213
000240 5d ca f4 3e 7b c6 64 bd 69 c9 68 3c d5 e4 ae 3c
       0.4781064 -0.05585335 0.014208176 0.02134935
000250 15 d2 cb bd 41 39 9d bb 4a 92 a3 3d 88 47 90 bd
       -0.09952179 -0.004798085 0.07986887 -0.070448935
000260 4a b5 cb be 7d 43 2b be 6d 0d e5 bc 84 6d c9 ba
       -0.3978675 -0.16724963 -0.027960503 -0.0015367721
000270 90 2c da be 9d 16 53 3d 76 f7 43 bb c4 a9 5f 3d
       -0.42612123 0.051535238 -0.0029902137 0.05460526
000280 88 ae 1f be 64 45 ae bd 31 36 27 3d d9 26 80 bd
       -0.15593922 -0.08509329 0.040823165 -0.062574096
000290 ff f6 38 bd 3d 8f e5 3e c7 57 ce bd bf 3d 94 be
       -0.04515743 0.44835845 -0.10075336 -0.2895336
0002a0 0c d4 40 3e 71 46 14 3c d8 34 f9 bd 65 cb 1e bd
       0.1883089 0.009049998 -0.12168282 -0.03876819
0002b0 98 0d af bd 54 2d 61 3d 7f f5 09 3e 5e 7c 3f 3d
       -0.08547515 0.05497487 0.13472556 0.046749465
0002c0 65 08 79 3e b5 17 51 be aa 49 bc bd a8 18 d7 bb
       0.24319609 -0.204192 -0.09193738 -0.0065642186
0002d0 bf 3b cc 3c 03 c1 69 bc a6 f4 d1 bb a9 03 8d bc
       0.024930833 -0.014267209 -0.006407338 -0.01721366
0002e0 f0 9a a4 3e 28 a3 33 3e 86 80 81 3c 9e 87 a1 3b
       0.32149458 0.17542708 0.015808355 0.004929497
0002f0 8b 6d 66 3d 56 d9 77 3d 90 f4 97 be 94 4d c1 3c
       0.056256812 0.060510002 -0.29678774 0.023596562
000300 fd 12 4e 3f a0 97 60 be ab 1d af 3d be 66 79 bd
       0.80497724 -0.2193284 0.085505806 -0.060889
000310 a9 e3 fa 3d 66 39 8e 3d 47 ad 72 bd 38 f6 8b 3c
       0.12250454 0.06944542 -0.05924728 0.01708518
000320 74 06 24 3d 50 ae bf bc 93 36 8f bd da d8 75 be
       0.040045217 -0.023398548 -0.06992831 -0.24008504
000330 36 f3 d7 3d ca 3b c1 3e 1e 2b a8 bd 09 3f 8d 3e
       0.10544436 0.37740928 -0.08211349 0.27587155
000340 aa 06 46 3f 4d 9f dc 3c b0 d3 ca bd 73 2e b5 3b
       0.7735392 0.02693143 -0.099036574 0.005529219
000350 26 a4 8b 3c fa 32 90 bc 29 09 ac 3a 47 73 14 bb
       0.017046046 -0.017602433 0.0013125289 -0.0022651718
000360 3b c3 51 be 15 c5 98 3e 6a 5f 7f 3d 38 20 ec bc
       -0.20484631 0.29837862 0.062346853 -0.028823957
000370 a1 23 81 be fa 83 3f bd 78 d5 33 3d 1c 29 27 3e
       -0.25222495 -0.046756722 0.04390475 0.16324276
000380 5a f7 bf 3e 5b 8c 30 3e ac 3d 76 bd 5a 08 74 bc
       0.37493402 0.17241041 -0.06011741 -0.014894569
000390 ab 20 54 3d c7 bf 91 3d 24 a6 dd be 46 84 3c 3d
       0.051788967 0.07116657 -0.43290818 0.046024583
0003a0 83 b0 2a bc aa c7 c3 bb 97 25 59 bc 9f 7f 16 bb
       -0.01041806 -0.0059747295 -0.013253591 -0.0022964252
0003b0 c0 6d 1a 3d c5 14 39 3c 81 5d b0 3d e2 1f 73 3d
       0.037702322 0.011296456 0.086115845 0.059356578
0003c0 3f 91 f9 bb 18 e4 65 3d 70 d7 9a 3c c8 00 13 bd
       -0.0076161916 0.05612573 0.018901557 -0.035889417
0003d0 ca b5 4c bb f1 44 19 3d b4 23 18 bc f8 12 09 bd
       -0.0031236284 0.037419263 -0.009285856 -0.033465356
0003e0 03 62 6b 3d b5 1d 1e be e2 72 ce bd fa 3a 43 3d
       0.057466518 -0.1544102 -0.10080506 0.047663666
0003f0 b5 2a fb 3c 59 4b 30 be d7 f7 0d bd 3c ad 87 3d
       0.030660013 -0.17216243 -0.034660187 0.06624839

bias f4 [128]
000000 0b da 05 bf e1 e7 7a be 60 77 57 3d b3 d5 9d bf
       -0.5228583 -0.24502517 0.05260408 -1.2330841
000010 0a 15 89 be 99 4f 16 be 75 72 32 bd 6e 6b e6 3e
       -0.26773864 -0.14678802 -0.043566186 0.45003837
000020 73 7f 90 be a3 d8 c5 be 70 34 dc bd 0a 37 1c 3e
       -0.28222236 -0.38641843 -0.10752189 0.1525537
000030 85 a8 72 bf d5 4d 1e 3e 80 5c 47 bf ee 4c 68 bf
       -0.9478839 0.15459378 -0.7787552 -0.90742385
000040 5e 97 66 be fc e1 3b be c8 70 c0 be 53 91 4f bf
       -0.2251868 -0.18347925 -0.37586045 -0.8108112
000050 da 69 70 bf 2e 6f 87 3e db 40 35 3e 8a 64 19 3f
       -0.93911517 0.2645201 0.17700522 0.59919035
000060 11 3e 8c 3e f1 09 4d bf 3f 4e f2 be 83 bf 37 bf
       0.27391103 -0.80093294 -0.47325322 -0.717766
000070 16 4f 84 bf fd a4 a6 be e5 63 9e be e0 07 25 bf
       -1.0336635 -0.3254775 -0.30935588 -0.6446514
000080 97 3e b3 be 6b 87 fd 3e cd 9c 9e 3e 20 8d 01 3f
       -0.3500869 0.49517378 0.30979005 0.50605965
000090 79 29 6c be 8e 4b 45 bf 9a 84 b4 be 30 e4 92 be
       -0.23062696 -0.7706841 -0.35257417 -0.28689718
0000a0 18 d8 2b 3f 24 22 94 be f7 12 f6 be 8e b6 29 bf
       0.6712661 -0.28932297 -0.48061344 -0.6629418
0000b0 d0 6c 16 be 12 07 72 bf 7b 5a 1b be 75 dc 52 be
       -0.14689946 -0.9454204 -0.15171234 -0.2059191
0000c0 64 e1 8d 3e b1 39 15 bf 63 b1 e3 3e 16 e1 14 3e
       0.27711022 -0.58291155 0.44471273 0.14538988
0000d0 e3 cf b3 3e 72 b3 bd be b8 42 83 bf 5e 54 11 bf
       0.35119542 -0.37050968 -1.0254736 -0.5676936
0000e0 b7 52 19 bf 63 62 8d be e2 c8 05 bf be 57 19 bf
       -0.5989184 -0.27614126 -0.5225965 -0.5989951
0000f0 12 0b f5 be 45 37 81 bf 2f 87 1d bf 8d 04 ec be
       -0.47860008 -1.0094992 -0.615344 -0.46097222
000100 94 d7 78 be d8 0d 11 bf 3f 63 91 3d b3 93 5a bf
       -0.24300987 -0.5666175 0.07099008 -0.8538162
000110 4e 5d 7d be c3 a3 28 bf dc 43 88 bf df 6f 19 3f
       -0.24742624 -0.6587488 -1.0645709 0.59936327
000120 e3 83 2c bf 88 b3 5d bd da ec b3 be e3 30 21 bf
       -0.67388743 -0.054126292 -0.3514164 -0.6296522
000130 25 09 87 bf c2 c4 66 bf 02 f7 d6 3e ec b2 7d bf
       -1.0549666 -0.9014398 0.41985327 -0.9910114
000140 65 56 66 bf e0 e7 9e be c2 60 96 3e b4 43 f8 be
       -0.8997558 -0.31036282 0.29370695 -0.48489153
000150 c0 21 12 be 2b c0 3c be b0 93 dc 3e fc 8e 50 be
       -0.14270687 -0.18432681 0.43081427 -0.20367044
000160 6c 35 08 bf 96 1a 1a bf 3f d6 4e bf 7f 2b 52 bf
       -0.53206515 -0.60196817 -0.80795664 -0.8209762
000170 74 24 e3 3e d4 ca ad bf c5 71 d6 3d 6f 79 66 bf
       0.4436375 -1.3577523 0.104709186 -0.9002904
000180 21 de cd be df 61 0f be 3b 8e a2 be a9 51 12 3e
       -0.40208533 -0.14002179 -0.31749138 0.14288963
000190 b4 3d 87 be 61 d5 4e bf 33 49 17 be 16 79 e5 be
       -0.26414263 -0.8079434 -0.14774017 -0.44818944
0001a0 8a e1 10 be 3e 2c 5a bf 27 3d 72 bf df 72 ce bd
       -0.14148536 -0.8522376 -0.9462456 -0.10080504
0001b0 9d 16 98 bf d7 08 85 be 63 2c 69 bf 19 eb fe be
       -1.1881901 -0.25983307 -0.91083354 -0.4978874
0001c0 bc ce 91 3e 18 df 71 be 65 19 5f be f2 a6 91 be
       0.28478038 -0.2362026 -0.21787031 -0.28447682
0001d0 4b 5a 33 3e ec 4c f3 be 9e 46 52 be 75 90 89 bf
       0.17514913 -0.47519624 -0.20534751 -1.074721
0001e0 68 c2 8e be 9e 82 55 be 3d ac 84 bd fd 68 12 bf
       -0.27882695 -0.20850608 -0.06478164 -0.5719145
0001f0 e0 d0 46 bf 43 65 1e bf cd d2 1e be 6a 53 4e bf
       -0.7766247 -0.61873263 -0.15510102 -0.8059603

weight f4 [128, 128]
000000 d2 1a 30 be bc a7 ba 3d f4 24 12 bd c1 20 b7 bb
       -0.17197731 0.09114024 -0.035679772 -0.0055886214
000010 05 50 3f 3b 70 b4 94 bd 75 a3 24 be 99 4e ab bd
       0.0029191982 -0.07260978 -0.16077979 -0.08364601
000020 06 13 7f 3d c1 4b 23 bd cd 69 9b bd b4 4d 3a bd
       0.062274 -0.039867166 -0.07588539 -0.04548426
000030 f3 7b 1f be e2 b6 a3 3d e5 c1 d5 bd dd 2b dc bc
       -0.15574627 0.079938665 -0.10437373 -0.026876384
000040 72 14 96 3b d9 80 a3 bc 73 5b b0 bd cf 53 08 3e
       0.004580074 -0.0199589 -0.086111926 0.1331322
000050 ea 0d d6 be 6d 69 95 bd 4d 7e 18 be 7f 7d 3d bb
       -0.4180749 -0.07295499 -0.1489193 -0.0028913913
000060 38 c6 c0 bc e9 ab 10 bd 88 19 82 be c5 ba d3 3b
       -0.023532018 -0.035320196 -0.25410104 0.0064614736
000070 e8 55 a4 bc 56 f7 22 3d 0a e0 a9 bb 57 78 30 be
       -0.020060495 0.03978666 -0.0051841782 -0.17233406
000080 27 e1 b8 bd a8 8a 64 bd 23 09 a9 bd b0 d9 3c bd
       -0.090273194 -0.055796295 -0.08253696 -0.04610604
000090 4c a0 17 3c e8 f2 e1 bd 01 c1 50 bd 0a aa f5 bc
       0.009254526 -0.11032659 -0.050965313 -0.029988308
0000a0 84 b9 c3 bd e1 65 35 3d ff 49 b3 be 39 a1 64 be
       -0.09556869 0.044286612 -0.35017392 -0.22327127
0000b0 d6 ac 59 be ef b5 1a bd a2 d0 9c ba 16 9a c1 bd
       -0.21257338 -0.03777116 -0.0011964033 -0.09453218
0000c0 98 39 44 bd e3 aa ee bc 7b 1c fd bd 8f 8d fa 3c
       -0.04790649 -0.02913422 -0.12358948 0.030585079
0000d0 4d 80 b0 bd 69 76 db bd 12 9a 29 bd ef c3 09 3e
       -0.086182214 -0.10715944 -0.0414067 0.13453649
0000e0 71 4b 23 be 1a 91 32 bd 22 70 5f 3c 08 0d a6 3d
       -0.15946747 -0.04359541 0.013637574 0.08107954
0000f0 a9 4f 16 bc c5 6a 32 3e b1 70 3b 3d 5e c6 2f be
       -0.009174266 0.17423542 0.045761768 -0.17165515
000100 be c4 ef bb 8e 56 de bd 41 a4 7b bd 47 cb 85 3d
       -0.0073171547 -0.10856353 -0.06143594 0.06532913
000110 14 4e 62 bd 52 9c 36 3e 44 f6 03 3e 79 2f 36 be
       -0.055250242 0.17833069 0.12886912 -0.17791547
000120 03 f0 29 be db 22 89 3d d4 80 0d bd 35 0f bf bd
       -0.16595463 0.06696101 -0.03454669 -0.093290724
000130 84 f8 63 3e 39 2a 53 be b3 a6 f5 bc 5f c5 a7 bd
       0.2226277 -0.20621575 -0.029986715 -0.081919424
000140 83 d4 fe bc 52 86 ff bb 5f a2 da bc 69 67 07 bd
       -0.031107193 -0.0077979947 -0.026688753 -0.033057604
000150 1f bf 9c bd e3 bc 4c be 1c d9 b3 bd 67 c4 19 3e
       -0.07653641 -0.1999393 -0.08781645 0.15016328
000160 72 88 88 bd 28 43 04 3e 5d 88 af bc 75 a5 3c be
       -0.0666665 0.12916243 -0.021427328 -0.18422492
000170 3f a3 99 3c 32 9d 8f bd 6e 06 8a 3d 52 62 57 bd
       0.0187546 -0.070124045 0.067395076 -0.052584
000180 51 8f 6e bd 1c 06 ab bd 45 4c 75 bc 9a 52 72 bd
       -0.058242146 -0.08350775 -0.014971797 -0.059160806
000190 d4 be 91 bd e5 d9 4e be ce f9 25 be 20 e1 f1 3c
       -0.07116476 -0.20200308 -0.16208574 0.029526293
0001a0 2a 57 fb bd 4b c1 01 be ad 78 84 be ad 31 3d 3c
       -0.122724846 -0.12671392 -0.25873318 0.011547488
0001b0 0d 5d 16 be 20 19 c0 3d ea 33 80 be 3d a9 e1 bd
       -0.14683934 0.09379792 -0.25039607 -0.11018608
0001c0 54 c1 e5 bd 60 f6 6e bd 89 a8 92 bd fe 5c 15 be
       -0.11218515 -0.05834043 -0.07161052 -0.14586255
0001d0 cf 60 39 bd b1 62 37 be a0 61 ba bd 61 0c 72 be
       -0.04525834 -0.17908742 -0.09100652 -0.23637535
0001e0 0a 25 89 bb bf a8 05 3e 25 d9 f6 bd 2d 78 20 3e
       -0.0041853236 0.13052653 -0.12053136 0.15670843
0001f0 54 e5 75 3d 07 3d 7c 3e 45 6b 96 be d8 01 24 3e
       0.060033157 0.24632655 -0.29378715 0.16016328
000200 10 b3 5e be c6 bb ba be 69 bc 8f 3c c4 1a 55 be
       -0.21747994 -0.36471385 0.017545896 -0.20810992
000210 d4 de d0 bd 9d 60 e7 be eb 5f b3 3d 67 95 d4 bd
       -0.10198751 -0.45190898 0.08758529 -0.10380059
000220 fc ef 4a be cb 76 a3 bd c4 ac 40 be 15 7f e1 bd
       -0.1981811 -0.07981642 -0.18815905 -0.11010567
000230 cc 1d 73 3d 7e 91 24 bd 09 e6 66 bc a8 15 7e bd
       0.05935459 -0.040177815 -0.014092931 -0.06203237
000240 25 ea 23 3d 4b 78 0d be 3b 15 aa bc 18 ce 7c 3c
       0.04001822 -0.1381542 -0.020762077 0.015429996
000250 ab 10 25 be 83 e9 de 3b ef 6c 93 be e5 c4 b3 bd
       -0.1611964 0.006802739 -0.28794047 -0.08777789
000260 bc 3b 2a be b2 ac 18 be 8a 3f 27 be 53 0f 03 3d
       -0.1662435 -0.14909628 -0.16332832 0.031997036
000270 75 4c 29 be 13 6e 9a bc 65 45 55 be 66 6b 01 be
       -0.16533072 -0.018851316 -0.20827253 -0.12638626
000280 33 ea 94 3b 24 23 7a bd d3 36 d4 3d 81 ef b4 bd
       0.0045445203 -0.06106867 0.103620194 -0.08834744
000290 23 25 f3 bd 7a d7 12 3d 22 1d e6 3c f0 0e 9b 3d
       -0.11872318 0.035850026 0.028090063 0.075712085
0002a0 ea 41 17 bd a0 43 26 be 8a c0 03 be b4 3e 3a be
       -0.036928095 -0.16236734 -0.12866417 -0.18187982
0002b0 19 a4 14 be 01 d1 36 3d f9 fb a3 be 17 40 8c bd
       -0.14515723 0.044632915 -0.32028177 -0.06848162
0002c0 ca 36 35 bd df cc c6 bd 06 35 5d bd a9 11 9f bc
       -0.044241704 -0.09707045 -0.054005645 -0.0194176
0002d0 41 19 6a bd 4e cc 7f 3d 4c 12 fb bc 6a 34 c6 3d
       -0.05715299 0.0624507 -0.030648373 0.09677966
0002e0 cc 80 38 be 9d 10 60 3d 04 8a 56 be 8f 14 1a be
       -0.18017882 0.054703344 -0.20951086 -0.15046905
0002f0 58 95 bb bd c6 b2 4c be 76 3b 23 bd c0 10 72 be
       -0.091593444 -0.19990072 -0.03985163 -0.23639202
000300 a1 98 9c bd c1 f6 bc bd 88 34 b9 3d 92 46 53 3d
       -0.07646299 -0.09226752 0.09043223 0.051580973
000310 5b e7 99 be fa 51 bb 3d 7f da 1f bd ce de 22 bc
       -0.30059323 0.09146495 -0.039026733 -0.009940816
000320 d1 ca 5c bd 8b a8 7b 3d fa 7d 85 be 03 60 c2 bd
       -0.05390436 0.061440032 -0.26072675 -0.09490969
000330 62 3d 71 bd 20 8d 83 be 95 92 0c be c0 22 f3 3c
       -0.05889643 -0.25693607 -0.13727792 0.029679656
000340 cb 91 8c bd a8 70 e1 be 59 12 43 be 89 67 89 3d
       -0.06863745 -0.44031262 -0.19049968 0.06709201
000350 6d 77 46 3d 16 7b 60 be 0e 74 a7 bd bf 1b e2 3c
       0.048453737 -0.21921954 -0.081764325 0.027601121
000360 3d bb a0 3d 41 c4 0c be 66 89 0c 3e ed 63 95 3d
       0.07848213 -0.1374674 0.13724288 0.0729445
000370 73 00 9a be f5 cd b0 bd 65 cd 4e bc 7c b7 7b 3e
       -0.30078468 -0.08633033 -0.012622212 0.24581712
000380 92 a6 75 be ce 82 43 3d 54 85 e7 bd d2 03 27 bd
       -0.23989323 0.047732167 -0.11304727 -0.040775128
000390 09 5f db bc 94 11 5f 3c 8d 78 31 bd 1b 42 ee bd
       -0.026778715 0.013615031 -0.043327857 -0.11633702
0003a0 30 55 ab ba 2f 35 89 bd ba 18 7a bd f9 a1 98 bd
       -0.0013071653 -0.06699597 -0.061058737 -0.07452769
0003b0 08 fa d8 bd d4 df 83 bd 76 34 11 3d f9 df 7b be
       -0.10594565 -0.06439176 0.03545042 -0.24597158
0003c0 0e 27 9b bd f4 88 2f be bc c0 4e be 8d 10 68 bc
       -0.075758085 -0.17142087 -0.2019071 -0.014164102
0003d0 a6 fb d1 bd 2f 83 df bc e6 5b 3d be 53 a8 6b bd
       -0.10253076 -0.027284233 -0.18492088 -0.057533573
0003e0 56 f0 83 bd a7 16 10 bd 38 ae 1f be 5d 13 b4 bc
       -0.06442325 -0.035177853 -0.15593803 -0.02198189
0003f0 15 26 ae bd 96 a8 51 3d c1 dd 4c bd b0 b1 3c be
       -0.08503357 0.051186167 -0.05001617 -0.18427157

bias f4 [128]
000000 e0 6c bf 3a 11 6e cc bd 6e 7c 50 bd 75 db cf bd
       0.0014604591 -0.09981931 -0.050899915 -0.1014928
000010 a3 9c 34 3e e0 7d 53 bf c5 2b 27 bd 3e 8b 78 bc
       0.17637877 -0.82613945 -0.040813226 -0.015169917
000020 b2 2b 98 bd ad 39 af be b8 42 e4 be 6d ce 12 bf
       -0.07430209 -0.3422369 -0.44582152 -0.5734623
000030 d4 a6 f4 be 8c 96 2b be e2 b8 39 bd 50 d9 92 bd
       -0.4778353 -0.16756648 -0.045342334 -0.07170355
000040 1e a9 1e be 82 a5 13 3e 14 b0 2b be 0f 0d 3a bf
       -0.154942 0.14418605 -0.16766387 -0.72676176
000050 28 12 9b bd 17 70 a1 bc 57 49 ed 3d 1d 34 53 3c
       -0.075718224 -0.019706769 0.11586254 0.012890843
000060 9d 03 64 bd 66 b6 1b be 3e 1f 64 bd 6f bb ce 3c
       -0.05566751 -0.15206298 -0.055693857 0.02523586
000070 cf fc b2 be d2 74 03 bf 1b 32 b8 bd bb 8f d2 bc
       -0.34958503 -0.5135013 -0.08993932 -0.025703302
000080 d2 41 c2 bc b3 a3 a9 bd 4e ce 23 be d4 86 c0 bd
       -0.023713026 -0.08283176 -0.15996668 -0.094007164
000090 f5 84 3d 3c 0b 41 20 bf 1c 77 b3 bc 9e 5b c3 be
       0.011567344 -0.6259925 -0.021907382 -0.38155836
0000a0 bd 42 b4 bd 94 34 5d bc fc 94 90 be 5b 59 5a 3c
       -0.08801792 -0.013501305 -0.28238666 0.013326968
0000b0 ed 9b 55 39 8c c4 99 3d b3 7a df 3b d9 1f c2 be
       0.0002037135 0.075081915 0.006820047 -0.37914923
0000c0 55 17 9c 3d b0 dd 04 bd 67 af 8e 3b 9b b9 d8 bd
       0.07621638 -0.03243798 0.0043544057 -0.105822764
0000d0 33 30 3a 3d fa 03 fc bd c6 b3 60 be c6 2e 14 3d
       0.045456123 -0.12305446 -0.21943578 0.03617742
0000e0 6a a5 bc be 32 6c 5a bd a3 b3 58 be cb 40 3c bd
       -0.3684495 -0.05332584 -0.21162276 -0.04596023
0000f0 9a 5a 9b be 84 4e ef bd 77 3d 1c bd ec 17 4d bd
       -0.3034256 -0.116848975 -0.038144555 -0.05007164
000100 0b 72 0e bd 31 92 6c be 9d 7e f4 bc 33 a3 c2 bd
       -0.03477673 -0.23102643 -0.02984553 -0.09503784
000110 b7 07 bf be bb 25 49 bd 41 01 15 3c fb 73 2d be
       -0.37310573 -0.04910825 0.009094537 -0.16938774
000120 9d 92 3e be bd 57 9a bd 34 a8 cc be ba 2c 31 bd
       -0.18610616 -0.07536266 -0.3997208 -0.043255545
000130 f2 b5 fa bd 0f 0c 07 bd 45 36 61 3d e8 3e 74 3e
       -0.122417346 -0.032970484 0.054983396 0.23852122
000140 3a b6 9a bd 1e a4 1c bd c8 fc 05 3e b1 7b d3 be
       -0.07554288 -0.03824245 0.1308471 -0.41305307
000150 9e 21 61 be cd a2 ca bd 79 4b 57 3d aa ae 4f 3c
       -0.2198548 -0.09894333 0.05256221 0.0126759205
000160 df 71 2e bd 16 15 42 bc 9c ab 67 bd 55 e3 a2 be
       -0.042589065 -0.011845848 -0.056560144 -0.31814066
000170 84 86 05 bf 43 f7 87 3d b8 db c5 bd fd a8 c0 3c
       -0.5215838 0.06638958 -0.09661049 0.02351808
000180 90 10 44 be ec 58 1c be b2 41 67 bd ad 71 16 be
       -0.19146943 -0.15268296 -0.056459136 -0.14691801
000190 5a 34 1f 3d 06 63 97 bd d8 08 0d bc 17 61 57 be
       0.038868286 -0.07391934 -0.008608066 -0.2103313
0001a0 47 35 53 be ce 0b 7e 3e 8f c3 56 be f4 ed 0f be
       -0.20625792 0.2480919 -0.20973037 -0.14055616
0001b0 05 f8 28 be 37 db 02 bf 5d 22 85 3d 52 93 73 3d
       -0.16500862 -0.51115745 0.06500695 0.059466667
0001c0 a9 07 5b 3c 13 1d 9d be fe cd 2d bd 8b 24 bd be
       0.013368526 -0.30686244 -0.042432778 -0.36941943
0001d0 0d aa 06 bf 42 c4 92 bd 8e 30 75 bd 7f 57 94 bd
       -0.52603227 -0.071663395 -0.05986076 -0.07243251
0001e0 70 ec 9b be 55 9f b9 3b b9 18 3d 3e 32 82 88 bd
       -0.30453825 0.005664746 0.18466462 -0.06665458
0001f0 19 8d 06 bf b2 b4 b1 be 5d d6 fc 3c 18 0d ed 3b
       -0.5255905 -0.34708172 0.030863935 0.007234227

weight f4 [1, 128]
000000 54 29 f7 3c f1 dd c1 3c a8 6c 6c 3c b7 11 02 bc
       0.030171074 0.0236654 0.014430203 -0.007938794
000010 89 61 14 3d 33 9e b7 bd 6c ef 27 3c d0 ce b4 bc
       0.03622583 -0.08965721 0.010249954 -0.022071272
000020 77 95 d6 bc 80 f1 99 3c ef f9 b6 bd 6b 13 f6 3c
       -0.026194317 0.018791914 -0.0893439 0.030038556
000030 7f 1f c8 3c b8 d6 8b bc e0 4f 31 3d de 5e 75 3d
       0.024429081 -0.01707016 0.043289065 0.059904926
000040 df f1 38 3c a8 80 6a 3c 75 ec da bc e8 81 78 3d
       0.011288135 0.014312901 -0.02672408 0.060670763
000050 06 ba 91 bc 71 e7 72 bc c6 96 c1 3c 73 e4 ec bb
       -0.017788898 -0.014825688 0.023631465 -0.0072293817
000060 f8 13 a7 bb 8d e5 23 bc a6 1c ce 3c c8 56 43 bb
       -0.005098816 -0.01000346 0.025160145 -0.0029806364
000070 36 7a 26 3d e7 3c 8a 3e f7 dc a3 3b ce 1b 1a 3c
       0.040643893 0.2699959 0.0050007063 0.009406043
000080 9f 51 10 bb 70 41 0f bc da 3b ba 3c 4f ba 0a 3d
       -0.0022021306 -0.008743629 0.022733618 0.033869084
000090 3b 3a 1d 3c b6 5e 3d 3d 00 ba 7b 3b c8 b1 ed 3d
       0.009596403 0.0462329 0.0038410425 0.11606175
0000a0 89 53 15 bb 56 98 d2 bc e9 03 dd 3b d6 63 ae 3c
       -0.0022785387 -0.025707405 0.006744851 0.02128784
0000b0 fb 21 dd 39 30 09 de bd aa 36 da 3b a7 49 0b be
       0.00042177722 -0.10841596 0.0066593485 -0.13602315
0000c0 fa f0 bb 3c 0e 9c 3d bc 19 66 01 3b 36 64 cf 3c
       0.022942055 -0.011572851 0.0019744693 0.025316339
0000d0 a8 81 0f bb fb 1b c7 bc d8 64 04 bc ea c9 a7 bc
       -0.002189735 -0.024305334 -0.008080684 -0.020482022
0000e0 eb 22 dc bc 7b 2c 31 3c 42 18 19 3e 86 96 03 bc
       -0.026872119 0.010813828 0.1495066 -0.008031493
0000f0 6c 00 e8 3c 5b 59 85 3c ff 38 38 be a2 dc c5 3c
       0.028320514 0.01627796 -0.17990492 0.024153057
000100 06 d8 cc 3b aa 74 ba bc 80 fe 86 3c fa b4 07 3d
       0.006251338 -0.022760708 0.016478777 0.033131577
000110 23 f6 d5 3c fc aa c6 3c c0 7e ed b8 a8 68 c9 3c
       0.026118344 0.024251454 -0.0001132465 0.024586037
000120 cd 47 7d 3d d5 47 8c 3c 54 ff 04 bd d7 77 e1 3c
       0.061836053 0.017124096 -0.032470062 0.027522964
000130 21 34 ec 3c b1 ea b4 bb 34 26 03 3c 33 20 6e bd
       0.02883345 -0.0055211415 0.008004714 -0.058136176
000140 b6 1c 90 bd 99 1c d0 3c 5a 9f fc bd cd 47 7a bd
       -0.07036726 0.025404261 -0.123350814 -0.06110363
000150 f7 23 21 3d db 24 fc 3b bc a5 74 bd b1 1d d1 bc
       0.03934094 0.007694823 -0.05972837 -0.025526853
000160 d8 db ba 3c ca 3a 59 bc ef 06 71 bc e2 07 10 bd
       0.022809908 -0.013258645 -0.014711126 -0.035163768
000170 95 d9 89 be 34 33 94 bc 06 b0 d4 3c 23 c6 98 bb
       -0.26923814 -0.018090822 0.02596284 -0.0046622916
000180 a1 66 06 be 29 4d 50 3c 78 ba ca bc 8c 33 7f 3c
       -0.13125087 0.012713709 -0.024747118 0.015576255
000190 24 de a7 bb 52 e3 e5 3c 5d ba e8 bc 11 3d f7 bc
       -0.005122917 0.028062496 -0.028409177 -0.030180486
0001a0 27 5d 4b bc 68 a6 04 3e 45 9c d6 bc e7 d9 bb bc
       -0.012412346 0.12954104 -0.026197562 -0.022931052
0001b0 39 00 94 3c 49 db fc 3c 11 51 c9 bc 3d 2f 6c bc
       0.018066512 0.030866282 -0.024574788 -0.014415559
0001c0 ef 81 2f bb a3 8e 59 3d be 7a ee 3b 3c 9f e6 bc
       -0.0026780327 0.053114545 0.0072778156 -0.0281521
0001d0 05 f1 05 3d bd 99 7e bb e8 ac 2c 3e 0a 1a 0d bb
       0.032700557 -0.003884896 0.16862833 -0.0021530413
0001e0 30 3b e4 bc 05 78 3e bc 67 45 ba 3d b4 f0 f1 3a
       -0.027860254 -0.011625295 0.09095269 0.0018458576
0001f0 a2 b3 3e 3d 7a e4 06 bd f8 ff 81 bc 17 80 07 3d
       0.04655803 -0.032932736 -0.015869126 0.03308114
