Dat/Nova pasta/models/CLLB_model_scripted.pt (torch, 82061 bytes, 5 tensors)

weight f4 [128, 8]
-0.016812779 0.0078962315 -0.24825077 0.031337727 0.37683615 -0.11221968 0.050946053 0.29728603
-0.088721134 -0.35811898 0.13642587 0.16480236 -0.17089391 0.14664598 0.33624342 -0.30210948
-0.094187915 -0.08635901 0.012290408 -0.00610364 0.0044312393 -0.007669787 -0.01810763 -0.019595506
-1.7207954 -1.4656188 0.0052743973 0.0068857665 0.006248669 0.008155947 -0.006336721 0.003916418
-0.029823247 0.18188028 -0.016884284 0.02414064 0.23973908 -0.021516258 -0.018454298 -0.037579194
0.08783318 0.0037782232 0.039049413 -0.111510456 -0.72662616 0.035365984 -0.015099438 0.27933195
0.4462589 -0.18116121 0.18632823 -0.028441718 -0.27315053 0.004747655 0.03532055 0.098170094
0.0907214 0.4599668 0.22244379 -0.017064512 -0.036612824 -0.0049561923 -0.039273914 0.39744934
0.06567931 0.51401895 0.5909075 0.16770159 -0.024654083 -0.03312427 -0.0038375307 -0.012238237
-0.063715555 0.0022830463 0.013376013 0.01535047 0.0033502614 0.011481532 -0.01345201 0.02891894
-1.2470642 -0.0008611218 0.2788729 -0.0061955918 0.016001083 -0.0086454265 -0.0021520355 0.010186696
-0.8209147 0.54094094 0.27780598 0.015671724 -0.0052265436 0.03078682 0.02922295 -0.037827007
0.018766575 -0.028327297 -0.11329653 -0.07983669 0.06728448 0.22861181 0.025244748 -0.30759794
0.068218544 0.0011383692 -0.005908974 -0.0023462684 8.390339e-05 -0.016077567 -0.0090604685 0.030328294
2.1323915 -1.0273668 0.11589465 -0.004492645 0.00525035 -0.0033906156 -0.0046958653 -0.0018663702
-0.14706008 0.17921472 0.44196346 0.11757318 0.26064685 -0.3861378 -0.064283326 -0.025166322
-0.12329002 -0.01301502 0.3536085 -0.12671791 -0.050016228 -0.4043283 0.16392894 0.10612291
-0.47009918 0.28475815 -0.020614179 -0.0119081605 0.057792578 -0.34988418 0.06877901 0.021826595
-0.3367306 -0.14412831 0.7823565 0.05517603 0.16238864 0.16871652 -0.009764637 -0.11620153
-0.2660437 0.22832432 -0.052585606 -0.003229323 -0.05958985 -0.020755127 -0.062626064 0.42855093
0.4194261 0.2517122 -0.0024002506 0.003899992 0.03640743 0.07074556 -0.4519301 0.06772575
0.43298325 0.6483842 0.5230365 0.01583238 0.0077121034 0.019260542 0.0037459391 -0.0026909763
0.053369667 0.056632373 0.32382923 -0.051994707 0.1554899 0.013154975 0.37988254 0.5037694
-0.36827868 0.27235064 0.9924303 -0.0012767564 -0.027902033 -0.003934181 0.021331009 -0.0043565133
-0.27706528 0.013967295 0.3573237 -0.519622 -0.17622094 0.037812468 -0.19710736 0.056832023
-0.2750096 -0.10830115 -0.18375605 0.0039173863 -0.38480732 0.057347663 0.068426855 0.05323418
0.078871615 0.04860663 0.011118076 -0.030523304 0.006987629 0.012060036 -0.0013945949 0.030116104
0.31450796 -0.12420173 -0.027245425 0.0092867175 0.04442163 0.0024399492 0.028834103 -0.20059112
0.5849126 0.010895988 -0.12578261 0.00043861705 0.018004704 -0.002745269 0.00501476 0.00645432
-1.5421056 1.3730735 -0.0014013817 -0.0043433616 0.009373883 0.0072196 -0.009014082 -0.0041244472
-0.17288113 -0.23133707 0.445522 -0.13651918 -0.22624657 0.028385181 0.11448888 -0.40158007
0.6345688 0.12168702 -0.4547007 0.027590472 0.0011147389 -0.009370342 -0.01236215 0.0030674955
00000000: f4ba 89bc 325f 013c 7335 7ebe fd5b 003d
00000010: abf0 c03e 6ed3 e5bd cfac 503d e035 983e
00000020: 6db3 b5bd 5f5b b7be 39b3 0b3e f3c1 283e
00000030: d0fe 2ebe 5d2a 163e 1928 ac3e 18ae 9abe
00000040: 98e5 c0bd fedc b0bd b55d 493c 0b01 c8bb
00000050: ee33 913b d652 fbbb 7456 94bc c186 a0bc
00000060: 0643 dcbf 6699 bbbf dad4 ac3b ffa1 e13b
00000070: a2c1 cc3b 85a0 053c 45a4 cfbb 4c55 803b
00000080: e24f f4bc d33e 3a3e e950 8abc 97c2 c53c
00000090: 297e 753e dd42 b0bc 782d 97bc a4ec 19bd
000000a0: e2e1 b33d 119c 773b 47f2 1f3d 985f e4bd
000000b0: 2c04 3abf ecdb 103d a263 77bc 9904 8f3e
000000c0: 0c7c e43e 5382 39be d4cc 3e3e 9bfe e8bc
000000d0: 63da 8bbe 3792 9b3b 48ac 103d 670d c93d
000000e0: 24cc b93d c580 eb3e 4ec8 633e e0ca 8bbc
000000f0: 54f7 15bd 8e67 a2bb afdd 20bd 7b7e cb3e
00000100: e082 863d bf96 033f b745 173f f7b9 2b3e
00000110: 5cf7 c9bc 51ad 07bd 157f 7bbb e382 48bc
00000120: 4d7d 82bd 299f 153b 1127 5b3c 8a80 7b3c
00000130: 0f90 5b3b 091d 3c3c d265 5cbc 6ae7 ec3c
00000140: cd9f 9fbf e8bc 61ba 6ec8 8e3e 6404 cbbb
00000150: b414 833c 8ca5 0dbc 2a09 0dbb 1ae6 263c
00000160: 7727 52bf 1b7b 0a3f 963c 8e3e fd61 803c
00000170: 6d43 abbb a434 fc3c f864 ef3c 7ef0 1abd
00000180: 5cbc 993c a60e e8bc 0308 e8bd 6b81 a3bd
00000190: 72cc 893d 3719 6a3e 13ce ce3c 7a7d 9dbe
000001a0: 2ab6 8b3d 5535 953a 11a0 c1bb dac3 19bb
000001b0: 4af5 af38 1ab5 83bc 5c72 14bc 0b73 f83c
000001c0: 1a79 0840 c180 83bf 2d5a ed3d 0a37 93bb
000001d0: 210b ac3b 1735 5ebb c6df 99bb fea0 f4ba
000001e0: eb96 16be 1084 373e 0949 e23e 35ca f03d
000001f0: 8173 853e dbb3 c5be faa6 83bd 9a29 cebc
00000200: 7a7f fcbd f33c 55bc 2c0c b53e 57c2 01be
00000210: d1dd 4cbd 1e04 cfbe fddc 273e f856 d93d
00000220: d7b0 f0be d2cb 913e 11df a8bc 721a 43bc
00000230: e9b7 6c3d 0524 b3be 02dc 8c3d b0cd b23c
00000240: f467 acbe 5f96 13be 8448 483f 4300 623d
00000250: 3549 263e 06c4 2c3e dbfb 1fbc 11fb edbd
00000260: e136 88be dacd 693e 0164 57bd 0da3 53bb
00000270: 7d14 74bd a806 aabc 1842 80bd 076b db3e
00000280: 05bf d63e 6ce0 803e 864d 1dbb 0297 7f3b
00000290: f51f 153d 0ce3 903d 6263 e7be ccb3 8a3d
000002a0: fbaf dd3e 82fc 253f b8e5 053f e8b2 813c
000002b0: d0b5 fc3b 49c8 9d3c 6e7e 753b 175b 30bb
000002c0: 279a 5a3d 59f7 673d f2cc a53e 67f8 54bd
000002d0: bf38 1f3e f787 573c f77f c23e 08f7 003f
000002e0: 068f bcbe 8b71 8b3e ea0f 7e3f d658 a7ba
000002f0: ce92 e4bc 4dea 80bb 5ebe ae3c 15c1 8ebb
00000300: 80db 8dbe 15d7 643c 22f3 b63e f305 05bf
00000310: 4373 34be 3fe1 1a3d 83d6 49be b2c8 683d
00000320: 0fce 8cbe fecc ddbd 8c2a 3cbe 6b5d 803b
00000330: 7705 c5be 62e5 6a3d 6123 8c3d 150c 5a3d
00000340: 7187 a13d bf17 473d 9728 363c 020c fabc
00000350: 7bf8 e43b 7597 453c d7ca b6ba 0cb6 f63c
00000360: 3007 a13e 7a5d febd cc31 dfbc 5127 183c
00000370: 75f3 353d 8ee7 1f3b 7f35 ec3c c267 4dbe
00000380: d5bc 153f 1685 323c 28cd 00be 2ff6 e539
00000390: 9a7e 933c f9e9 33bb db52 a43b c37e d33b
000003a0: b763 c5bf dfc0 af3f 91ae b7ba c252 8ebb
000003b0: ea94 193c 6592 ec3b cdaf 13bc 5f26 87bb
000003c0: c007 31be a0e3 6cbe 761b e43e afcb 0bbe
000003d0: 2ead 67be 0a88 e83c 2579 ea3d e79b cdbe
000003e0: 1a73 223f 0b37 f93d 88ce e8be 6a05 e23c
000003f0: 6e1c 923a 1086 19bc 9d8a 4abc 0908 493b

bias f4 [128]
-1.1643333 -1.169176 -0.33100343 0.16349591 -0.22386067 -1.3791795 -0.624747 -0.76102614
-1.3729764 -0.2508936 0.47284004 -1.4840472 -0.71840745 -0.20753768 0.7635966 -1.5506344
-0.9749282 -0.07276734 -1.3232725 -0.22181909 -0.063501336 -0.26594004 -1.4641128 -1.395183
-1.3714807 -0.38226193 -0.33414334 0.26633424 0.6239187 0.17846271 -1.4748175 -0.50511885
-0.5869513 -1.2988331 0.6759712 -1.7836651 -1.5551963 0.1253783 -1.5271477 -0.67453337
-0.81465244 -1.6324348 -1.7552505 -1.0710009 -1.2503781 -1.1269437 0.2747868 -0.87387854
-0.69504523 -0.10167079 -0.30122077 -0.7526908 0.24030435 -1.4645755 -2.0926142 -0.59455055
-0.6323078 -1.4513248 -0.09313752 -1.2323694 -0.13272901 -0.97203267 -0.2779412 -1.404963
-1.6365517 -0.8198496 -0.6051746 -0.94279045 -0.2552015 -1.1979011 0.19767624 -2.212031
-0.82764614 -1.0422685 -2.0868368 -0.47731552 -0.97346294 0.12794365 -1.13902 -0.16987771
0.7819641 -0.24107596 -1.487046 -0.38326555 -1.3295846 -1.5615492 -0.8320215 -0.81973267
0.67778707 -1.4477934 -1.4926817 0.16234037 -1.9450548 -0.30964202 -0.5227793 -1.3459325
-0.11015446 -0.07276674 -0.5016518 -0.11754015 -1.8114873 -0.8649422 -2.031413 0.60598403
-1.2257572 -1.2567618 -0.44720876 -1.2231879 -0.22776954 -0.5595457 0.22435364 -1.447053
-1.0243822 -1.8397026 -1.1032885 -0.15217619 -0.2311467 -1.8372806 -0.7558907 -1.0823312
0.97714245 -0.9996501 -1.200416 -1.3330017 -0.19315188 0.7361527 -1.7495749 0.3412107
00000000: e008 95bf 8fa7 95bf 4879 a9be 796b 273e
00000010: bb3b 65be f488 b0bf 6bef 1fbf 9cd2 42bf
00000020: b1bd afbf 2075 80be 1718 f23e 42f5 bdbf
00000030: 8de9 37bf c284 54be 117b 433f 307b c6bf
00000040: e594 79bf 0b07 95bd fe60 a9bf 8b24 63be
00000050: fd0c 82bd 4b29 88be 0c68 bbbf 5b95 b2bf
00000060: ae8c afbf d6b7 c3be d614 abbe f65c 883e
00000070: 23b9 1f3f eebe 363e d2c6 bcbf 784f 01bf
00000080: 7142 16bf 2a40 a6bf 730c 2d3f 234f e4bf
00000090: ac10 c7bf 2b63 003e 9379 c3bf 38ae 2cbf
000000a0: 108d 50bf a0f3 d0bf 0cac e0bf 8f16 89bf
000000b0: 640c a0bf b13f 90bf dbb0 8c3e 81b6 5fbf
000000c0: 7cee 31bf c638 d0bd 9c39 9abe 58b0 40bf
000000d0: 5812 763e 3677 bbbf 64ed 05c0 7734 18bf
000000e0: edde 21bf 03c5 b9bf e2be bebd 48be 9dbf
000000f0: 1dea 07be 22d7 78bf 4f4e 8ebe d4d5 b3bf
00000100: 877a d1bf aae1 51bf b9ec 1abf b75a 71bf
00000110: c5a9 82be d354 99bf a46b 4a3e ea91 0dc0
00000120: 9ee0 53bf 0e69 85bf bc8e 05c0 b362 f4be
00000130: de34 79bf a903 033e 68cb 91bf 6cf4 2dbe
00000140: cd2e 483f 9edc 76be 8657 bebf 623b c4be
00000150: d42f aabf d8e0 c7bf 5cff 54bf 00da 51bf
00000160: 7483 2d3f 4b51 b9bf 3210 bfbf 8e3c 263e
00000170: 8ef7 f8bf 6689 9ebe ddd4 05bf 8447 acbf
00000180: a998 e1bd bb06 95bd 416c 00bf e4b8 f0bd
00000190: d1de e7bf da6c 5dbf ac02 02c0 c521 1b3f
000001a0: 9de5 9cbf 92dd a0bf 8cf8 e4be 6c91 9cbf
000001b0: 6b3c 69be 633e 0fbf f6bc 653e 0839 b9bf
000001c0: f51e 83bf 607b ebbf 8f38 8dbf 13d4 1bbe
000001d0: b8b1 6cbe 032c ebbf 0e82 41bf d489 8abf
000001e0: 0226 7a3f 12e9 7fbf 3ba7 99bf cd9f aabf
000001f0: 9bc9 45be 8174 3c3f 12f2 dfbf 2bb3 ae3e

weight f4 [128, 128]
0.04501839 0.16741404 0.2645132 0.4003961 0.17177857 0.26901096 -1.49571 -0.59671277
0.123979375 0.26146957 0.22231726 -0.0794636 0.04907782 0.11094609 -0.37965894 -0.63267523
-0.26583597 -0.19257075 0.5073173 0.19389038 -0.038192905 -2.0136147 0.3485956 0.044811387
-0.14304104 -0.023040386 -2.5981226 0.46416888 -0.19553491 0.03869519 -0.28032073 -1.4148176
0.3912287 0.23224062 0.26846865 -0.11068755 -0.802923 -0.02222317 0.7209223 -0.390211
0.32141083 -0.24345103 0.13663307 0.3369081 -1.6299636 0.25982308 0.40818676 0.21824953
-0.33044326 -0.56115794 -0.63033795 -0.06250815 0.1806815 -8.95581 -2.5513349 -0.24744529
-0.038084857 -0.9348251 0.27841523 0.11999526 0.22475481 0.4765624 0.3382693 -0.5593884
-0.029403677 -1.5815845 0.4210496 0.2589462 0.3193373 -0.11284021 -1.5488857 0.19746357
-0.24750501 0.10439585 0.25773025 -0.36416084 0.3843392 -0.2876501 -0.7415714 -1.0983838
0.29624447 0.101393536 -0.095808305 0.14108914 0.55306745 0.92110753 0.12959501 0.3108078
0.19813895 0.4086307 0.5569063 -0.2018103 0.43479136 0.12698478 0.13582712 0.05274542
-0.4543178 0.13620573 0.09884897 -1.0316089 0.93392915 -0.13936129 1.0761917 0.18722299
0.17245951 0.12595466 0.22410317 -0.8712589 -0.69748896 -0.24682748 -4.0641675 -0.91662395
0.017568195 1.1792605 1.7894313 -2.4828413 0.15804255 0.9610879 -0.12333933 0.15201376
0.22081119 0.4330966 0.17758027 -0.3182684 0.54436356 -1.0151175 -0.13007894 -0.61586356
-0.09746597 -0.055826098 0.037759297 -0.08358289 -0.16006903 -0.023958797 -0.06118335 0.034649033
-0.078807466 -0.047940005 -0.031152872 -0.10336101 0.008624529 -0.122188464 -0.07259661 -0.025724752
-0.016385945 -0.034356 0.045615315 0.02970733 -0.037048258 -0.10745023 -0.055981334 -0.050251253
-0.10499943 -0.032227058 -0.05934718 -0.0926453 -0.02868205 -0.015283453 -0.020604284 -0.10222258
-0.011570256 -0.042970054 0.021356156 -0.072800145 -0.005876298 -0.059495036 0.036194686 -0.023207849
-0.019479124 -0.04375783 -0.07262171 -0.037603598 -0.13315873 -0.04238678 0.03805135 -0.10277748
0.007051746 -0.02688384 0.003421086 -0.123399824 -0.12139395 -0.06574819 -0.0061357454 -0.11027965
0.042015955 -0.047765914 -0.057020042 0.01497939 0.0409643 -0.0037026377 -0.0005259467 -0.047032345
0.05212305 -0.025532616 -0.14268683 -0.08435331 0.083323315 0.0036623282 0.06918795 -0.0030998879
-0.06537219 -0.07056047 -0.08624981 0.0049434844 0.03894849 -0.02159895 0.020940633 -0.046875168
-0.074444555 -0.056995086 -0.10787523 0.04160004 -0.11495774 -0.0045648455 -0.02935386 -0.081406735
-0.081224605 -0.08928991 0.042197507 -0.04032025 0.016326897 0.065767474 -0.055030245 -0.07914683
-0.13648285 0.026555987 -0.017254438 -0.10929539 0.0036040298 -0.07949138 -0.0012992381 -0.087084636
0.013472821 -0.07110974 0.03657879 -0.04325885 0.039657038 -0.05926062 0.008456732 0.05763447
-0.12363687 -0.080210075 -0.1345844 -0.069972515 0.03019227 -0.09484214 -0.09351408 0.038004134
-0.1410439 -0.06816584 0.028390676 -0.12625434 0.02667095 0.041173123 -0.09682947 0.037037358
00000000: 3465 383d 966e 2b3e 466e 873e b800 cd3e
00000010: b9e6 2f3e cebb 893e 6d73 bfbf 2bc2 18bf
00000020: e6e8 fd3d 57df 853e 23a7 633e d0bd a2bd
00000030: d305 493d b437 e33d a862 c2be 01f7 21bf
00000040: a71b 88be 4431 45be 8cdf 013f 338b 463e
00000050: 2a70 1cbd 10df 00c0 1f7b b23e 258c 373d
00000060: 5a79 12be 31bf bcbc a447 26c0 8ba7 ed3e
00000070: 4e3a 48be d97e 1e3d 3386 8fbe be18 b5bf
00000080: 214f c83e 7cd0 6d3e b974 893e 27b0 e2bd
00000090: 5d8c 4dbf 5e0d b6bc 5d8e 383f bcc9 c7be
000000a0: f68f a43e 3a4b 79be 8ae9 0b3e 387f ac3e
000000b0: a6a2 d0bf 8807 853e dbfd d03e ce7c 5f3e
000000c0: dc2f a9be 0ca8 0fbf d45d 21bf 4604 80bd
000000d0: 9204 393e ff4a 0fc1 1249 23c0 4c62 7dbe
000000e0: defe 1bbd b350 6fbf 718c 8e3e 13c0 f53d
000000f0: 2026 663e fdff f33e a231 ad3e 1434 0fbf
00000100: fbdf f0bc 5c71 cabf d093 d73e 9994 843e
00000110: 2e80 a33e c518 e7bd e341 c6bf e433 4a3e
00000120: f471 7dbe 7ecd d53d 38f5 833e 4a73 babe
00000130: 1cc8 c43e e046 93be a0d7 3dbf d797 8cbf
00000140: 5bad 973e 6aa7 cf3d 2537 c4bd ac79 103e
00000150: d495 0d3f b4cd 6b3f 8eb4 043e 3322 9f3e
00000160: f0e4 4a3e 0b38 d13e 6991 0e3f 5ca7 4ebe
00000170: f99c de3e 4c08 023e 4416 0b3e 950b 583d
00000180: 589c e8be 8479 0b3e 5471 ca3d c30b 84bf
00000190: fb15 6f3f bab4 0ebe a6c0 893f 62b7 3f3e
000001a0: 3a99 303e 42fa 003e 4d7b 653e d30a 5fbf
000001b0: a38e 32bf 58c0 7cbe a90d 82c0 dea7 6abf
000001c0: 2deb 8f3c 02f2 963f 160c e53f dfe6 1ec0
000001d0: e8d5 213e db09 763f 5599 fcbd 7fa9 1b3e
000001e0: 541c 623e d6be dd3e 9ad7 353e 13f4 a2be
000001f0: 695b 0b3f 5fef 81bf 6a33 05be 3ca9 1dbf
00000200: 3d9c c7bd e8a9 64bd 7ea9 1a3d 822d abbd
00000210: 23e9 23be 3d45 c4bc 649b 7abd 25ec 0d3d
00000220: cf65 a1bd bd5c 44bd 4f34 ffbc f0ae d3bd
00000230: e54d 0d3c f23d fabd 88ad 94bd b7bc d2bc
00000240: d13b 86bc e1b8 0cbd 20d7 3a3d c95c f33c
00000250: eabf 17bd de0e dcbd af4c 65bd 42d4 4dbd
00000260: f109 d7bd 8500 04bd 0716 73bd d2bc bdbd
00000270: 9ef6 eabc 7367 7abc 51ca a8bc 125a d1bd
00000280: 2c91 3dbc 5e01 30bd 1bf3 ae3c 3e18 95bd
00000290: f68d c0bb 11b1 73bd e140 143d 631e bebc
000002a0: af92 9fbc 693b 33bd b1ba 94bd 3b06 1abd
000002b0: c35a 08be c39d 2dbd bbdb 1b3d 007d d2bd
000002c0: 5512 e73b 803b dcbc 4c34 603b 0cb9 fcbd
000002d0: 649d f8bd fda6 86bd 5d0e c9bb 4cda e1bd
000002e0: ec18 2c3d 31a6 43bd d98d 69bd 1e6c 753c
000002f0: 2fca 273d f4a7 72bb b0df 09ba fda4 40bd
00000300: fb7e 553d c729 d1bc 7f1c 12be 6ec1 acbd
00000310: 6aa5 aa3d ac03 703b 69b2 8d3d 7d27 4bbb
00000320: dbe1 85bd 0282 90bd bea3 b0bd f4fc a13b
00000330: 7488 1f3d 48f0 b0bc b18b ab3c 2d00 40bd
00000340: 6376 98bd ae73 69bd b0ed dcbd ce64 2a3d
00000350: f76e ebbd b394 95bb 8277 f0bc 93b8 a6bd
00000360: 1659 a6bd a1dd b6bd 4bd7 2c3d d926 25bd
00000370: fcbf 853c 19b1 863d 6567 61bd bc17 a2bd
00000380: 29c2 0bbe f18b d93c 2e59 8dbc 43d6 dfbd
00000390: 9631 6c3b 60cc a2bd 324b aaba 6e59 b2bd
000003a0: 1bbd 5c3c fca1 91bd a4d3 153d 3130 31bd
000003b0: 6b6f 223d 44bb 72bd 1b8e 0a3c 1f12 6c3d
000003c0: 5435 fdbd 2e45 a4bd 7ed0 09be c04d 8fbd
000003d0: c855 f73c 993c c2bd 4f84 bfbd 39aa 1b3d
000003e0: d06d 10be 889a 8bbd 9093 e83c d148 01be
000003f0: 097d da3c 26a5 283d 874e c6bd 7cb4 173d

bias f4 [128]
0.093555965 -0.13183323 -0.185774 -0.37946385 -0.096667685 -0.12023097 0.1937006 -0.5930685
-0.38164258 0.09106964 -0.10458331 -0.13140243 -0.055023402 -0.0970596 -0.44584417 -0.16990606
-0.03558442 0.34168103 -0.031054214 -0.058664426 -0.3826904 -0.079741046 -0.08940458 -0.04845103
-0.34039423 -0.51807797 -0.026608555 -0.10050829 0.2590163 -0.12914915 0.5079005 -0.1653874
-0.11143101 0.22929253 -0.23438977 -0.18945894 -0.18324596 -0.6802329 -1.1555688 -0.07814509
-0.23299335 -0.04039447 -0.36545017 -0.093631625 -0.824039 0.18454197 -0.05050333 -0.008673904
-0.04494521 -0.0754146 -0.14214256 -0.46414492 0.7802532 -0.18729088 -0.01792574 -0.039117113
-0.28489372 -0.4408445 0.06471959 -0.05130259 -0.033346746 -0.21454182 1.2435027 0.09293329
0.2521068 -0.109508395 0.011140172 -0.13826835 0.037724067 0.11571882 -0.088413306 -0.8523383
-0.06083619 0.05447048 -0.11779564 -0.47228906 -0.09907747 -0.21564552 0.10967472 0.20880754
0.017818604 -0.03931457 0.28094986 -0.07582509 -1.090976 0.15108368 -0.6575803 -0.09016622
-0.030973688 -0.01921952 -0.25725815 -0.2164781 0.15825602 -0.04847523 0.0061930916 0.44056883
0.34592882 -0.32674897 -0.068423845 -0.3048289 0.21071881 -0.4214758 0.018990265 -0.98986596
-0.4671458 -0.43007773 -0.095974304 -0.11865642 -0.09837733 -0.04033789 -0.025591336 -1.2562838
0.08114216 -0.061478294 -0.06913511 0.13143785 0.0038762381 -0.33194512 -0.68242806 -0.9915394
-0.07007821 -0.05471323 -0.02904164 -0.09204684 -0.09337228 -0.24816202 -0.13012463 -0.031781618
00000000: 459a bf3d 4aff 06be 8a3b 3ebe 1649 c2be
00000010: b5f9 c5bd a83b f6bd 7359 463e 56d3 17bf
00000020: a866 c3be b882 ba3d c62f d6bd 5c8e 06be
00000030: 3860 61bd 2fc7 c6bd b045 e4be dbfb 2dbe
00000040: f8c0 11bd d1f0 ae3e 6865 febc 1c4a 70bd
00000050: ffef c3be 464f a3bd c019 b7bd 9674 46bd
00000060: 2748 aebe c2a0 04bf 2ffa d9bc 4ad7 cdbd
00000070: c99d 843e ad3f 04be c405 023f 515b 29be
00000080: f135 e4bd a9cb 6a3e df03 70be 8601 42be
00000090: d4a4 3bbe be23 2ebf aee9 93bf 880a a0bd
000000a0: cf95 6ebe ac74 25bd 491c bbbe f0c1 bfbd
000000b0: 38f4 52bf 92f8 3c3e 94dc 4ebd fe1c 0ebc
000000c0: 7818 38bd f872 9abd d28d 11be 67a4 edbe
000000d0: acbe 473f 2ec9 3fbe 00d9 92bc 4439 20bd
000000e0: 97dd 91be 5fb6 e1be b48b 843d aa22 52bd
000000f0: 9996 08bd dab0 5bbe 192b 9f3f cf53 be3d
00000100: 2414 813e f045 e0bd 4585 363c 3896 0dbe
00000110: 8d84 1a3d fdfd ec3d 0912 b5bd d832 5abf
00000120: 5e2f 79bd 701c 5f3d d73e f1bd dfcf f1be
00000130: 21e9 cabd 2ed2 5cbe 249d e03d a5d1 553e
00000140: 52f8 913c 5108 21bd a9d8 8f3e 2f4a 9bbd
00000150: 1aa5 8bbf aeb5 1a3e 2f57 28bf 11a9 b8bd
00000160: 88bc fdbc 4172 9dbc 57b7 83be 6fac 5dbe
00000170: de0d 223e f68d 46bd 6bef ca3b 3d92 e13e
00000180: 951d b13e a44b a7be cd21 8cbd 8912 9cbe
00000190: acc6 573e adcb d7be 7991 9b3c db67 7dbf
000001a0: bc2d efbe 2633 dcbe 2d8e c4bd 2302 f3bd
000001b0: 0e7a c9bd 5839 25bd eca4 d1bc e8cd a0bf
000001c0: dc2d a63d aad0 7bbd b596 8dbd a597 063e
000001d0: 7c08 7e3b b6f4 a9be 9bb3 2ebf 87d5 7dbf
000001e0: 2a85 8fbd fb1a 60bd bce8 edbc 0e83 bcbd
000001f0: f739 bfbd 2f1e 7ebe 643f 05be 712d 02bd

weight f4 [1, 128]
0.42267627 -0.0078155715 -0.025581466 0.14972882 0.0003705504 -0.008910276 -0.12814918 0.16488625
-0.7567309 2.2157516 -0.052220043 0.01669202 -0.03358206 -0.11131576 0.4735905 0.3689971
0.0054143514 0.1682451 0.02845205 0.021798523 0.45344278 -0.24699388 0.0017222791 -0.0032402289
-0.37909988 0.18471926 0.0017530718 0.10817843 0.30488998 -0.060322482 0.09587428 0.1807023
0.020326596 -0.48420623 0.3992052 0.11645265 -0.13098623 -0.23389229 -0.17155474 0.056300398
0.029120138 1.1750692 -0.1335372 0.89997375 -0.41691968 -0.079095125 0.009412662 -0.0020958928
0.0034683635 0.0018774208 -0.02104068 0.21836686 -0.44922704 -0.0016856297 -0.029567553 -0.013451186
1.1112875 -0.40430543 0.25398415 0.048446648 0.0011450714 -2.2962432 0.43313354 -0.22291194
-0.12216135 -0.014820118 -0.0006437543 -0.3361797 -0.025397908 0.11580193 -0.87666875 0.17360058
0.018165337 -0.0016615576 -0.0063598272 0.055382144 0.0023552899 -0.008693597 -0.17104323 0.28443414
0.00018915666 0.049088676 0.17546366 0.06929263 1.0099931 -1.1237601 -0.15055798 -0.0057671615
0.0032708547 -0.030798571 -0.8357225 -0.108829856 0.75439185 -0.0060199285 -1.2738323 -0.19235685
-0.23365378 -0.0021483195 0.018891584 0.68034685 -0.13914794 -0.11663848 0.023579512 -0.17664735
0.11602515 0.1014161 -0.0019307001 0.015875384 0.02887095 -0.02895517 0.022341484 1.188086
0.10564673 0.027802091 1.8270268 -0.3054798 0.0009674488 0.11628297 -1.153681 -0.9452078
0.10409843 -0.008682496 0.21296582 -0.025405116 -0.009375544 -0.39884347 0.0019162105 0.03111772
00000000: 0669 d83e e20c 00bc 3990 d1bc 8352 193e
00000010: 6f46 c239 68fc 11bc 8a39 03be f1d7 283e
00000020: 1eb9 41bf e0ce 0d40 afe4 55bd b4bd 883c
00000030: 588d 09bd 84f9 e3bd 747a f23e 30ed bc3e
00000040: df6a b13b 7248 2c3e 4614 e93c d192 b23c
00000050: a729 e83e f7eb 7cbe 19be e13a 055a 54bb
00000060: 6119 c2be 0c27 3d3e 54c7 e53a a78c dd3d
00000070: 8a1a 9c3e b514 77bd bc59 c43d 060a 393e
00000080: f683 a63c e1e9 f7be a064 cc3e ba7e ee3d
00000090: 4121 06be 7681 6fbe 0cac 2fbe 3f9b 663d
000000a0: 5b8d ee3c ab68 963f fabd 08be ae64 663f
000000b0: 7f76 d5be a0fc a1bd 9137 1a3c 3f5b 09bb
000000c0: 7c4d 633b ca13 f63a 815d acbc 909b 5f3e
000000d0: 1601 e6be 59f0 dcba a737 f2bc 5d62 5cbc
000000e0: ab3e 8e3f 1f01 cfbe 360a 823e fe6f 463d
000000f0: 3816 963a a6f5 12c0 aec3 dd3e 0743 64be
00000100: bb2f fabd 15d0 72bc 9fc1 28ba bf1f acbe
00000110: 460f d0bc 9029 ed3d 5d6d 60bf 5ac4 313e
00000120: 79cf 943c 9fc8 d9ba 1966 d0bb 63d8 623d
00000130: 355b 1a3b 976f 0ebc f525 2fbe 5aa1 913e
00000140: 5b58 4639 3511 493d bfac 333e 4be9 8d3d
00000150: 7447 813f 5fd7 8fbf df2b 1abe 75fa bcbb
00000160: d65b 563b 494d fcbc e9f1 55bf 30e2 debd
00000170: d31f 413f d242 c5bb f00c a3bf 32f9 44be
00000180: f042 6fbe d2ca 0cbb 86c2 9a3c 362b 2e3f
00000190: cc7c 0ebe 28e0 eebd d229 c13c 0be3 34be
000001a0: 989e ed3d 3fb3 cf3d 8c0f fdba 180d 823c
000001b0: c582 ec3c 6533 edbc 7d05 b73c 3413 983f
000001c0: 505d d83d 36c1 e33c 04dc e93f d967 9cbe
000001d0: 649c 7d3a c425 ee3d d2ab 93bf 23f9 71bf
000001e0: 8f31 d53d 0741 0ebc b613 5a3e 641e d0bc
000001f0: e29b 19bc 3635 ccbe 5b29 fb3a 97ea fe3c
