Dat/Nova pasta/models/CLNB_model_scripted.pt (torch, 82061 bytes, 5 tensors)

weight f4 [128, 8]
000000 53 bd 8e 3c 8f 1c c8 bf 84 7b 91 be b3 12 1c bc
       0.017424261 -1.5633715 -0.28414547 -0.009525943
000010 71 e3 30 bc 22 6e 8a 3b 12 0a 7c b9 cd 99 aa ba
       -0.010796414 0.0042245546 -0.00024036344 -0.0013015807
000020 c5 73 2c bf d1 fa 67 3d 2e 56 ed 3b 9f 96 53 bc
       -0.6736415 0.05663568 0.0072429394 -0.012914329
000030 1c 18 6d bd 0b 0a 4b bd 7e f6 92 bd b6 7f fb 3e
       -0.05788432 -0.049570125 -0.07175921 0.49120873
000040 7e ec bb bc fd f3 95 bc 6e c0 8e 3e 51 6e 45 be
       -0.022939917 -0.01830482 0.27881187 -0.19280364
000050 cc fa f7 be 7a fe 4e 3d 6a 84 6e 3e c4 7e 06 3e
       -0.4843353 0.050535657 0.232927 0.13134295
000060 c1 e9 03 3c 5b eb 73 3f 1a f5 41 be a7 89 90 bc
       0.008051337 0.95281 -0.18941155 -0.017643763
000070 52 f8 74 bc 3e 99 5e 3c d6 52 07 bb cc cf 0e 3b
       -0.014951782 0.0135863405 -0.002064874 0.0021791337
000080 bb d3 6e 3d 15 13 31 3d 1e eb b1 be 78 83 43 3c
       0.05830739 0.04323109 -0.34749693 0.0119332
000090 74 c3 74 3d 31 ca 48 3c c7 cc 46 3c 8e 05 6e bd
       0.05975671 0.012255237 0.012133784 -0.058110766
0000a0 d3 47 e4 bf 80 dd 50 3f 05 da 9f ba d2 c8 b7 bb
       -1.7834419 0.8158798 -0.0012195712 -0.0056086564
0000b0 7e 01 88 bb 9a f6 c6 bb e9 14 c5 ba 13 a8 81 bb
       -0.0041505685 -0.0060718777 -0.0015036139 -0.0039568036
0000c0 be 10 4d 3f 4d 12 f6 3e e1 ed 80 3e 89 75 b8 bd
       0.8010367 0.48060837 0.25181487 -0.09006793
0000d0 5a d7 5d bb 2b bf 7b 3c 1f ec 03 3d e4 cf a1 3c
       -0.0033850283 0.015365402 0.032207604 0.01975245
0000e0 21 2b bc bf f4 b1 bd bf 93 fc 04 3b 20 4e 51 38
       -1.4700662 -1.4819932 0.0020292148 4.9902243e-05
0000f0 19 e4 75 3b 99 80 bb ba 57 a1 62 3b eb 97 78 3b
       0.003751999 -0.0014305293 0.003458103 0.0037932347
000100 39 41 b5 bd 12 be 84 3d 6c ac 63 3e 54 da 02 be
       -0.08850331 0.064815655 0.22233742 -0.12778598
000110 53 8c 41 be 4f f2 cc 3b a5 2f 23 bc 91 74 92 be
       -0.18901186 0.0062544714 -0.00996009 -0.28604558
000120 54 5e 81 be 78 34 64 3f 28 5e 8a 3e 33 d4 19 3c
       -0.2526728 0.8914256 0.2702496 0.009388971
000130 55 7d ce bb ba 24 95 3c ad 2d 91 3b cb 51 87 3c
       -0.006301562 0.01820599 0.004430494 0.016518494
000140 3c 8e 2e bf 87 c6 4b 3f b0 31 a3 3d dc 1a 11 3b
       -0.6818578 0.79599804 0.079684615 0.0022141254
000150 2e 3b 30 3c d4 40 c4 3a 8d a3 ba b9 c6 e4 c4 bb
       0.010756297 0.0014972934 -0.0003559854 -0.006008717
000160 0d e1 c0 be eb 03 97 3f 18 6b 21 bd 42 ba 6f 3b
       -0.376717 1.1798071 -0.039408773 0.0036579524
000170 46 47 e5 bb a6 e2 e5 3a 18 e7 a3 ba 82 c7 84 3b
       -0.006997022 0.001753886 -0.0012504784 0.0040521035
000180 30 d3 d7 bd 2f bd 05 3e ba cc cf 3d dc 79 9b 3e
       -0.10538328 0.13060449 0.1014647 0.3036641
000190 43 f9 10 3e 3e 71 ee 3d f4 df b8 bd 0d 1b 57 be
       0.14157586 0.11642693 -0.09027091 -0.21006413
0001a0 a9 6c af bd 8c fd 43 3e ca 45 99 3c 8d 4d 59 bc
       -0.08565647 0.19139689 0.018710036 -0.013263118
0001b0 72 11 3c 3d 7f e4 9d 3d 3e 0a b5 be 5b cf 5e 3d
       0.045915075 0.07709598 -0.35359377 0.05439697
0001c0 19 8b c6 3e 21 61 ac bd 3d 9d ef bd d4 f1 3c 3c
       0.38777998 -0.08416963 -0.11699913 0.011532266
0001d0 03 11 38 be c4 9f 35 bd 33 c7 df 3c ec f9 d9 bc
       -0.1797524 -0.044341817 0.027316665 -0.02660843
0001e0 39 24 1d 40 eb c8 2a 3b 28 78 e8 3d cd 32 c7 bc
       2.4553359 0.0026059698 0.11351043 -0.024316216
0001f0 d7 4a b1 bb 9a ab fb bb ab 0f e3 3b 74 11 d5 b9
       -0.005410533 -0.0076803686 0.006929358 -0.0004063953
000200 60 12 36 be f7 5a 87 bc 59 3d 93 bd a3 ef 33 3d
       -0.17780447 -0.016522868 -0.071894355 0.043929707
000210 9d 14 8a bd 99 4a d0 bb 7b f4 20 be 19 ba d2 3e
       -0.06742213 -0.006356549 -0.15718262 0.41157606
000220 d8 44 99 bd 64 e3 80 3e aa 91 27 3f 23 e9 a1 3c
       -0.07483834 0.25173485 0.6545664 0.019764489
000230 4d 37 57 3c fa 59 a4 ba 99 99 67 bc e7 de 2b 3c
       0.013135743 -0.0012539022 -0.014135742 0.010490156
000240 9c 31 bb 3d 8e 55 a9 3d df 7d 82 bd 0d 28 ef 3c
       0.091403216 0.082682714 -0.06371664 0.029193902
000250 76 eb e2 bd 8a a8 68 3e 95 1e c6 be 58 2b db bd
       -0.11080067 0.22720543 -0.38695207 -0.107016265
000260 7d ee 1b 3d de 16 50 3e 03 5a 73 3d 31 4a 1c bc
       0.038069237 0.20321223 0.059412014 -0.009539173
000270 51 a3 f3 3e 65 df c8 bd 21 e3 8f bd 3e 23 92 bd
       0.47585538 -0.09808234 -0.07025743 -0.07135628
000280 24 67 0c bf c5 1c f0 3e 6a 1d 93 3d f6 b3 e9 3a
       -0.5484488 0.4689695 0.07183345 0.0017830122
000290 47 74 39 bb dd 55 79 bc ff 58 15 3c 66 fb fd bb
       -0.0028298066 -0.015218225 0.009115457 -0.0077509163
0002a0 a9 19 ba bc 51 49 29 3d fe 4e 48 3d 90 9c 07 bc
       -0.022717314 0.041329686 0.048903458 -0.0082770735
0002b0 dc 0f 6e bd 2d 29 5f 3a c6 9a 77 ba 52 f2 96 3c
       -0.058120593 0.00085129106 -0.0009445365 0.018426094
0002c0 50 53 cc be 2b bd 9c 3d 06 9d 78 3e af a9 81 3d
       -0.39907312 0.076532684 0.2427865 0.06331193
0002d0 6f ca 59 be 39 43 cd bd fa ed cc bd 15 c0 45 3e
       -0.21268629 -0.10022587 -0.10006328 0.19311555
0002e0 6a 4a fb be 02 37 39 bc 3a 9c 89 3d 78 a5 67 bd
       -0.4908021 -0.011304619 0.06719251 -0.056554288
0002f0 2e f3 79 3d 07 b6 7a 3e 0e 30 f1 bd cc 42 e6 bd
       0.06102293 0.244835 -0.11776744 -0.11243209
000300 47 00 31 40 8d 05 42 bc b3 d2 8d 3e 5e 0f 9a bc
       2.765642 -0.011842144 0.27699813 -0.018806156
000310 d1 f7 7e 3c cc b4 c5 bb e6 1f c4 bb 30 70 ae 3c
       0.015562014 -0.0060335156 -0.005985248 0.02129373
000320 b9 e5 11 3f a1 b4 86 3e b6 33 8b 3e df fd ab be
       0.56991154 0.26309684 0.2718789 -0.33592126
000330 10 53 5b bd 0d 9a 39 3e 56 5a 82 bc 79 5b d4 bd
       -0.05354601 0.18125172 -0.015912216 -0.103690095
000340 35 7a d2 bd 4e e3 4d 3c 27 b7 44 bc 9c 95 4a 3d
       -0.102772154 0.012566401 -0.012006558 0.049459085
000350 2c 7c 7c 3c 41 6e e9 bc 9c a3 20 bc e6 eb 87 bc
       0.015410464 -0.028494956 -0.0098046325 -0.016591977
000360 f0 72 26 3e f5 29 1d 3f 4f 71 99 3e 2d b9 30 3c
       0.16254783 0.61392146 0.2996926 0.010786337
000370 c8 d9 43 3b 22 d2 71 bb f9 17 e7 bc c0 77 d8 3c
       0.0029884446 -0.003689893 -0.028209673 0.026424289
000380 cc d6 17 3d 7f 86 f9 3d f4 86 de 3d 7f 0f 2d bd
       0.03707008 0.12183856 0.10865584 -0.042251106
000390 77 c1 33 3e 47 6c c9 3e 63 e7 88 3e b3 d8 23 3e
       0.1755427 0.39340422 0.26739034 0.16000633
0003a0 c8 21 e1 bb 9e dd 8c bb fa 80 a5 bf 6c 6f 1e 3b
       -0.006870482 -0.0042988798 -1.2929986 0.00241753
0003b0 d4 ef 86 3b 18 8b ca 39 ee 11 9c ba 4f b4 b1 3b
       0.004117945 0.00038632075 -0.0011907199 0.005423106
0003c0 3d 89 05 bd 42 85 91 bc 79 fa f0 3c 4b f2 b8 3b
       -0.032601584 -0.017763738 0.02941631 0.005644118
0003d0 34 75 76 bc 1a 87 09 3a 19 2f 8c 3c 16 d2 51 bc
       -0.015042592 0.0005246267 0.017112302 -0.012806436
0003e0 60 18 2c bd ab 71 ff 3d 3d dd 9a 3d ab b9 18 3e
       -0.042015433 0.12472852 0.07561729 0.14914577
0003f0 43 29 e0 bd ba db bc bd 62 28 45 3e cf b8 72 3e
       -0.1094537 -0.09221597 0.19253686 0.23703311

bias f4 [128]
000000 10 ae 7a bf 22 0c f1 be 1c c2 9d bf 4c fb 9b bf
       -0.9792185 -0.4707957 -1.2324862 -1.2186065
000010 87 04 ea 3e f3 d3 16 bf 3e 30 1b bf 76 15 be 3d
       0.4570658 -0.5891716 -0.60620487 0.09281437
000020 de 90 49 bf d4 93 7d bf bf e9 a4 3e e7 c2 a7 bf
       -0.78736675 -0.9905369 0.32209584 -1.3106354
000030 06 a8 5b bf 6c 1f 14 bf 64 38 10 be 89 ef 94 bf
       -0.8580326 -0.57860446 -0.14084011 -1.16356
000040 d2 d7 43 bf 2e 4c 3d bf e3 cc 46 bf 29 82 38 bf
       -0.7650119 -0.73944366 -0.7765638 -0.7207361
000050 6d de f9 3e d8 39 9c be 65 ac 5e bf a4 d5 46 bf
       0.4880251 -0.3051288 -0.86981803 -0.7766974
000060 7d bd e7 be fd f1 87 bf 55 02 85 be d3 11 a1 bf
       -0.45261756 -1.0620724 -0.25978342 -1.2583565
000070 1a 08 84 bf 16 5e d8 3d 88 4d 3b be 1c dc 12 bf
       -1.0314972 0.105648205 -0.18291295 -0.5736711
000080 37 7b 6f be 08 8f 30 bf 3e 2a c1 bf e7 7f a1 bf
       -0.23386846 -0.6896825 -1.5091016 -1.2617158
000090 62 8f ce be 3c 32 22 3e 03 12 64 be 3f 4f a2 bf
       -0.40343767 0.15839475 -0.22272496 -1.2680434
0000a0 fe e6 ad bf 27 7f aa be db de 25 be 63 bb 84 bf
       -1.3586118 -0.33300135 -0.16198294 -1.0369686
0000b0 82 7b 46 bf a6 8e 78 bf 41 51 ab bf 7e 14 c2 bf
       -0.7753221 -0.97092664 -1.3384172 -1.5162504
0000c0 4f 2d 1f 3f 9f 9c 2b bc 89 6e 4a bf a0 84 96 3e
       0.6217851 -0.010474353 -0.79074913 0.2939806
0000d0 1d 9d a2 bf 57 41 b9 bd c7 d9 aa bf 3b d4 76 3d
       -1.2704197 -0.09045666 -1.334771 0.060260992
0000e0 8c 38 75 bf e2 18 88 3e a1 56 6b bf ac 87 0a bf
       -0.9578941 0.26581484 -0.9192906 -0.5411327
0000f0 42 1d 4b 3e da 0c 32 bf da 16 87 be 5e 38 c9 bd
       0.1983538 -0.6955086 -0.26384622 -0.09825204
000100 41 bd 8c be 08 eb 71 bf bb 5d 97 bf d7 46 87 be
       -0.2748814 -0.94499254 -1.1825479 -0.26421234
000110 dc e8 a3 bf c7 ce 0f bf cc 01 ab bd 55 33 cd be
       -1.2805438 -0.5617489 -0.08349952 -0.40078226
000120 e0 fa 49 bf 93 f3 58 be 08 c1 64 bf 77 46 98 be
       -0.7889843 -0.21186666 -0.8935704 -0.2974126
000130 31 42 21 bf 27 96 4d bf 5a 70 41 3f 22 ca 13 bf
       -0.62991625 -0.8030724 0.7556206 -0.57730305
000140 de 90 af bf 02 da ed be 79 5e fa be 07 ad 80 bf
       -1.3716085 -0.4645539 -0.48900202 -1.0052804
000150 b9 48 92 bf 4e 65 c5 bd 37 fc 90 bd 37 8a 42 bf
       -1.1428443 -0.09638463 -0.07079356 -0.7599215
000160 b2 e8 5c bf eb ac 76 bf 4a bf 80 bf fa 70 2a bf
       -0.86292565 -0.963576 -1.0058377 -0.6657864
000170 c3 c3 c4 bf ef 07 14 bf 85 d5 3b bf 5f 5a e3 be
       -1.5372242 -0.57824606 -0.7337268 -0.44404885
000180 99 b1 86 bf 4e 14 19 3e 56 f0 90 bf 32 3b 37 bf
       -1.0522949 0.14949152 -1.1323345 -0.715747
000190 76 f1 57 bf 51 7d 3c 3e 60 dc ac be b6 4c 62 3f
       -0.84352815 0.1840718 -0.33761883 0.883983
0001a0 c2 d3 83 bf 26 13 9f be 77 70 77 bf dc 9b af bf
       -1.0298998 -0.31069297 -0.9665598 -1.371944
0001b0 e3 42 2b 3e df 0f c5 be 16 9a 59 bf 36 ff 54 be
       0.16724734 -0.3848867 -0.8500074 -0.2080048
0001c0 88 9d 0c bf 54 71 c2 bc f3 15 09 bf 8f c5 45 bf
       -0.54927874 -0.02373568 -0.53549117 -0.77254575
0001d0 80 ad 36 be 10 3d fb be 84 95 2b bf 8b 24 ae bf
       -0.17839622 -0.49070024 -0.6702502 -1.3604902
0001e0 fc 9c 94 bf f7 ac 33 3f a0 32 13 be 0f ab 53 bf
       -1.1610408 0.701858 -0.1437478 -0.8268289
0001f0 0c a5 a8 3e 20 65 8b 3f d6 40 6e 3e fa 4a 70 be
       0.3293842 1.0890236 0.2326692 -0.23466101

weight f4 [128, 128]
000000 28 fa 08 be 30 b6 3e 3d 2f a0 25 be 1e 83 06 3f
       -0.13376677 0.046560466 -0.16174386 0.5254382
000010 ee 84 1f 3f 0a 1d a2 bc 84 bf 2e 3c 2d 0c 94 bc
       0.6231221 -0.019789238 0.010665778 -0.018072212
000020 ff 08 cd be ac 3c 8a be 9e d9 30 3d 24 b8 a6 3d
       -0.40045926 -0.26999414 0.043176286 0.08140591
000030 f0 88 8b bd 30 08 21 be 17 d3 9e 3e be 16 b9 3e
       -0.06813228 -0.1572578 0.31020424 0.36150163
000040 8c 9b a6 be bc 5e ac bd a2 32 9c be 6d d6 c0 be
       -0.32540548 -0.08416507 -0.3050738 -0.37663594
000050 23 2e 32 3e 85 ea cf 3d f5 ed a2 be bb 69 b9 bc
       0.17400412 0.10152153 -0.31822172 -0.022633424
000060 70 78 d2 3d 95 fe 46 be 5c 3e 92 3d e2 30 aa 3d
       0.10276878 -0.19433053 0.071408 0.08310105
000070 77 dc 80 be 4d 7c 3e c1 30 de 9b 3d 2d 28 0f bd
       -0.251682 -11.905347 0.07610738 -0.034950424
000080 05 54 ed 3e 9b 5b d8 bc 13 07 2f 3e 22 6d 6a bb
       0.46353164 -0.026410868 0.17092542 -0.0035770615
000090 fc 52 b4 bc f7 51 25 c0 3f d7 fd bd b3 38 18 3e
       -0.022012226 -2.5831277 -0.123945706 0.14865379
0000a0 c4 92 96 3d f4 10 8f bf 28 69 0a 3e 93 f5 09 3e
       0.07352212 -1.1177049 0.13516676 0.13472585
0000b0 d2 28 54 be bb 17 82 be bc 6a 99 be 2e 29 1b 3c
       -0.20718697 -0.2540873 -0.29964244 0.009470267
0000c0 05 05 e0 3e 9c a0 b4 bc 17 72 ca 3e 9c f1 8d 3d
       0.4375383 -0.02204924 0.3954017 0.06930849
0000d0 13 b7 64 be 3b 68 24 3e 90 cd 9f bf ba 84 5a bd
       -0.22335462 0.16055386 -1.2484608 -0.053349234
0000e0 24 28 26 be 26 ad 46 bc 04 1b 80 be 4b c9 5f be
       -0.1622625 -0.012126243 -0.2502061 -0.21854131
0000f0 08 61 12 bd 87 0a 34 bf 44 f8 2b 3e 57 b9 61 3d
       -0.035737067 -0.70328563 0.16793925 0.055108394
000100 e9 94 08 be 10 03 9e bd 98 f8 93 bd 6d 06 07 3e
       -0.13338055 -0.07715428 -0.0722515 0.13186045
000110 28 ec b1 be e1 c2 22 3d 22 d1 8e be f7 2f b9 3d
       -0.34750485 0.039736632 -0.2789393 0.09042352
000120 4f bb 9d be 8b 3b a1 bd c8 5c 0e 3d e9 ce 20 bd
       -0.30806968 -0.07872685 0.03475645 -0.039259825
000130 6d ee 63 bf 43 6c f8 3d b5 dc d7 3d 00 50 d4 3d
       -0.89035684 0.12130024 0.105401434 0.10366821
000140 7e 38 28 bd a6 17 2c bd 51 20 a8 3c 86 f5 35 3e
       -0.0410695 -0.04201474 0.020523222 0.17769441
000150 0f ad fe bd d5 41 c4 bd e5 8b de bd c8 33 c5 be
       -0.12435352 -0.09582869 -0.108665265 -0.38516068
000160 11 01 3b 3e 2a 28 63 be 50 f7 5f 3e 3f 49 8a 3d
       0.18262126 -0.2218329 0.21871686 0.06752252
000170 c8 e0 f1 be ea 58 a2 3e 3f 42 15 be 23 f4 ad bd
       -0.47241807 0.3170846 -0.14576052 -0.08493831
000180 f2 34 eb be 49 73 01 be de a3 5b 3c 65 da f0 3d
       -0.45938832 -0.12641634 0.013405768 0.117604055
000190 7a 69 6b 3e 23 f6 b1 3d ed 00 d8 be d6 d7 c3 3e
       0.22989455 0.08689525 -0.42188206 0.38250607
0001a0 e0 03 31 be 80 38 6a 3e 3f 04 19 be 31 da 65 3f
       -0.17286634 0.22873116 -0.14943026 0.8978606
0001b0 5e 92 3b bd 87 f5 0b 3d ef a3 83 bd 7c 5d 17 3e
       -0.045793884 0.0341697 -0.06427752 0.14781755
0001c0 8b 38 f6 bd 55 a7 0d bc 90 3d 25 be d0 d1 a2 bf
       -0.120225035 -0.008645852 -0.16136765 -1.272028
0001d0 76 c7 41 be 84 42 3b be 65 4a ec 3d d6 77 04 bf
       -0.18923745 -0.18287092 0.11537627 -0.51745355
0001e0 8e 7d b8 be 84 30 bb 3e 70 3b 4c bd 92 af 74 3e
       -0.3603329 0.36560452 -0.04986137 0.238951
0001f0 f2 a0 e7 bc d3 43 83 3e b5 c6 9e 3e b8 5c 37 3d
       -0.028274987 0.25637683 0.31010976 0.044766158
000200 bb 45 21 bf 6a 95 9c 3e 03 90 d6 bf 81 98 b6 3f
       -0.62997025 0.30582744 -1.6762699 1.426529
000210 89 0b 8d bf b7 d6 aa 3d 79 f2 4a c0 6b 08 f6 be
       -1.1019145 0.08341735 -3.1710494 -0.48053297
000220 d9 07 1c 3d 82 d9 eb 3e d5 1c c1 bd fe e3 3e 3f
       0.03809342 0.46064383 -0.094293274 0.7456664
000230 2e 95 2f 3e 93 d6 fc be 3f ee c9 bf e6 12 a9 be
       0.17146751 -0.49382457 -1.5775832 -0.3302223
000240 9d d4 da 3e 31 78 7d 3e 20 1a ae bf 08 20 9f be
       0.42740336 0.2475288 -1.3601723 -0.31079125
000250 70 8c 69 be 3d 57 18 3d 7a e2 f6 3d a0 dd 25 3e
       -0.22807479 0.037192572 0.12054916 0.16197824
000260 96 30 1d be 7f 69 31 bf 09 d2 10 be c0 0c dc bf
       -0.15350565 -0.693016 -0.14142622 -1.7191391
000270 7a 55 bf 3e 35 62 15 c0 77 11 f8 3d 34 46 a7 3c
       0.373699 -2.334119 0.12112706 0.020419218
000280 5a 8f a7 bf cf 70 02 c0 a9 02 b1 3e d6 e1 83 3f
       -1.3090622 -2.0381353 0.34572342 1.0303295
000290 3d 1e 5a be 79 c6 80 bf 74 ab a2 bf 6f 31 42 bf
       -0.21300597 -1.0060569 -1.2708573 -0.7585668
0002a0 c6 0e 0d 3f 81 41 92 3e ad 9e 0f be b8 b6 b1 3d
       0.5510067 0.285656 -0.14025374 0.08677429
0002b0 de 35 d9 bf 56 69 3b be ac 38 84 bf b6 b7 c2 3e
       -1.6969564 -0.18301901 -1.0329795 0.38030785
0002c0 bf 8d c2 3e 36 3d 9e be 19 d0 fe 3b d6 2e 9b be
       0.3799877 -0.30906075 0.007776272 -0.3030917
0002d0 cc ab 66 bd 28 3a c4 3e 95 59 25 40 ce 56 53 bf
       -0.056316182 0.3832562 2.5835927 -0.8255433
0002e0 ed 1a d1 3b 9c 3b ea be 55 df 85 3e c2 f6 8f bc
       0.0063813836 -0.45748603 0.2614695 -0.017573718
0002f0 12 1a a3 be fc a7 32 bf 02 b9 64 3d d4 3d ba be
       -0.31855828 -0.69787574 0.0558405 -0.36375296
000300 90 40 02 c0 84 07 1d 3f 22 c3 3a 3f fa a7 29 3e
       -2.0351906 0.6133959 0.72954 0.16567984
000310 9e 6a f6 be ab 9a f0 3b f5 ad 67 3e 2c 08 c1 3e
       -0.48128217 0.0073426566 0.22624953 0.37701547
000320 19 da 70 3e f4 31 e3 bf da 47 39 3d 94 c7 7e 3e
       0.23520698 -1.774962 0.04523454 0.2488082
000330 ef 1c 0f bf 29 91 de bb 89 79 5f bd 6f 15 dc 3f
       -0.55903524 -0.006792207 -0.054559264 1.7194041
000340 84 a2 e0 3d a9 67 8c bf e3 61 ce bd 23 c1 ae bf
       0.109684974 -1.0969135 -0.10077264 -1.3652691
000350 bb 2a f1 be 24 38 64 bf 22 84 b8 3e 05 0b 4d 3f
       -0.47102913 -0.89148164 0.3603831 0.8009494
000360 d1 45 9c 3e c3 ba 3c 3e 2e a1 64 3f 63 2a 16 bd
       0.30522016 0.18430619 0.8930844 -0.036661517
000370 79 19 c4 3d 05 e3 9f 3f b5 51 8d 3c b9 c9 32 3e
       0.09575171 1.2491156 0.017250875 0.17459764
000380 f1 4c ab be f6 b0 85 3d e5 b5 04 bf 16 89 18 bf
       -0.3345714 0.06527893 -0.5184005 -0.59584177
000390 11 6d cb bf 5b 31 12 be 3f 01 41 bd 8e a6 4d bb
       -1.589266 -0.1427664 -0.04712033 -0.0031379792
0003a0 a0 a5 06 3d eb 22 e7 be f9 1d b3 be bf 41 0f 3f
       0.032872796 -0.45143828 -0.34983805 0.55959696
0003b0 58 3d 35 bd bb 28 53 3e 1e c9 04 3f e9 4f cc be
       -0.044247955 0.20621006 0.5186938 -0.39904717
0003c0 4b ee f5 be 2f cd 51 be 42 db 4d bf 22 62 88 bf
       -0.48033366 -0.20488428 -0.80412686 -1.0654948
0003d0 d8 3c 1b be d0 16 13 be 7d 6b 1a 3e 7b d5 cd 3e
       -0.15159929 -0.14364171 0.15080066 0.40201935
0003e0 a6 87 ed 3d e7 0b c9 3e 21 3b 3b c0 10 67 de 3e
       0.115981385 0.39266893 -2.925484 0.43438005
0003f0 a6 68 ca ba b6 a9 4e 3d ef b3 0f 3d 44 d0 6e be
       -0.0015442565 0.050454818 0.035083707 -0.23321635

bias f4 [128]
000000 f6 1d 85 3e 07 48 c7 be 98 a0 11 bf 77 cc 04 bd
       0.2599942 -0.3892214 -0.5688567 -0.032421555
000010 b0 43 5b bd 69 dc 62 3d cb 24 9c bd 10 c7 da 3b
       -0.05353135 0.05538598 -0.07624205 0.006676562
000020 de 4a 23 3f f4 b5 85 3e 2f e9 ef bd 64 9e ef 3d
       0.63786113 0.26115382 -0.11714398 0.117001325
000030 f3 6f 2b 3f ee 21 a8 3e 97 1d 72 3c cf 4b 11 bc
       0.66967696 0.32838386 0.014777563 -0.008868172
000040 1c a7 c8 3e 0c 66 5e bd 2d 9d 1f bc 4f cd 94 3e
       0.39189994 -0.05429654 -0.0097420635 0.29062888
000050 de b9 01 3e 77 cc 21 bd e2 fb b9 3d b9 c9 34 3f
       0.12668559 -0.039501633 0.09081246 0.70620304
000060 18 22 4d 3c 09 43 ad be ba 3c 8c 3e b6 39 ad bf
       0.012520336 -0.33840206 0.2739008 -1.3533237
000070 b8 0a cf bd 02 7b f4 3b ca f5 82 3e fa 85 83 bd
       -0.10109466 0.0074609527 0.25578147 -0.064220384
000080 92 a7 e3 bd 8c a9 2a 3f 8a c3 52 bd a4 0b 0b 3f
       -0.11115946 0.6666496 -0.05145601 0.5431464
000090 b4 0f 3e bf 95 4c 99 bf 61 79 d0 3e 3f f8 ba 3e
       -0.7424271 -1.1976496 0.40717605 0.36517522
0000a0 a9 5c 7d 3f 23 c7 02 be ad fc 76 be 58 8e 9f bf
       0.98969513 -0.12771277 -0.24119826 -1.2465315
0000b0 d0 20 eb be 7f 06 57 be 4c bb 2c bd d5 e5 05 3f
       -0.4592347 -0.20998572 -0.042170808 0.5230382
0000c0 a1 53 5d bf b6 5e e4 bc 42 52 3f 3d 87 c9 1f be
       -0.8645573 -0.027877193 0.046709307 -0.1560422
0000d0 25 6b 2d 3d 17 6e 77 bd 1f b9 51 bd cf 20 9c bd
       0.04233851 -0.060407724 -0.051201936 -0.07623445
0000e0 76 b5 af bd 3a 80 e6 3d 0b 5d 6a be e1 7a 94 bc
       -0.08579533 0.11254926 -0.22887056 -0.018125
0000f0 cf 9e ba bd b1 79 86 bd bc 87 e9 bd c9 46 80 bd
       -0.091123216 -0.065661795 -0.114028424 -0.06263501
000100 ca d6 9b bd 72 9d fd bd 3d 42 01 bd 5f 81 0e be
       -0.07609327 -0.12383546 -0.03155731 -0.13916539
000110 4f 16 53 be 52 e9 dc 3d d9 29 1c be 10 32 cc be
       -0.20613979 0.1078669 -0.15250339 -0.39881945
000120 cb b2 ee 3d bc e3 53 bd 53 34 3d 3e 47 ca ff be
       0.11655196 -0.051730856 0.18476991 -0.49959013
000130 61 53 d2 3e 65 27 98 bd b2 c0 1c be ba 1e e3 3c
       0.41079238 -0.07429389 -0.15307882 0.027724613
000140 cb b7 b2 3e 60 13 0b bf ee 08 3b bd 2a 6e fd 3e
       0.34905848 -0.5432644 -0.045662813 0.4949811
000150 0c c4 4a bd 4b cb 9f be a5 7f d3 bd 81 e4 af bd
       -0.04950337 -0.31209788 -0.10327081 -0.085885055
000160 11 66 73 be a7 dc 0c be ef a7 7a bd c3 5d 3c be
       -0.23769404 -0.13756047 -0.06119531 -0.18395142
000170 c6 bd 87 bd 8e cf 01 3f 53 34 1a 3e 2b 34 ec be
       -0.06627993 0.5070733 0.15059023 -0.4613355
000180 ca 06 c2 bd 25 ab cf bd cb 0a 3a bc 64 71 6a bd
       -0.09473951 -0.10140065 -0.011355112 -0.057237044
000190 be b0 42 bd 5b dc c3 bd 9e 7b f3 bd 6e f9 2b be
       -0.047531836 -0.09563514 -0.118888125 -0.16794369
0001a0 eb 23 b0 bd 21 0c e5 3d 91 f7 80 3d 35 07 61 3e
       -0.08600601 0.11183954 0.062972195 0.21975406
0001b0 54 38 85 bd bf 2e 0d bf 58 1d a5 bd 6b 8f ac be
       -0.06504884 -0.55149454 -0.080622375 -0.3370317
0001c0 89 3c 84 bc 41 b5 fb be 9c 08 d2 3b 29 aa 1e 3c
       -0.016142147 -0.49161723 0.0064097177 0.009684124
0001d0 9d 70 f9 3c 9a 89 1a 3d b8 a6 3e bc 1c 0d f8 3e
       0.030449206 0.037728883 -0.011636429 0.48447502
0001e0 3a 24 56 be b1 1d 82 be bd a9 91 3e 10 6a 81 bc
       -0.20912257 -0.25413278 0.28449813 -0.015797645
0001f0 ed 55 a7 bd c2 79 5c be d7 5c fd 3d 50 f8 1c bd
       -0.08170686 -0.21530822 0.123712234 -0.038322747

weight f4 [1, 128]
000000 26 cf 85 3d 91 6d b4 bd 6a 3c 42 bf e3 de 11 3d
       0.06533651 -0.08809961 -0.75873435 0.035612952
000010 f7 59 ea bc ec e3 04 bc 15 c6 a3 3a b0 28 0d bc
       -0.028607352 -0.008110981 0.0012494946 -0.008615658
000020 06 3e 39 bf 52 8f c5 bd 8f b8 d0 bc 9f 62 27 40
       -0.72360265 -0.09646477 -0.02547863 2.6153944
000030 fb d0 b5 be ef 3d b9 3e 9a 01 da 3c 6e f4 ca 38
       -0.35511002 0.36180064 0.026612092 9.677639e-05
000040 12 a3 22 be 10 96 b6 3c 21 fd a1 3b 5a 3b 7d 3f
       -0.15882519 0.022288352 0.0049435054 0.9891869
000050 e5 fc 12 c0 43 1d 80 bd c9 65 04 c0 90 25 18 bf
       -2.2966855 -0.06255581 -2.0687125 -0.59432316
000060 18 62 0f bc 5c 97 2a 3f 69 a1 05 3e 27 3e 36 3f
       -0.008751415 0.66637206 0.13049854 0.71188587
000070 8a 89 cb 3c 1f 10 59 3c 48 58 15 3e 82 a7 b6 3a
       0.024845857 0.0132484725 0.14584458 0.0013935419
000080 c6 03 02 c0 13 91 0b bf a5 e0 84 3e 17 69 43 bf
       -2.0314803 -0.5451824 0.2595264 -0.7633223
000090 fb 7f bf 3d d8 cf 33 3e 1d 60 03 be 84 d6 f8 3d
       0.09350582 0.17559755 -0.12829633 0.121502906
0000a0 3e 83 d9 3f d9 7c 91 bb 7b 42 50 3c 31 64 2f 40
       1.6993177 -0.004439932 0.012711163 2.7404902
0000b0 68 db 73 be 3b aa 8c bf 42 d3 0f 3d ad dc f9 3d
       -0.23814166 -1.098945 0.03511358 0.12200294
0000c0 1b f1 ec bf 0e e6 2f bd 78 4b 3c 3e 6b 64 8b 3c
       -1.851108 -0.042944007 0.18388164 0.017015656
0000d0 fb c4 58 3c 7d df af be 08 80 b7 bc 85 16 de 3d
       0.013230558 -0.34350196 -0.022399917 0.10844139
0000e0 8f f6 9c 3c 05 c3 ab bd c8 22 cb 3c f9 81 bf b6
       0.019160537 -0.083868064 0.024796858 -5.7073744e-06
0000f0 61 97 66 be 8b 75 32 3c 8c 10 39 c0 1d b7 27 3c
       -0.22518684 0.010892282 -2.891635 0.010236529
000100 04 40 bd 3c c7 66 fb bc 94 da 92 3e 42 34 2c 3f
       0.023101814 -0.030688656 0.28682387 0.6726724
000110 af 5f 09 be b4 67 61 3e d8 31 6e bb c5 55 02 be
       -0.13415407 0.22012216 -0.0036345627 -0.12728031
000120 ae 1e fc bd 4d 8f d8 bd 3a 21 6c 3e 0a 47 87 3e
       -0.12310539 -0.105742075 0.2305955 0.26421386
000130 f0 c6 9b bf 6e 31 2b 3d a4 8a f0 bd e8 70 77 3e
       -1.2170086 0.041795187 -0.117451936 0.24164164
000140 77 67 5e 3e 3a a9 d6 3d a8 aa b1 3f 94 36 22 3f
       0.21719156 0.10481496 1.3880205 0.6336453
000150 0c 70 a1 bc b9 9d 48 be 20 ec 1e bb 6c 4a 11 3e
       -0.019706748 -0.19591416 -0.0024249628 0.14188546
000160 75 b6 f6 ba 7b d0 9b bf cf 51 c3 bc 9f da 77 bd
       -0.0018822687 -1.2172998 -0.02384272 -0.060511228
000170 fc 77 0c bd 9a e7 fb bd d2 af d9 3d 7b b2 6f 3e
       -0.034294114 -0.12300034 0.10629238 0.23407929
000180 13 0d c2 3c 2a 71 10 bd 28 0d 11 bc b6 ec 15 bc
       0.023687875 -0.03526417 -0.008853234 -0.009150675
000190 75 96 05 be c7 7c 99 3c 96 08 35 be 82 79 6b bd
       -0.13045676 0.018736256 -0.17679057 -0.057488926
0001a0 d9 ed bf 3f b6 0f 86 3c fc a2 ec 3c 60 f6 be be
       1.499446 0.016364913 0.02888631 -0.37297344
0001b0 b7 be a4 3c 31 be 51 be 67 06 14 3d f4 25 4f be
       0.020110471 -0.20482709 0.03613892 -0.20229322
0001c0 d7 19 f4 be 2a 9a 59 be 03 a5 15 bd 28 b4 a6 3c
       -0.47675964 -0.21250215 -0.03653432 0.020349577
0001d0 ff fd be bc 61 76 6e 3e 86 ee d6 bd d0 c3 56 bd
       -0.023314474 0.23287345 -0.104947135 -0.052432835
0001e0 47 7c 1c bf 3d 62 c0 3c d4 5c 7b bf 7c c3 66 bd
       -0.6112713 0.023484344 -0.9818852 -0.056338772
0001f0 cb 65 d3 bc ae 75 d9 bc d3 f5 f8 3e 3d f7 4b 3c
       -0.025805375 -0.026545372 0.4862505 0.012449083
