Dat/Nova pasta/models/CM_model_scripted.pt (torch, 82011 bytes, 5 tensors)

weight f4 [128, 8]
00000000: d6e8 9dbc 3b3b 36bb 4d1c a03f 3315 3b3c
00000010: 6251 21bb a4cd d2bc e4c2 513c 6b9f 053c
00000020: a8be 2f3f 3de6 7fbd 1383 84be bc1e 3fbc
00000030: e27f 013f 0b29 853e b3c0 f9be e48d 00bf
00000040: d1b1 4b3f e8d7 343f b0e8 083c a1a2 9a3b
00000050: 43ab 943b 76d4 c3bb 385a 663b b6b7 f33b
00000060: 380e b9bc 6534 413d 61d7 3dbd a35b 7fbd
00000070: 11b3 b13c 6eb9 283c 373d 3c3d 50fd d13c
00000080: 43b0 543b 7f3f adbb a38e dd3c 91e5 893c
00000090: 1a3a 2dbc ed33 7c3c 9594 4abc 5bb7 64bc
000000a0: 6d8a d03e dfb4 b93e 0bcb 86bd 1e57 033b
000000b0: 4444 123f 998d b4bd 9b24 77bc f454 88bd
000000c0: dc95 c3bd a42d 97be 0174 73be 02f9 74bc
000000d0: 41c5 ca3d d2fa 673d b9de aa3d ac19 b0be
000000e0: 0c8b 0fbe 30c2 5bbf 9b67 003d 3a51 00bc
000000f0: ca9e 863b dee1 53bc 1567 52bc c911 80bb
00000100: 7b07 5c3d 6ff3 1fbf 1828 dd3e b451 1ebc
00000110: f89c 8e3c 9c25 533d 5855 bbbc da75 24bd
00000120: d250 e53d 2360 8cbc bead dc3e 65a0 aeba
00000130: ca9c 8b39 9254 9fbb 0b34 983b ccf7 473b
00000140: 6f35 e33d 63bb 78bd b840 3dbc c35a e63d
00000150: 0b55 e03d d4a6 073e 74e7 2d3e 5f9d 08be
00000160: beb5 b63c b505 3d3e 919f 97bc a82d 88bd
00000170: 5e4b f63e c690 8c3d c63c e63d ec72 f83d
00000180: fbe1 043f 413b ae3d ec5a 343d 449f 153c
00000190: 8128 073f a0ec 393f 7e06 fdbe 4f90 efbe
000001a0: cf4f b23d f2c7 e3bc 4688 8dbd 2e45 0b3c
000001b0: 82b0 84bd 00e9 6abd cd77 083e cea8 c63d
000001c0: c6a3 1dbe c05c 543e e8e8 ceb9 f856 533d
000001d0: 9026 953c 1e2e 6dbe 617b 3c3d e3ab b9be
000001e0: 5719 de3e 3115 993e 4394 153d 2234 8cbb
000001f0: cbaa 9dbb 0589 bfbb 6416 16bc 65a0 34bb
00000200: 5eee c43e bdba 403e da4e 2bbd 11aa 8fbb
00000210: 3e02 20bc ac3a 453d 7ec5 e8be 3444 bb3d
00000220: 41e0 0abb cc48 ad3b 8985 e4bc 41ba 073c
00000230: 0a50 60bc 729c 81bb 8a41 0dba 7ded c6bc
00000240: 19cd 67bd 98e4 00be b280 f23c 34bf 083c
00000250: 47a0 7dbd 08eb 673e b921 cebc d5ee 693e
00000260: e75f 06ba d191 b0bd 3a6a 81be a5a0 08bc
00000270: f7bb 713e 9d62 343e dced 33be 7f1b 0dbe
00000280: 0630 843d 6cb1 763b e9e9 873e 4e12 04be
00000290: 6b50 8fbd 303b 87be 96d0 643e 2f99 c13d
000002a0: 47d1 1cbd 70af c7bb a5c2 863f bd60 a53a
000002b0: e82f 60ba 981a b93a 4cab 95bb 4659 e6b9
000002c0: 10c3 8abf 6c2b f6be a38d 9e3b 104b e33a
000002d0: 0ad5 873a 5529 453b f72b 8f3a 3211 83bb
000002e0: 1763 f7be 9027 6a3d 1206 06bf 6e4e 43bc
000002f0: d539 5d3b 723c 43be d604 ee3d 41e8 7d3c
00000300: 69df db3e 9cb3 8bbe 15ef 453c 2948 973c
00000310: d032 8a3d 316a 52bc e1b9 903d 394b 00bf
00000320: 550d 683a aa4f febc f4d1 9dbd dea7 143d
00000330: b415 62bd 60ab 9d3c d95f cf3d bdc4 8dbd
00000340: b2d3 9ebd 5984 923d 2599 f5bd 2a2e 5a3c
00000350: 048d 58be c09c f03c d8ee c6be 0147 383e
00000360: e155 b0bd 64e6 8bbe f276 68bc ab2a 953a
00000370: 1d53 e9be caee 38bd 3f2f e4bc 7569 f2bd
00000380: ac57 1ebe 9dc7 59be fb57 3dbb e670 ddbd
00000390: 7c53 be3c 89cf febc 1a2f 97be 35a3 60be
000003a0: dd8e 4abe f075 693e 8186 463d 4f6f b23c
000003b0: e873 16be ceca 8abd 58d0 3bbe 89fa b9bc
000003c0: 5c23 f33c c5c1 f03c 4899 003d b1b3 763e
000003d0: cbc0 973e a867 393c e3e2 b4bd 76ca ce3d
000003e0: cd6a 84be e06a 1a3d cf95 a83e eefc 35bd
000003f0: 61a6 0bbd f3c2 80be b624 76bc 6620 ca3d
-0.019276064 -0.00278063 1.2508637 0.0114186285 -0.0024615158 -0.025732823 0.012802813 0.008155684
0.68650293 -0.06247543 -0.25881252 -0.0116650425 0.5058576 0.26007876 -0.4877983 -0.5021651
0.795682 0.70641947 0.008356258 0.004719094 0.0045370176 -0.005976255 0.003514899 0.0074376715
-0.022589788 0.047169108 -0.04634798 -0.06234325 0.02169183 0.010298116 0.045956817 0.025633484
0.0032453693 -0.0052871103 0.027045554 0.016833099 -0.0105729345 0.015393239 -0.012364526 -0.013959731
0.4073061 0.36270806 -0.06581696 0.002004094 0.57135415 -0.0881607 -0.015084411 -0.066568285
-0.09550068 -0.2952701 -0.2377472 -0.014951946 0.099009044 0.056635685 0.08343262 -0.34394586
-0.14017886 -0.8584318 0.031348806 -0.007831866 0.0041082846 -0.012932269 -0.0128419595 -0.00390837
0.05371807 -0.62480825 0.43194652 -0.009663034 0.017408833 0.05154954 -0.022867844 -0.040151455
0.11197056 -0.017135685 0.43101305 -0.0013322948 0.00026628963 -0.0048623765 0.004644876 0.0030512689
0.11094176 -0.06072558 -0.011551075 0.1124778 0.10953721 0.13247234 0.16982824 -0.13341282
0.022303458 0.18459208 -0.018508704 -0.06649333 0.48104376 0.06863551 0.1124206 0.121312946
0.5190732 0.085073955 0.044032022 0.00913221 0.5279618 0.72626686 -0.49419016 -0.46789786
0.087066285 -0.027805302 -0.06910758 0.00850038 -0.06478979 -0.057351112 0.1332695 0.09700166
-0.15394506 0.20738506 -0.0003946491 0.05159661 0.018206865 -0.23162124 0.0460161 -0.36263952
0.43378708 0.2989898 0.036518347 -0.0042786757 -0.00481162 -0.0058451914 -0.009160612 -0.0027561423
0.3846311 0.18821235 -0.041823246 -0.004384287 -0.00976616 0.048151657 -0.45463175 0.09143868
-0.0021190795 0.005288219 -0.027895706 0.0082841525 -0.013690958 -0.0039554173 -0.0005388489 -0.024283165
-0.05659208 -0.12587202 0.029602382 0.008346368 -0.06192043 0.22648251 -0.025162565 0.22845013
-0.0005125985 -0.08621562 -0.25276357 -0.008339082 0.23606859 0.17615743 -0.17571205 -0.1378002
0.06454472 0.0037642373 0.26545647 -0.12897608 -0.069977604 -0.26412344 0.22345194 0.094530456
-0.03828552 -0.006093912 1.0528151 0.0012617331 -0.00085520605 0.0014122305 -0.0045675393 -0.00043935532
-1.0840778 -0.48080003 0.0048386618 0.0017341096 0.0010363173 0.003008445 0.0010923137 -0.0039998526
-0.48317787 0.057166636 -0.5235301 -0.011920555 0.0033756394 -0.19066027 0.11622016 0.015497268
0.42943886 -0.2728547 0.012080927 0.018467026 0.06747973 -0.012842701 0.070667036 -0.5011478
0.0008852084 -0.031043846 -0.07706061 0.036292903 -0.05519648 0.019246757 0.10125703 -0.069222905
-0.077552214 0.071541496 -0.119921006 0.01331667 -0.21147543 0.02937162 -0.38854098 0.17995836
-0.0861013 -0.27324212 -0.014188515 0.0011380514 -0.45571223 -0.045149602 -0.02785456 -0.118365206
-0.15463132 -0.21267553 -0.0028891552 -0.10812549 0.023233168 -0.03110482 -0.29528123 -0.21937259
-0.1978106 0.22798896 0.048468117 0.021781592 -0.14692652 -0.06776963 -0.18341196 -0.022702472
0.029679947 0.029389272 0.03139618 0.24091984 0.29639277 0.0113162175 -0.08832338 0.1009721
-0.25862733 0.03769958 0.32926795 -0.044430666 -0.03409422 -0.25148734 -0.015023401 0.09869461

bias f4 [128]
00000000: bb4a b3bf 7d3a b8be 0284 7cb9 452c b6be
00000010: 3e6b 09be 389a 8cbf 8e37 3ebf 057e 2fbf
00000020: 14b0 7fbf e618 c43e 4dea 0ebf afae 5ebf
00000030: 02d1 5dbe 9585 27be fd0c 50bf 3602 263f
00000040: c271 49bf 44df 09be 1a74 62be 9a08 2fbf
00000050: a20c 5ebf 6c10 a1bf 4041 e5be e56e 39bf
00000060: 3415 62bf 6a02 093e 35bb babe 9cfc 25bf
00000070: cb21 2ebf 9735 f7be cf89 38bf 8b2b 2dbf
00000080: 5964 94be 049c 6abc ea57 60bf 067e 393d
00000090: 6082 a5be f4a0 1fbf 8362 63bf 5953 04bf
000000a0: 9643 06bf c21c 7fbf e9d6 a1be 858b e2be
000000b0: 68da a7be 6954 ddbe f4ac 1cbf e732 8ebf
000000c0: 2f20 0dbd a428 08be eb93 31bf 41b9 8fbf
000000d0: 0a97 bcbd 377b 8fbf a39a e2be 3be2 50be
000000e0: 6464 e1bd b69e a8be b33e 85bf 8b5e c3be
000000f0: 606d 3abf b2ab 5dbe e09b 423d cddb a6bf
00000100: 064d 3fbf 4c02 78bf 5edf d8be b8f0 56bf
00000110: a932 2c3e 33c0 06be e16a a8be 1a32 58bf
00000120: cb97 2cbd 7968 5ebf 678f a3be d444 eebb
00000130: 1892 b23e 36e3 c93e 4d8f 79bf a63d fabe
00000140: 6b2a 6fbf 01a9 85bf 7efd b9be 9f23 11be
00000150: 3923 90be fd0e a33e f468 c9bd f7e6 c1be
00000160: c955 cc3e 9fbb 8fbe 4441 1fbf 8c90 eabe
00000170: 7878 38be c3b3 4dbf d414 49bf caf3 20bf
00000180: 5cda 60bf 5af2 f2be 16a8 83bf e0e5 40bf
00000190: ad07 8cbe aeb6 6d3e 0183 48be 7fab 57bf
000001a0: d982 6dbf 4556 29be abba 24bf be98 b4be
000001b0: 41cf fdbe 31f9 913d ccd4 80be 96f9 40be
000001c0: ffa6 20bf 91b8 a3bd 5fda 613e f779 49bf
000001d0: d608 53bf 6aab 5cbe 904c 82be 2553 28be
000001e0: 76de 673f d014 8ebf be2b 56bf 2546 24bf
000001f0: a671 80bf fe05 04be d1de 4bbe 822b 03be
-1.4007181 -0.35982123 -0.0002408177 -0.3558065 -0.13419816 -1.0984564 -0.7430352 -0.68551666
-0.9987805 0.38300246 -0.55826265 -0.86985296 -0.21661761 -0.16359551 -0.8126982 0.64847124
-0.78689206 -0.13464075 -0.22114602 -0.683725 -0.86738026 -1.2583137 -0.44776344 -0.72434837
-0.88313603 0.13379827 -0.36470953 -0.64838576 -0.68020314 -0.48283073 -0.7208528 -0.67644566
-0.2898281 -0.014319424 -0.87634146 0.0452862 -0.3232603 -0.6235497 -0.8882219 -0.5168968
-0.5244688 -0.99653256 -0.31609276 -0.4424707 -0.32783818 -0.43228462 -0.61201406 -1.1109284
-0.03445452 -0.13296753 -0.6936633 -1.122841 -0.09208496 -1.1209477 -0.44258603 -0.203988
-0.11005476 -0.32933587 -1.0409759 -0.38158068 -0.72823143 -0.21647528 0.047511935 -1.3035828
-0.74726903 -0.96878505 -0.42357916 -0.8396106 0.168162 -0.13159256 -0.32894042 -0.8445145
-0.04213695 -0.8687816 -0.31945345 -0.0072713885 0.34877086 0.3943116 -0.97484285 -0.4887516
-0.934241 -1.0442201 -0.36326212 -0.14173745 -0.28151873 0.31847373 -0.09834471 -0.37871525
0.399092 -0.2807283 -0.6220896 -0.45813406 -0.18014705 -0.8035242 -0.78547406 -0.6287199
-0.8783319 -0.47450525 -1.0285671 -0.7535076 -0.27349606 0.23214218 -0.19581224 -0.8424606
-0.9277778 -0.16536815 -0.6434733 -0.35272783 -0.49572185 0.071276076 -0.2516235 -0.1884521
-0.62754816 -0.079941876 0.22055958 -0.7870173 -0.8243536 -0.21549764 -0.25449038 -0.16437967
0.90573823 -1.1100101 -0.83660495 -0.6416953 -1.0034683 -0.12892911 -0.19909216 -0.12809566

weight f4 [128, 128]
00000000: 9b0b 813c 13bb 84bd aa34 0fbe 47d8 ca3d
00000010: f85b f7bc 65f9 cdbc 7b3b b43c 9f4c a5bd
00000020: 5084 0fbc 1fe3 f3bd 9187 b5bd fced febd
00000030: 3a4a 89bc fae6 973d cf88 b93a c88f 52bd
00000040: ea98 043d a08e d53b b62f dd3d 5219 d13c
00000050: c8f6 54bd 454f 9abd 6248 23be 21bf f2bd
00000060: b9ce c2bd 0275 00be 4755 3d3d 6579 2dbc
00000070: 4370 97bd 2e52 84bd 7ab8 23bd f681 8bbd
00000080: 614e ac3b ea38 443d a0f5 3ebd a202 1cbe
00000090: 62ab 8839 d9f1 aabd dfef afbc 010b 26be
000000a0: d60d b7bd d8a8 603d e3c4 42bd 6c65 99bd
000000b0: c46b 40bd 63db 4d3d bf60 1b3d b26a a0bc
000000c0: 7cf0 b2bd 6dcd 7dbd cf6f 75bc caa6 71bd
000000d0: 6bb6 12bd 57ae e4bd 233e bc3c cbc1 763d
000000e0: 8948 e4bc 7ab7 5dbd 3047 e0ba c256 90bd
000000f0: 148f 83bd 5f2a 9e3d 4d15 d03d a1d1 6fbd
00000100: 982b f3bb 0b80 383c 742a 9a3c 2a85 81bd
00000110: 7af5 63bc 0a19 8ebd 01fd c3bc f46c bebd
00000120: b722 89bc 7c59 c7bd 039e 173b e055 4fbd
00000130: c5c7 a1bd b13e ffbd d53f 58bb 9a2f fa3c
00000140: 7a7a ac3c b42f 51bd 75e9 09bd 6f7e 96bd
00000150: 5ae1 a13c 247a c4bd c985 353c fc76 8d3d
00000160: 9847 6bbd e56c 66bc 76ac 723d b8e4 3fbd
00000170: 14d9 0abe b6ff 6e3d 948b 6b3d 3764 8b3b
00000180: c551 443d da66 c0bd 90b4 f1bc 3f65 00bc
00000190: 6268 58bd 9fd2 d2bd 989d 9abd dd2c edbd
000001a0: 225b dbbb 8f3f 0dbe 91a5 a5bc dc0e 733d
000001b0: 0de3 593d 0512 023d d655 40bd a759 6a3d
000001c0: 7d1e c4bd 0b0c 1d3d 70a9 d7bc a0ec b13a
000001d0: 8fee f8bc eec6 bdbb 152a d3bd fda7 09be
000001e0: d073 74bc e51c 74bd 92aa 873c 195b b1bd
000001f0: ce03 f63d ca15 803a 6f39 c5bd eff5 1bbe
00000200: 1fa1 a33e a8ba 563f 2ae7 31bf 4b3f 27be
00000210: f573 b03d 8b72 243f 9cc5 37bf 9d64 553e
00000220: 886e dcbe c09b 9dbe 1ba8 c1be 3f75 b1bd
00000230: a8ea dabf a9a6 d4bd ef21 163f 8f3a 5abe
00000240: 9d74 313f 10b3 503e 3e7f 913f 2f37 01be
00000250: a2f1 e23d 6749 773e 728a b6be 8f1c 073f
00000260: cdfc 9abf 8027 f6be 2e56 5b3e edac 60be
00000270: a208 cd3e 9d58 a4be 3a23 55be e509 05be
00000280: 315a 66be 85ea 6ebe f3df 8cbc de69 8cbf
00000290: 3208 893d cca8 55bc f68f 3ebe eb19 5abe
000002a0: 6bda fd3e eb34 653e 4e6d a1be d725 afbe
000002b0: 2309 813e f5c6 12be c83f a53e e491 2f3f
000002c0: d443 f3be e8ea 393d d677 49be f55d b73e
000002d0: 2021 aa3e 67a4 773f abc3 94bd 8ad5 05be
000002e0: 3a4a 8f3d 2585 423e 5f17 c03e 4e7a 8d3d
000002f0: 6751 94c0 d5aa 3fbd 1a8e 953e df54 42bf
00000300: b47b 0ebf 1ad8 14bd c29e 5abf 7389 fe3e
00000310: 4dca 34be 90c0 1b3e 6bec e63e 7a81 6abd
00000320: a420 a23e f886 f53c a884 093e 2a02 64bf
00000330: 5a11 8bbe 4bfb 003d 4cf4 3f3f d3ee c4be
00000340: cb9d 243e 349a 32bf 9693 813f bafc b73d
00000350: 33e2 1e3d de0b bfbd 7af6 ce3c f6c8 9dbf
00000360: 1223 01be 8dd9 e23d 5399 ecbd 6943 9dbe
00000370: 1aac f2bd 30f2 123e fe80 2bbf 27ac 0ebe
00000380: d288 a63e 07fd 953e 4a5f c63c 1c60 41be
00000390: 3ce3 7a3f 4dae c6be 2d48 2d3d d042 bd3d
000003a0: d1df 09be 3ec2 7dbe a4f6 47bf bdcb 4abe
000003b0: 43e6 a1be 508c 53be 87f4 25bd cd66 05bf
000003c0: b98d dc3e 8802 213d c5f5 ad3e 2678 a53e
000003d0: eae5 78be 5c1e 87bb dfa7 3f3f 4673 ebbe
000003e0: 6891 e7bc dc7d 8e3e 0b47 8e3e efe5 5b3f
000003f0: 6914 473f dcbd 4abd 5e9e c13e 2d1d aabe
0.015752604 -0.06480994 -0.13984933 0.09904533 -0.030195221 -0.025143335 0.022001019 -0.08071255
-0.008759573 -0.11908554 -0.08863748 -0.12447736 -0.016759027 0.07417102 0.0014155152 -0.05140665
0.032372393 0.0065172464 0.10800116 0.025524769 -0.05199316 -0.07534651 -0.1594558 -0.11852861
-0.095120855 -0.12544635 0.046223905 -0.010588025 -0.07394459 -0.06460987 -0.039970852 -0.068118975
0.005258367 0.04790584 -0.046620965 -0.1523538 0.00026067632 -0.0834691 -0.021476684 -0.16215135
-0.08938186 0.054848522 -0.047551047 -0.07490048 -0.046977773 0.05025805 0.03793406 -0.019582126
-0.08737275 -0.061963487 -0.0149802705 -0.058996953 -0.0358185 -0.11166065 0.022978848 0.06024341
-0.027866619 -0.054130055 -0.0017111059 -0.07047798 -0.06423774 0.077229254 0.10160313 -0.058549527
-0.0074209683 0.011260997 0.018819071 -0.06324227 -0.013913507 -0.069383696 -0.023924353 -0.09298125
-0.016740186 -0.09733865 0.0023134954 -0.050619006 -0.07899431 -0.12463129 -0.0032997031 0.030540276
0.021054495 -0.051070884 -0.033669908 -0.07348334 0.019760776 -0.09593609 0.01107926 0.0690746
-0.057441324 -0.014064048 0.059246503 -0.046848983 -0.13559371 0.058349334 0.05750616 0.00425389
0.047929544 -0.093946174 -0.029505044 -0.007836639 -0.052833922 -0.10294079 -0.0754959 -0.115808226
-0.0066942135 -0.13793777 -0.02022055 0.059340343 0.053195048 0.031755466 -0.04695686 0.057214405
-0.09576128 0.038341563 -0.026325911 0.0013574548 -0.030387191 -0.0057915365 -0.10310761 -0.13442989
-0.01492019 -0.05959787 0.016560826 -0.086599536 0.120124444 0.0009772119 -0.09630095 -0.15230535
0.31958863 0.83878565 -0.69493353 -0.16332738 0.08615867 0.6423728 -0.717859 0.20839162
-0.4305308 -0.3078289 -0.37823567 -0.08664941 -1.7102861 -0.103833504 0.5864553 -0.21311401
0.6931856 0.20380807 1.1366956 -0.12618707 0.11081244 0.24149095 -0.356525 0.5277795
-1.2108399 -0.4807701 0.21419594 -0.21940966 0.4004565 -0.32098857 -0.20814219 -0.12992056
-0.22495343 -0.2333165 -0.017196631 -1.0969808 0.06691016 -0.013040733 -0.18609604 -0.2129895
0.49580702 0.22383468 -0.31528705 -0.34208557 0.25202283 -0.14333709 0.32275224 0.68581986
-0.47512686 0.04539004 -0.1967462 0.3581387 0.33228397 0.96735233 -0.07263883 -0.1306974
0.069965795 0.18996103 0.3751783 0.069080934 -4.634937 -0.046793777 0.29209977 -0.75910753
-0.55657506 -0.036338903 -0.85398495 0.4971424 -0.17655297 0.15210176 0.45102248 -0.057252385
0.31665528 0.029971585 0.1342951 -0.890658 -0.27161676 0.03148965 0.7498214 -0.38463458
0.16075818 -0.69766545 1.0123165 0.08983751 0.03878994 -0.09328435 0.025264014 -1.2326953
-0.12611035 0.11076651 -0.11552682 -0.30715492 -0.11849232 0.143502 -0.669937 -0.13932858
0.3252626 0.29294607 0.02421536 -0.18884319 0.9800298 -0.38804856 0.04230516 0.09241259
-0.13464285 -0.24781129 -0.7811072 -0.19804282 -0.31620988 -0.20658994 -0.040516403 -0.52109987
0.43076876 0.039309055 0.3397657 0.32318228 -0.24306455 -0.004123492 0.74865526 -0.45986384
-0.028267577 0.27830398 0.27788576 0.85897726 0.7776552 -0.04949747 0.37816137 -0.33225384

bias f4 [128]
00000000: b4db 0ebc 82ea 1cbf 0504 b1be cecd 9ebd
00000010: 7d28 bfbd 2d66 f0bb 7f01 de3d 5063 273d
00000020: 2b37 1abe 8a25 edbd a0f4 abbe 244c 20be
00000030: 1835 45be e246 6ebb d5ae 2cbd bdb5 13be
00000040: be71 8c3e d5ec efbe c042 f5bd 7185 6cbd
00000050: aaf8 b83e c725 36bf d3ec 9b3e 92df d3bc
00000060: e39d 3bbd 39b2 643b 3fb9 d4be e8d8 9d3c
00000070: 3332 e43c 6a92 25be 50de ad3a 42a3 0d3d
00000080: 0a61 163d 467d 91bd 7e7b ecbe e3b0 273f
00000090: 725c 003e f52d 8b3d 7448 66bf 2c09 02bd
000000a0: 39f3 213e 39fe 51bd 9cd7 03bc e23e b7bd
000000b0: d009 42bf f228 5fbf 16f0 00bc 6364 5b3e
000000c0: 6e1b 4ebd 817a 60bd dbec 31be dc13 4d3e
000000d0: efe3 e53e c058 b93e 9932 08be 3675 7fbd
000000e0: fb85 273d 21b0 08be 04c4 bc3c f54b fabd
000000f0: d2c3 7f3e 8d16 4e3d cda6 d7be cad6 0bbd
00000100: 270e a63e 73fd 513c 8e9d dfbd c01d 363e
00000110: 1c6e 45be 7cff e53e 6b0c 143e 5479 a4bd
00000120: cdc3 cfbd 78ed 6abe bf6c 06bf 37be 0abd
00000130: f1e5 d1bd c21c 97bd a884 2abf dfeb 8abe
00000140: c70c 4fbc 1764 9e3c de42 07bf cabc 34be
00000150: 878d 14bc dccb 0fbe dc95 403c 6fbd d1bd
00000160: 1b8b 923e 84b9 e0be bc1e d93c d947 723d
00000170: f0bc 27bc 8e98 b73e 6e78 9fbe 53e2 06bd
00000180: a781 acbd 6b7d 893e 329c ffbe 7bb5 05be
00000190: 855e 41bf a9fd 63bd 14fa c5bd 0a9a f9bc
000001a0: 7ec1 1f3c f40a 643c 61f7 76bc 345e 96be
000001b0: 9c11 61bf 6fed 0ebd e337 26bd 2672 923e
000001c0: 1b3d 7fbd 0e23 47bd c2a6 fdbd d91d 3ebd
000001d0: 37f6 373d a13d 12bf 7d50 cebd b20d 93bc
000001e0: 794b b5bd b187 87bd 908c 98bd dccf 21bd
000001f0: 45ec e8be f48a 933c 7837 47bf 254d cdbd
-0.0087193735 -0.6129533 -0.3457338 -0.07754098 -0.093338944 -0.007336399 0.10840129 0.040866196
-0.15060107 -0.11579426 -0.33585072 -0.15654045 -0.19258535 -0.0036358167 -0.04215892 -0.14424796
0.27430528 -0.46860376 -0.11975622 -0.057744447 0.36127216 -0.71151394 0.3045412 -0.025863443
-0.04580487 0.0034896268 -0.41547582 0.019268468 0.027855968 -0.16169134 0.0013265107 0.034579523
0.036713637 -0.07103972 -0.46187967 0.6550428 0.12535265 0.06795875 -0.89954305 -0.03174703
0.15815438 -0.051267836 -0.008047011 -0.08947541 -0.7579622 -0.8717185 -0.007869741 0.21425013
-0.050319128 -0.05480433 -0.1737551 0.20027107 0.44900462 0.36200523 -0.13300551 -0.06236764
0.040899258 -0.13348438 0.023042686 -0.12221519 0.24977043 0.050314475 -0.42119446 -0.034140386
0.32432672 0.012816775 -0.10918723 0.17784786 -0.19280285 0.44921482 0.14457862 -0.08030954
-0.10144768 -0.2294215 -0.52509683 -0.03387281 -0.10248936 -0.07378532 -0.6660867 -0.2713308
-0.012637324 0.019334836 -0.52836406 -0.17650142 -0.009066946 -0.1404261 0.011754479 -0.1024121
0.28621754 -0.43891537 0.026503913 0.05915055 -0.010237917 0.35858577 -0.31146568 -0.032930683
-0.08423167 0.268535 -0.49923855 -0.1305751 -0.7553485 -0.05566183 -0.09666839 -0.03046896
0.009750722 0.013918627 -0.015073628 -0.29368746 -0.87917495 -0.034894403 -0.04058064 0.28602713
-0.062314134 -0.048617415 -0.12385322 -0.046415184 0.044912543 -0.5712529 -0.10073946 -0.017950866
-0.08852286 -0.06617678 -0.07448685 -0.03950487 -0.4549276 0.018010594 -0.77819014 -0.1002448

weight f4 [1, 128]
00000000: c8c6 5f3c 282e 2fbd a456 a93d 3d47 9ebd
00000010: fdc2 5a3b fdfb e839 4a02 783d 821f e83b
00000020: 1788 d33c 1ffd ef3b 4758 cf3d c2b1 b3bc
00000030: cb74 043d ddc1 93bc 9e5c 0a3c 689f 4ebc
00000040: ac7f 233d 6310 203e 8967 2cbc 23c1 f0bc
00000050: 1e60 6cbd 0d8f 33bd 10b5 c2bc 741a 0f3b
00000060: 1d78 883b 4ab2 0ebc 59b7 00bd d859 503a
00000070: 7dd2 a53c add1 213d b796 84bc ae91 92bc
00000080: 4d16 853d 5c46 ccbb 1f7f 36be cdba 14be
00000090: 5af1 95bc 98d4 0abe 68f1 323d a03d 1a3b
000000a0: 3ddb bc3c 96cb 4d3b 6b5a 113b c8b6 b4bc
000000b0: 8229 7fbd d908 37bd 98f4 03bc 3f56 ed3d
000000c0: 0aa0 d83c f2b7 2f3c 091e 833d 8459 f43c
000000d0: 471a 06bd f446 6dbd f9d4 ba3c 424c acbc
000000e0: 1007 4d3c 4a82 a53c 5b22 83bc f09b 14bc
000000f0: feec c13d f936 1cbb 95e7 6f3d 03e8 01bc
00000100: 546c e8bd c261 463b 70cf 37bc 2514 cdbd
00000110: 4605 bdbd ac46 6fbd b289 8dbc ec59 e7bc
00000120: b668 cf3c c25e 983d 82de aebd 2d92 723d
00000130: 27a9 87bc 351f 13bd bdae 243d e76f e1bd
00000140: 6afa 1a3c eccf 9c3b e719 143d f08c 31bc
00000150: 62aa b2bc 709f 203c 3d44 ee3a a4ce edbb
00000160: d558 5cbd 4bde 7abd bb23 303d 38a4 2bbc
00000170: 0987 b5bc 6681 8bbd ca83 b2bc aa81 4bbc
00000180: 8a06 64bd 8246 b4bc 0305 2b3d abb5 3dbc
00000190: e7c8 6bbd dd3a 7ebc 57cb 09be c688 f93b
000001a0: 9176 2fbb 99bf 7f3b 94a7 fc3c 211c 80bd
000001b0: bd0a 3c3d 865e df3c 218c fc3b 8f95 b5bc
000001c0: fe8a 913c d630 093b f35f 4fbc f9de 483b
000001d0: a7df 023d f48e 4c3d 37e5 873b 760f 5d3b
000001e0: 1d5f 8b3b c2c7 9a3c 9658 753a e287 d4b7
000001f0: 580f 57bd ff79 c539 ab39 27bd 4118 98bb
0.013658233 -0.042768627 0.082684785 -0.077284314 0.0033380382 0.00044438234 0.060549058 0.007083834
0.025821729 0.0073238756 0.101242594 -0.021935347 0.032337945 -0.018036777 0.008444933 -0.012611248
0.03991668 0.15631251 -0.010522732 -0.02938897 -0.057708852 -0.043837596 -0.023767978 0.0021835836
0.0041647092 -0.0087095 -0.031424854 0.0007947958 0.02024197 0.039506603 -0.016185148 -0.017891731
0.06498394 -0.0062339734 -0.1782193 -0.14524384 -0.018303562 -0.1355766 0.043687254 0.0023535267
0.02305376 0.0031401864 0.0022179137 -0.022059813 -0.062295444 -0.044686172 -0.008053921 0.11588716
0.0264435 0.010725008 0.06402213 0.02982784 -0.032739904 -0.057928994 0.022806631 -0.021032456
0.012513891 0.020203728 -0.016007593 -0.0090703815 0.09469031 -0.0023836477 0.058570463 -0.007928851
-0.11348787 0.003027067 -0.011218891 -0.10013608 -0.092295215 -0.058417007 -0.017277572 -0.02824112
0.025318485 0.074399486 -0.08538534 0.059221435 -0.01656015 -0.035918433 0.040205706 -0.11007672
0.009459117 0.0047855284 0.036157515 -0.010836825 -0.02180976 0.009803638 0.0018178296 -0.0072572995
-0.053795654 -0.06124715 0.043002825 -0.0104761645 -0.022159116 -0.0681179 -0.021791358 -0.012421051
-0.0556703 -0.022006277 0.041752826 -0.011578958 -0.057564642 -0.015516964 -0.13456474 0.0076151816
-0.0026773552 0.0039024113 0.030841626 -0.06255365 0.04590868 0.027266752 0.0077071344 -0.022166042
0.017766472 0.002093365 -0.012657153 0.003065048 0.031951573 0.04994102 0.0041471976 0.003373114
0.0042532817 0.01889408 0.00093592086 -2.5335645e-05 -0.052504867 0.00037665662 -0.04082648 -0.004641563
