Dat/Nova pasta/models/CMA_model_scripted.pt (torch, 82036 bytes, 5 tensors)

weight f4 [128, 8]
00000000: 2fd0 4ebc b0d9 3e3d 9c72 d33c 0f4a e5ba
00000010: 58b7 68bc 0d98 313c 8f19 9a3c 3c57 c03c
00000020: 0351 203f fecc 9c3e e375 4a3f 6c50 15bc
00000030: 6b0e a6bb 8896 de3c 4baf b1bc bd0b 2abb
00000040: 0264 47bd bdd4 bd3c b35f 50be 2caf 7f3c
00000050: f597 6e3d 22ef 16be d9af 903d eeac bb3d
00000060: abd6 703f fb7f c33f e08e a23c 85b1 ba3a
00000070: 1844 163c 6076 2ab9 dd8a 16bb 99fd 183c
00000080: ad26 3340 e95f 24bd 1d09 9c3d c681 bcbb
00000090: f58d 933b 0bc7 d0bb b618 513c 00c6 90b9
000000a0: 45e9 8f3d d653 97be 6e0c 80be a89d 90bd
000000b0: ed4b 363e de00 ccbd 331c 3cbe 6d5e 993d
000000c0: 3a3b fb3d d833 e4bd fea8 acbc 5e54 3a3d
000000d0: 3267 fdbc 27c7 053d 17e8 94be 3a99 d93c
000000e0: 5f23 d23f c596 423f f488 b53d 4fbc e7ba
000000f0: ddcf 85ba ed1d 3c3b 5e8f 1ebc 9a3c 553c
00000100: 2d18 e93d 33b7 bbbc 08b8 2c3e 3eb6 193e
00000110: 95d9 1f3c a421 db3d bef5 943e 0c1d 803e
00000120: d539 023d 4740 bc3b 4138 95ba 9a1f 813c
00000130: 9566 d6b9 6003 66bc 1ce6 0abc 3418 72ba
00000140: 5746 093f a0ed ed3e 0645 eabc 31a4 763c
00000150: 8e16 153f 6c02 cebd 8183 21bd 3c3b c4bd
00000160: 7f70 8fbf 7cd8 ebbe 5b67 2c3e 1bc4 38bc
00000170: 3d4e 48bc d8ab 07bc 5091 d4ba 98d1 b73b
00000180: 8d9d 793f 62b6 65bf 2195 c33d 0e3c 2f3b
00000190: 1779 89bb a3c9 ffbb 3976 033c 9319 e13a
000001a0: 3bba 5bbd 7f96 bebc 1e5a 9e3c 914d 063d
000001b0: 5446 afbb 555d bc3b a54f bfbb dc4a bebc
000001c0: 4326 663c 5008 16bd fc74 8cbf 3db4 c13b
000001d0: e1a3 133c 0c29 653c e3a1 943a 4243 2bbb
000001e0: 1da2 9cbf d2b0 6a3f 1d4f dd3c 9ac7 a8ba
000001f0: d468 b2bb cf11 89bb d42a 39ba e4fe f0ba
00000200: b622 e8be 258b c53f a1f2 c73c 610c 803b
00000210: 6516 073b 31f8 20bc d872 b43b 8ec7 b93b
00000220: 2920 a33e 1eb7 9e3d a293 1c3d 9e39 20bd
00000230: f317 2d3e dee6 90bc 10d7 c1bc 2660 3e3d
00000240: 817f 463c ef85 ea3f ee98 8d3d 195f 20bb
00000250: 5d12 0b3c 3e7d 8abc e679 773b c05f e339
00000260: 8abc 45bf a6b6 e33d a368 a83e 7407 80bd
00000270: 7f0a 25bd f20b 8ebd 22f1 0a3e 4b45 813d
00000280: 61b0 5f3e 955e bdbf 1c6d 36bb fc7d e0b9
00000290: bd2e 023c 08c8 39bc 84b6 213c 66ff df3b
000002a0: c6f4 be3e bde4 0f3f 8d68 17bd 2b72 26bc
000002b0: 6656 f8bd 6edc 75bd 1e15 09be ba9f 523f
000002c0: bcc4 d2be 5dcd 933e 0132 15ba 53ea 9d3b
000002d0: a2c9 8dbd 6d77 c6bc 6361 80bd 1869 dd3e
000002e0: d8af 87bd a467 9e3d 9c33 4d3d f2b7 b4bd
000002f0: 249f a2ba 312f 1abd 3c44 1fbe 0a90 323f
00000300: 2723 823c 0014 8a3f 9d63 b13e fc15 29bc
00000310: b923 833c ef98 883b cedb edbb da0b 40bc
00000320: 7532 73ba 7605 5d3a 428a 8dbf f92c a3bb
00000330: 9366 46bb 4709 f8ba 2da3 e2bb 0678 253b
00000340: 8f7a bb3e 347a 193e 1a97 183f a657 0dbe
00000350: 8223 5abe 1720 9a3d d810 c03b d1cb afbd
00000360: 74f5 96bd 378a 6f3d ae8d 10be f203 f139
00000370: 11d0 d23d 1326 1c3e 6e3d 5dbc 288d 06bf
00000380: 2467 823e f17b d43b c97b 313f 889a ff3b
00000390: 3e26 b8bc 80df 8abc 0006 973d 932e 8dbd
000003a0: 28e5 32bf f25a 75bf b8b0 a7ba d550 14bb
000003b0: f9df 70bb 538a 163b c290 e1bb 21f7 57ba
000003c0: b333 f1be 1db6 dcbe 171f c6be 6795 e13c
000003d0: 609f 78bd e8d1 243d c4f5 083e 75eb c8bd
000003e0: c8b5 44bf a62d da3e 66cb f2bb 7c24 a7bb
000003f0: e2a8 f23d b145 2cbf 7f14 c53d da9a 3e3d
-0.012622877 0.04659432 0.025811486 -0.0017493385 -0.014203869 0.010839474 0.018811015 0.023479097
0.62623614 0.30625147 0.7908613 -0.009113412 -0.0050676367 0.027171388 -0.021690032 -0.0025946938
-0.04867936 0.02317273 -0.20349006 0.015605729 0.058250386 -0.1473966 0.0706479 0.09163843
0.9407756 1.5273432 0.019843519 0.0014243579 0.009171508 -0.00016256562 -0.0022970953 0.009337806
2.7992356 -0.04013053 0.07618926 -0.005752775 0.0045030066 -0.006371384 0.012762239 -0.00027613342
0.070269145 -0.2955615 -0.25009483 -0.070613205 0.17802401 -0.09961103 -0.18370132 0.074887134
0.12267156 -0.11142701 -0.021076676 0.045490615 -0.030932996 0.03266063 -0.2908332 0.026562322
1.6417044 0.76011306 0.08864012 -0.0017680022 -0.0010209043 0.002870436 -0.009677736 0.013014937
0.11381564 -0.022914505 0.16867077 0.15010926 0.009756465 0.10699776 0.29093736 0.2502216
0.031793434 0.005744967 -0.0011384563 0.01576214 -0.0004089369 -0.014038891 -0.008477714 -0.0009235174
0.53622955 0.46470356 -0.028597366 0.015053795 0.5823754 -0.10059056 -0.039432053 -0.095816106
-1.1206206 -0.46063602 0.16836302 -0.011277224 -0.012225685 -0.008280717 -0.0016217623 0.0056097023
0.9750603 -0.8973142 0.095499285 0.0026738676 -0.0041953432 -0.0078060194 0.008023792 0.0017173759
-0.0536444 -0.023265122 0.01933008 0.032788817 -0.00534896 0.0057484307 -0.005838352 -0.023229055
0.014047208 -0.03662902 -1.0973201 0.0059113787 0.00901124 0.013986837 0.001133975 -0.0026132618
-1.2236973 0.91676056 0.027015263 -0.0012876869 -0.0054446254 -0.004183031 -0.0007063572 -0.001838651
-0.45338982 1.5433089 0.024407687 0.0039077257 0.0020612713 -0.009824798 0.0055068545 0.0056695407
0.31860474 0.077497706 0.03822673 -0.039117448 0.16903667 -0.017688211 -0.02366212 0.046478413
0.01211536 1.8322123 0.06913935 -0.0024470745 0.008488265 -0.016905423 0.0037761866 0.00043368153
-0.7724081 0.11118822 0.3289233 -0.062514216 -0.040293213 -0.06935872 0.13568547 0.06312045
0.21844627 -1.4794489 -0.002783603 -0.00042818475 0.007945714 -0.011339195 0.009870175 0.006835866
0.37296122 0.562084 -0.03696494 -0.010159056 -0.12125854 -0.06002467 -0.13386962 0.82274973
-0.4116572 0.28867617 -0.000569135 0.0048191934 -0.06923224 -0.024226869 -0.06268575 0.43244243
-0.066253364 0.07734612 0.050098047 -0.08824147 -0.0012407047 -0.03764266 -0.15553373 0.69751036
0.015885903 1.0787354 0.3464631 -0.010320183 0.016008245 0.0041686217 -0.007258869 -0.011721576
-0.0009277233 0.00084312947 -1.1057818 -0.0049797264 -0.0030273541 -0.0018923663 -0.0069164247 0.0025248541
0.36616942 0.14988023 0.5960556 -0.13802966 -0.21302608 0.07525652 0.005861383 -0.08583797
-0.07371035 0.05848142 -0.14116547 0.00045970042 0.10293592 0.15248899 -0.0135034155 -0.5255914
0.25469315 0.0064845015 0.69329506 0.007800404 -0.022479173 -0.016952276 0.07374191 -0.06893649
-0.69880915 -0.95841897 -0.0012793755 -0.0022631187 -0.0036754592 0.0022970631 -0.0068837116 -0.0008238424
-0.47109756 -0.4310769 -0.38695595 0.02753706 -0.060698867 0.040239245 0.13375002 -0.09810535
-0.76839876 0.42612952 -0.007409501 -0.005100785 0.11848618 -0.6729384 0.0962305 0.046534397

bias f4 [128]
00000000: a0f0 57be feea 18bf 5ab8 053e 2079 383d
00000010: c2cb 5dbe c8d8 d9be 5111 e1bd 836b c8bd
00000020: d189 39bf 37b6 f3bd 915c 5cbd 5959 10be
00000030: 34e0 c83e b1c6 69be abb6 22bf 560a 153f
00000040: 28de 65bf 8675 0f3f 4793 acbf 9693 6bbf
00000050: 84a7 fdbf 89db afbf 16a4 bfbc c58c 87bf
00000060: fea5 243f 2496 b33e 0882 7bbf 2304 2cbf
00000070: 9a33 2cbf 419d 50bc 5a67 ebbe 09e2 6cbe
00000080: 668e 1fbe 9f46 d2bc 45c8 68bf 8b52 0bbf
00000090: 7fb8 b6be 11b8 5dbf 482d 8dbe 516b 49be
000000a0: a873 2a3f bc54 2cbf f8ed f3be b93a 283e
000000b0: d172 0fbe ee70 2fbe fad1 45bf 1bfa cabe
000000c0: 447c bb3e 6c98 b5be 5c0c 6bbf 3fc0 bcbe
000000d0: b47c aebf 1ba6 79be d274 6bbf 8bf5 74bf
000000e0: e3dc 2fbf ad8d 393f 7b12 32bf d42a 86bf
000000f0: 76b0 83bf fa63 713f 6578 d8be a4ca dc3e
00000100: 48bf 8ebf 45fd 71bb 9970 7dbd d580 5cbf
00000110: 22c1 c63e 6eb2 51bf aa6c 36bf c1d0 3e3e
00000120: 2e10 8dbe 95d8 c3bf 0057 93bf f098 723e
00000130: 2dfb 95bf 47e6 4dbf 0eae abbf 9c7a 00bf
00000140: dc45 ccbe 79b9 46bf 15bd 67bf 8936 1abf
00000150: d97a 5ebf 470a 80be 0932 04be 8a8c 13bf
00000160: 683d 0ebf 50cf 61bf b5b5 adbd a6ed 0dbf
00000170: cd05 17bd 70d3 5ebe 36ca c0bd 8354 a0bf
00000180: 859a dfbf 5860 a43f bd67 0dbe 4db2 b9be
00000190: 5cf7 163e 801c 2dbf 6deb d5be 0040 f0be
000001a0: c359 053f a5c8 96bf 5be9 06be 7682 75be
000001b0: 8c50 c2bf 813a 69bd 2313 9bbe fa5f 0abf
000001c0: d259 dabd 0ea2 3bbf 6885 33bf 5fdf 13bf
000001d0: f33e 11c0 6cc9 fabe 76a6 04bf 43d1 31bf
000001e0: dfca 223f cec7 82bf fe0e f6be 6691 38bf
000001f0: e88f 82bf 7995 a03d d668 bebd 47c0 89bf
-0.21087885 -0.5973357 0.13058606 0.04503739 -0.21659759 -0.42548203 -0.10989631 -0.09786131
-0.72475916 -0.11899989 -0.053799216 -0.14096583 0.39233553 -0.22829701 -0.6355998 0.58218896
-0.8979211 0.560387 -1.3482445 -0.92022073 -1.9816747 -1.3738872 -0.023393672 -1.0589834
0.64315784 0.35075486 -0.98245287 -0.6719381 -0.6726624 -0.012732805 -0.45977288 -0.231331
-0.15581664 -0.02566844 -0.9093059 -0.54422826 -0.35687634 -0.8660899 -0.2757361 -0.19669844
0.6658273 -0.67316794 -0.47642493 0.16428651 -0.14008643 -0.17132923 -0.77273524 -0.3964394
0.36618245 -0.3546785 -0.91815734 -0.36865422 -1.3631806 -0.2437977 -0.9197513 -0.9568717
-0.6869642 0.72481805 -0.6955945 -1.048182 -1.0288227 0.9429318 -0.42279354 0.43123353
-1.1152124 -0.0036924642 -0.06187496 -0.8613408 0.38819224 -0.8191289 -0.7125956 0.18634321
-0.27551407 -1.530047 -1.1510925 0.23691154 -1.1717278 -0.804295 -1.3412492 -0.5018709
-0.39897048 -0.7762676 -0.9052289 -0.60239464 -0.869062 -0.2500784 -0.12909712 -0.5763632
-0.5556245 -0.8820696 -0.084819235 -0.5544075 -0.036870766 -0.21760345 -0.09413569 -1.2525791
-1.7469031 1.2841902 -0.13809104 -0.36268845 0.14742798 -0.6762161 -0.41781178 -0.46923828
0.5209009 -1.1779982 -0.13174956 -0.23975548 -1.5180831 -0.05694056 -0.30288038 -0.540527
-0.10661663 -0.7329415 -0.70125437 -0.5776271 -2.269467 -0.48981798 -0.518165 -0.69459933
0.63590807 -1.0217226 -0.48058313 -0.7209686 -1.0200167 0.0784101 -0.092973396 -1.0761803

weight f4 [128, 128]
00000000: 6fac 85bd fc0f b73e de93 863e f2e3 5bbc
00000010: 6c18 57bf 2b0a be3c 10ec 303f ef93 8d3e
00000020: 34bc 06bf b5b1 843c 0b3b 6fbf e5b1 893d
00000030: f9c1 c93d 8897 3b3c 2c74 dfbe 0af3 563e
00000040: b0c9 a3be dec2 273f e955 703f f915 713f
00000050: 5d7b edbe 76a5 e93e db01 79bf a677 b63d
00000060: 6fe2 8dbe 34f3 98bd 1d16 60c0 e922 263f
00000070: c5ca 0f3e 4cc1 24be 792a 9d3e 78ab cebe
00000080: 52b1 8b3e 4574 9f3e 54ae dcbf 6f0e 1bbf
00000090: fe41 213e 221f 76bf 5599 e3bf 6d2b 3abd
000000a0: 35b8 393f 6290 343f 6660 593d 3868 8bbd
000000b0: 17bd 643e 4918 0c3e 897b 46be 1c2e d2be
000000c0: 9dad c53b d0fb b33f 58e6 d1be 1ee6 2ec0
000000d0: 8961 3e3e cb76 42bf 75a2 953e 7c80 a73f
000000e0: 7227 d9bd 5e08 b83e 28f7 f7bd dcfa 293f
000000f0: 8265 84be 24ad 683e 92f4 83be 5ce8 7ebe
00000100: 642b 82bf e014 ccbe de06 48be b4f3 6c3e
00000110: 0ed9 cebd a16a 593e 8119 dabd fbdb 21bd
00000120: e3a1 10bd 3912 d2bd 9eb5 dbbf 5bc5 9ebc
00000130: 6b10 353d 9281 7bbe 255a 5e3f ad96 9e3d
00000140: 7864 8cbe 3256 9b3c d039 4ebf 4fcd 6dbc
00000150: 2a98 cebe 59e5 0bbf 1c23 dabc 2a4c c2bc
00000160: 2881 5f3f c35e afbf 8e61 57be 2554 4cbf
00000170: 9b78 113e a602 2bbf d304 0b3f c882 18be
00000180: cdcf b6be 8196 fc3e 2dd0 b8be 753c 023f
00000190: 1650 7bbf 8d73 c7be dc3d cebe 2ade 423d
000001a0: 560f 583e 0c15 b13e f699 223e cb51 b53e
000001b0: 9abb 273f be86 75be c03a f43e d48c 053f
000001c0: 499d 3d3e 9565 783f e4be 10bf 6cda ccbf
000001d0: e111 c8bf 843a 4bbd 9895 8f3e db17 5d3f
000001e0: 1b6b de3e 65cd bfbe a2a1 35bf aaf5 bbbf
000001f0: cda1 a4bf 7fd8 2fbe f98e 24bf 4275 4ebd
00000200: 062f d4bd 249f a53b 245a 1b3d 4684 283d
00000210: c806 7fbc cf35 dbbc 64f5 f3bd 79cd dabd
00000220: 21f6 a5bd 5d8c c7bc f68e 08bd 0aa0 27bd
00000230: 4a51 383d b8ee cbbc 1f42 be3c 2ba5 1a3d
00000240: 9dd0 58bd b694 b1bd c95d 313d f983 513d
00000250: 8edc 8e3c d475 1e3d d425 ecbd 541a 5dbd
00000260: 8da6 aabd ca7a a8bc 24bd 09bd 2f25 25bd
00000270: ada8 fabd 813a ab3b 7ad8 39bd 4a68 9a3d
00000280: 1f67 9abd f0b6 d9bd 5383 b9bd 1486 c2bc
00000290: 09d6 25bd e6df 9dbd b6f6 263d c0c9 33bc
000002a0: a897 343c bf33 363d ba25 4f3d b833 b0bd
000002b0: a448 88bd 5dfa 2c3d 3ac4 5cbd 5985 2fbd
000002c0: df90 8fbd e065 25bd 50c6 16bd 22af 3e3d
000002d0: 4e95 9b3b 4d17 8c3c 6984 34bc 3613 853d
000002e0: 3b05 873d 9d0d 32bd 29f5 943d 0f20 01bd
000002f0: abd0 67bd 7651 78bd 5003 f8bb 3a7f ccbd
00000300: 1bb1 03bd 65b7 403c 9b53 203d 7b6e e6bd
00000310: ef90 253d f9db babd c6de bfbc 5aab ac3c
00000320: 988d 18bc 1cfe 82bd 51c4 323c ed62 943c
00000330: d2ed 44bd 63bf 9cbd e01c dd3c 33dc c6bd
00000340: afb7 913d dc72 02bd e5fb a33b 4245 8abd
00000350: 7ae8 7abd 6d02 e73c e2ca 1fbd d7db b4bd
00000360: 49ca 6dbd b68e 463d f782 37bd 8e17 48bd
00000370: b54a 92bd 3880 b8bc 6b1d a8bd 27db 113d
00000380: b69f c5bd 1263 9cbd 5646 e8bb 5e3b 8abd
00000390: 41ae fd3c 4330 8ebd 7b07 76bd 8b65 5cbc
000003a0: d523 31bd 00b6 b6bd 9cca c7bd b3ac 51bc
000003b0: 1ce4 0a3d 3172 ccbd 013f cfbc 3982 6d3d
000003c0: c374 96bd 0ef9 0f3d 0f8f 20ba 870e d7b9
000003d0: baeb 84bd e69f 293d 28be 2d3d 2ade 08bd
000003e0: e566 03be 2ab0 b2bd aa18 a0bc f901 77bc
000003f0: 39bc e0bc 8ec5 a5bc 5bc2 a9bd e99b 19bd
-0.0652703 0.35754383 0.2628469 -0.013421046 -0.8402164 0.023198208 0.691102 0.27651927
-0.52630925 0.016198019 -0.9344947 0.06723384 0.098514505 0.011449702 -0.4364332 0.2099115
-0.31989813 0.6553172 0.9388109 0.9417415 -0.4638318 0.4563405 -0.97268456 0.0890954
-0.27711818 -0.07468262 -3.5013497 0.6489702 0.14042194 -0.16089362 0.30696467 -0.40365195
0.27283722 0.31143394 -1.7240701 -0.605689 0.1574783 -0.96141255 -1.7781168 -0.04545157
0.725467 0.7053281 0.05307045 -0.068069875 0.22337757 0.13681139 -0.19383062 -0.41050804
0.006032659 1.4061222 -0.4099605 -2.7327952 0.18591894 -0.75962514 0.29225507 1.3086085
-0.10603227 0.35943884 -0.12107688 0.66398406 -0.25858694 0.22722298 -0.2577253 -0.24893326
-1.0169492 -0.39859676 -0.1953387 0.2313984 -0.10099994 0.21232082 -0.10649396 -0.03951643
-0.035310637 -0.10257382 -1.71648 -0.019381216 0.04420511 -0.24561146 0.868563 0.07743583
-0.27420402 0.018962 -0.80556965 -0.014514281 -0.40350467 -0.5464683 -0.02662807 -0.023717958
0.8730645 -1.3700794 -0.21033308 -0.79815894 0.14206164 -0.66800916 0.54304236 -0.14893639
-0.35705414 0.49333575 -0.36096326 0.508735 -0.98169076 -0.38955346 -0.4028157 0.047575153
0.210996 0.3458637 0.15879044 0.35413966 0.6552063 -0.23977181 0.47701073 0.5216801
0.18517031 0.9703 -0.56541276 -1.6004157 -1.5630456 -0.04961635 0.28043818 0.86364526
0.4344109 -0.3746139 -0.7094976 -1.4684346 -1.2861878 -0.1717243 -0.6428066 -0.050404795
-0.103605315 0.0050543714 0.03792776 0.04114177 -0.015565582 -0.026759056 -0.11912039 -0.10683722
-0.08103586 -0.024358923 -0.033339463 -0.04092411 0.0449994 -0.024894103 0.023224888 0.037755173
-0.052933324 -0.086709425 0.04330233 0.05115125 0.017439153 0.03868659 -0.11530653 -0.053980187
-0.08332548 -0.020566363 -0.033627644 -0.040318664 -0.122392036 0.00522548 -0.045372464 0.07539423
-0.075392 -0.10630596 -0.09058251 -0.023745574 -0.040487323 -0.07708721 0.040762626 -0.010973394
0.011022486 0.044482943 0.05057309 -0.086036146 -0.0665448 0.042230953 -0.053898074 -0.04285178
-0.07010054 -0.04038036 -0.03681022 0.04655374 0.004748023 0.017100954 -0.011017897 0.06497805
0.065927945 -0.043470014 0.07273323 -0.031524714 -0.056595486 -0.060624562 -0.0075687543 -0.09985204
-0.032151323 0.011762475 0.039142232 -0.11251541 0.040421423 -0.09123988 -0.023421656 0.0210778
-0.009311102 -0.06396124 0.010911063 0.018113578 -0.048078366 -0.076536916 0.026991308 -0.097099684
0.07115113 -0.03184782 0.0050043934 -0.06751491 -0.061256863 0.028199399 -0.039011844 -0.088309936
-0.058054242 0.048475944 -0.044802632 -0.04885059 -0.071431555 -0.022522077 -0.08208736 0.03560939
-0.09649603 -0.07636084 -0.007088463 -0.06749605 0.03096688 -0.06942799 -0.060065728 -0.013451944
-0.043247063 -0.089214325 -0.097554415 -0.012797522 0.03390895 -0.09982718 -0.025298597 0.057985518
-0.07346489 0.035149626 -0.0006124833 -0.0004101882 -0.06490274 0.041412257 0.042417675 -0.033414997
-0.1283222 -0.08725007 -0.01954301 -0.015076154 -0.027433502 -0.020235803 -0.082890235 -0.037502203

bias f4 [128]
00000000: 8d28 563f e443 5dbd abb7 d13e 87db 64bc
00000010: 3412 f73c 58a8 0bbf c896 463e 4b3b 42bf
00000020: 19e2 c33d 67eb 60be d751 173f 4af4 35be
00000030: 672f 59bd 55d9 d4be 058b 73bf e341 40bd
00000040: 7b90 1fbe 4207 45bc e5c1 093f 1cd4 e3bd
00000050: 8519 a7bd d5ac c9be 6d6e 963d 2a77 f8be
00000060: 12e0 a4be bf96 e6be 59ac 72bb 9a20 bbbe
00000070: be67 e1bd 29cc f7be c906 dbbd 30be 08be
00000080: a207 a6bd 5372 b93e 9477 a5bf bdbd 38bf
00000090: 92d8 4d3f 3f94 8abd 6fd4 8cbe 5513 c6bd
000000a0: 4868 5dbd 57c1 a03c 371b 22bd 4c47 66be
000000b0: e35e f1bd dffa adbc b7af ac3e 6643 eebd
000000c0: b261 7a3c fa9a 163d f118 123e 4ee9 1f3f
000000d0: 4142 17bd 895f f8be 1cb5 5cbd 2934 55be
000000e0: db00 f9be 6982 5ebf 1dc1 0abf 13f0 de3e
000000f0: 889e d8bd e96e 52bc eb0c 1d3f 9a9c 343e
00000100: 6039 023d db2b b6bc 91d9 6cbf c6fc 343e
00000110: e852 7b3c c3a9 f4bd dc8b 04bf 37ff 29bf
00000120: 8625 fabe e87b dcbd eddc 373f f77e 3fbd
00000130: aa4f cfbe 8103 c3bd bf92 febd a192 3a3c
00000140: fbb6 33be e740 55bf 4fa0 5ebe a517 0e3f
00000150: 6b61 38bd 3602 1bbe 0d00 04bf 3717 60be
00000160: 43c6 2d3f e5b7 2f3e b982 c1bd 4817 e03e
00000170: ec0b 03be 8375 a1be 85c7 a9be dc58 a4be
00000180: eacc f5be 1730 30bd 300b 59bf c169 b7be
00000190: fdec 73bd 9587 a43d f25e 7ebc 224d 89bd
000001a0: a30c 8cbe 2e3c be3e 3e05 bbbd a9be 893d
000001b0: e149 31bd ffd2 013f 8757 6bbf 7d27 003f
000001c0: fbcb 6fbf 441f 003f 2e7d 2dbd b517 32bd
000001d0: 6867 ccbe 3f29 21be e22b 26be 6d06 38bf
000001e0: 5b80 c2bd 2235 ba3d 3b24 13bd a6b4 72bd
000001f0: af8b 2e3e 7d56 cdbd 1cd2 173e 868a 3b3e
0.83655626 -0.054019824 0.4096044 -0.013968355 0.030160047 -0.5455375 0.19393456 -0.75871724
0.09564609 -0.21964799 0.5910925 -0.1776897 -0.053023722 -0.4157206 -0.95134 -0.046937834
-0.15582459 -0.012025656 0.53811485 -0.11124441 -0.08159164 -0.39389673 0.07345281 -0.48528415
-0.32202202 -0.45036885 -0.0037028997 -0.3654831 -0.110061154 -0.4839795 -0.106946535 -0.13353801
-0.081069246 0.36220035 -1.2927117 -0.7216452 0.80408585 -0.06766557 -0.27505824 -0.09671656
-0.05405453 0.019623442 -0.039576735 -0.22488135 -0.11785676 -0.021237789 0.3372781 -0.11633949
0.015282081 0.03676889 0.14267327 0.6246537 -0.03692842 -0.48510388 -0.053883657 -0.20820679
-0.48633465 -0.8691774 -0.5420092 0.43542537 -0.105771124 -0.012843826 0.61347836 0.17637864
0.031793 -0.022237709 -0.9251948 0.1767455 0.015339591 -0.11946442 -0.5177591 -0.6640505
-0.48856753 -0.10765821 0.7182148 -0.046751942 -0.40490466 -0.09522153 -0.12430333 0.011387498
-0.1755027 -0.8330216 -0.2174084 0.5550483 -0.04501478 -0.15137562 -0.5156258 -0.21883856
0.6788065 0.17159994 -0.094487615 0.43767762 -0.12797517 -0.31534967 -0.33160034 -0.32099044
-0.480079 -0.043014612 -0.84782696 -0.3582287 -0.05955218 0.08033673 -0.015525566 -0.06704165
-0.2735339 0.37155288 -0.09131859 0.06725819 -0.043283347 0.5071258 -0.9193043 0.50060254
-0.93670624 0.5004771 -0.04235571 -0.04347964 -0.39922643 -0.1573839 -0.16227677 -0.71884805
-0.09497138 0.090921655 -0.035923224 -0.05925431 0.17045473 -0.10026262 0.14826244 0.18314561

weight f4 [1, 128]
00000000: 60ef 5c3d 33c8 33bd 09ed b6be ec4c e33c
00000010: 24e7 613d 34cc e03d 485a 903e c952 5abe
00000020: 4a91 1bbb f388 c3bc 3ed2 f0bd 8541 533e
00000030: 7d8c 163c 4e58 5c3d 460a 7dbe b172 e7bc
00000040: 2793 0f3e 81fa 05bc e5bf cbbd 85a5 d6bc
00000050: ba3e ed3c 9c68 923d 433a ca3c a1ab 5abe
00000060: cc45 6dbd 33b1 8d3d 6959 b3ba 80af 48be
00000070: d63d bf3d 4f77 973d 79d3 b83d 793f 8e3b
00000080: b3e5 21bc 5acd e6bd 634f 81be b2f6 93be
00000090: 897f 98bd eec5 39bb 5d93 163e 3aa9 d5bc
000000a0: 089c 3ebd 8bd4 e03c 0f82 c9bc fcb6 c4bd
000000b0: 677d d7bc 3a1d dabc 91dc c73d 14aa d33c
000000c0: 1c91 95bd 09cb 4e3b d69b 1fbc 9adb 95bd
000000d0: fd85 83bb 3b67 6e3e c5b2 d53c 977b a53d
000000e0: b95a 12bd dfbb 2cbf 01b5 683e 99b1 683d
000000f0: 33b0 3fbb 43da 6bbc bcfa adbe 7793 f33d
00000100: 8ebd 7fbc 64db 04bd cb61 2dbe 83b3 95bd
00000110: 9c89 bfbc d4f6 5f3c 818b 2dbe 8a0e 57be
00000120: b3c3 28be d4ad b93c 0526 edbd 2d05 bf3c
00000130: 895e ce3d e7ab 79be 0f3c 473e a0e8 5e3d
00000140: 9655 643d 2d6e 95bd 3aa6 a53d 54fd 33bd
00000150: 93de f1bc 650f 43bd 12b7 5f3d 9bff 56be
00000160: 7211 9dbd 1da9 8f3c b1ce ed3c e2e4 a03e
00000170: e5c0 993c 1d11 9a3d 9378 813d 8afc 423e
00000180: 47a9 04be bb4a b8be a71b 89bd ac5c 943d
00000190: 5079 dabc a3ea 58bc 5860 32bc ec6c 6bbc
000001a0: 3872 c33d 439b 243d 6ec9 b03d f331 5bbb
000001b0: 9d11 493c 352a 3a3d 3170 6bbd 9d33 9a3d
000001c0: f3d5 e93d f49d 98bd cd31 41bc 5d24 eebc
000001d0: 7b40 c13d 28f3 153e 36a0 cbbb d76c 14bf
000001e0: 1cd6 243d 95bb 193c 689d a6bc 62aa 28bc
000001f0: 95c7 ca3d 71b8 c2bc 037a 4f3d 2ae6 d4bb
0.053939223 -0.043892097 -0.35727718 0.02774664 0.055152074 0.10976449 0.2819388 -0.21320643
-0.0023737722 -0.023869013 -0.117588505 0.20630462 0.009188768 0.05379515 -0.2471095 -0.028252931
0.14020978 -0.008177401 -0.0994871 -0.026201973 0.028960574 0.07148859 0.024685984 -0.21354534
-0.05792789 0.06918564 -0.0013683263 -0.19598198 0.09337966 0.07395803 0.0902471 0.0043410626
-0.009881425 -0.112696365 -0.2525588 -0.2889915 -0.074462004 -0.0028346735 0.14704652 -0.02608167
-0.04653552 0.027445098 -0.02459815 -0.09605214 -0.026304914 -0.026625264 0.097588666 0.025837936
-0.07303068 0.0031554124 -0.009741744 -0.07317276 -0.0040137754 0.23281567 0.02608622 0.080802135
-0.03573105 -0.6747417 0.22725298 0.056809995 -0.002924931 -0.014395299 -0.33980358 0.11893361
-0.015609158 -0.03243579 -0.16931836 -0.0730963 -0.023381047 0.013669688 -0.16947748 -0.2100164
-0.16480903 0.022665896 -0.11579517 0.023317898 0.10076625 -0.24381982 0.19456504 0.054421067
0.055745684 -0.07296405 0.08088346 -0.043942764 -0.029525077 -0.047622103 0.05461795 -0.20995943
-0.07669343 0.017536694 0.029029222 0.31424624 0.018768737 0.07522795 0.06321826 0.19041649
-0.12955199 -0.35994515 -0.066947274 0.07244238 -0.026669174 -0.0132395355 -0.010887228 -0.014369231
0.0954327 0.04018713 0.0863217 -0.003344652 0.012272266 0.045450408 -0.05748004 0.07529376
0.11417761 -0.07452002 -0.011791659 -0.029070074 0.09436127 0.14643538 -0.006214167 -0.57978576
0.040243253 0.009383102 -0.020338729 -0.010294529 0.099013485 -0.02376959 0.05065347 -0.0064971643
