Dat/Nova pasta/models/CN_model_scripted.pt (torch, 82011 bytes, 5 tensors)

weight f4 [128, 8]
000000 d2 18 ac be 22 bb 71 be 1d fa 8d bd 1e 84 d2 3b
       -0.33612686 -0.23606542 -0.06932471 0.006424441
000010 0e b4 08 bf 35 90 a4 3d 0d c7 a2 3c 82 fe a3 3d
       -0.5339974 0.08035318 0.019870305 0.08007528
000020 c6 ca d8 bd b6 a5 a0 bf 7f 89 2e 3d 79 76 87 bb
       -0.10585551 -1.2550571 0.042611595 -0.004133996
000030 3b 08 8e 3c 06 e0 d6 3b 62 d6 16 bc 26 05 e4 bb
       0.017337909 0.0065574674 -0.009206386 -0.0069586216
000040 d0 70 0c 3f e2 f0 1d 3c d9 f4 b1 be c4 0e bc 3b
       0.5485964 0.0096399505 -0.34757116 0.005739065
000050 0a 98 af bc dd e4 ba bc f3 7d 46 bc 18 bb 61 3b
       -0.021434803 -0.022814209 -0.01211499 0.0034443792
000060 b8 98 87 bc 06 36 cd 3b 49 d4 63 3b 37 cb 56 3c
       -0.016552314 0.0062625436 0.0034763983 0.013109974
000070 9b 8a 58 3c dc 98 a6 3b cf 87 1c bc c5 c0 db bc
       0.01321664 0.00508414 -0.009553864 -0.026825318
000080 d9 09 16 3f 81 f0 84 3e be 13 3f 3a 9d 4d 90 bb
       0.58608776 0.2596474 0.00072890136 -0.0044037835
000090 d1 2a 26 3d 63 74 91 3d 9a 18 c3 be d3 c2 af 3d
       0.040568177 0.07102277 -0.38104707 0.08582082
0000a0 98 7c 16 bc fe 63 85 bc a3 f1 17 3b a8 94 a8 bb
       -0.009184979 -0.016283032 0.0023184798 -0.0051446743
0000b0 db 25 68 bc f4 f1 76 bd 04 1a cc ba e5 92 02 3d
       -0.014169182 -0.06028934 -0.0015571718 0.03187837
0000c0 69 99 cb 3c 56 5d 14 3b a8 e9 1d bd bc 7f 44 3c
       0.024853425 0.002263864 -0.03855291 0.011993345
0000d0 a4 22 f3 3b e9 b8 b3 bc 3f b7 a1 ba ec cd 67 bd
       0.007419901 -0.021938758 -0.0012337937 -0.056592867
0000e0 b9 9d 51 3d 4e 30 a5 3e 16 81 b7 bd d9 a8 b4 3c
       0.051175807 0.32263416 -0.08960168 0.02205317
0000f0 c7 8f f8 3c 4f 24 e8 3d 64 69 15 bf f2 e3 4f 3d
       0.030341996 0.1133505 -0.5836394 0.050754495
000100 4b e4 28 bb 96 99 dc 3d c3 7e c4 bc 14 c4 af bc
       -0.002577084 0.10771482 -0.023986226 -0.021455802
000110 06 a1 09 be 84 5f 14 3e 3b 19 81 be 12 2e 2f 3d
       -0.13440332 0.14489561 -0.25214562 0.042768545
000120 ea 92 dc be 6b b4 88 3c 26 f0 5e bf 45 1b e3 3a
       -0.43080837 0.016687592 -0.8708519 0.0017326853
000130 37 3f e7 bc f7 63 90 bc 98 c7 dc 3c 00 2f b7 3c
       -0.028228385 -0.017625792 0.026950642 0.022361279
000140 fb e9 a4 bc fc 0d e9 ba 78 49 34 bd bb b5 6b bc
       -0.020131102 -0.0017780657 -0.044015378 -0.01438659
000150 62 82 17 bd 27 41 9e bb c7 bb fd 3b e9 c4 10 3d
       -0.036989577 -0.004829544 0.007743332 0.03534404
000160 2f 69 37 3f d1 cb fd bc 9c 04 aa bd 23 80 2c 3c
       0.7164487 -0.030980976 -0.083016604 0.010528597
000170 b2 dc 83 3e 06 31 55 3e 99 eb aa be 71 a8 75 be
       0.25754315 0.20819482 -0.33382872 -0.23990037
000180 dd 2b c7 3b fb 7d 18 3e 1c ab ac 39 8e 14 58 3c
       0.006078227 0.14891808 0.00032933883 0.013188494
000190 32 8a 06 3f 0d 1e 5a bc bc a0 73 3c e5 52 01 3c
       0.5255462 -0.013312829 0.014869865 0.007893299
0001a0 0d 8d d1 3e 33 1e 9c 3e 6e 16 65 3c eb a6 95 3b
       0.40927926 0.3049179 0.013982398 0.0045670173
0001b0 7e 51 b5 bb ab dc 30 bb e4 0b 86 3c b4 1f a6 3a
       -0.0055333963 -0.0026986997 0.016363092 0.0012674243
0001c0 3c 82 8d bc 37 40 30 bb 08 b1 62 3f 52 a0 36 3a
       -0.017274015 -0.0026893744 0.8855138 0.00069666386
0001d0 11 53 49 3b 41 5f fb ba 0c 23 9b 3b 68 04 85 3a
       0.0030719677 -0.0019178168 0.0047344025 0.0010148408
0001e0 1f f7 2a bc 3f 91 7b bd 81 b5 ad 3d d6 60 1e 3c
       -0.010434895 -0.061417814 0.08481885 0.009666642
0001f0 fb 50 8c 3d d8 94 d0 bb dd ef 63 bd 1c 3d 8c 3e
       0.06851383 -0.0063654 -0.055648673 0.27390373
000200 14 51 b2 3a 61 8e 28 3c 32 d1 27 3c 25 30 88 bc
       0.0013604485 0.010287852 0.010242747 -0.01662452
000210 40 1b 28 bd 75 dc 25 bc da f9 81 bc 8f 28 2a bd
       -0.041041613 -0.010123362 -0.015866209 -0.041542586
000220 ad ae 8b bc dd 8f 9d 3a b7 c1 77 bf 07 2a fb 39
       -0.017051065 0.0012021024 -0.9677996 0.00047905763
000230 d4 ad d0 3b 4d 22 fd 3a 43 bd 98 ba d0 82 16 3a
       0.006368378 0.0019312591 -0.0011653084 0.00057415385
000240 f4 a8 f9 3c a6 fb 3a 3c ee 40 5d bd f1 c6 b6 bc
       0.030476071 0.011412537 -0.054017 -0.02231166
000250 eb 75 a6 3c 0b 77 77 3b 4d 00 1e bd 9b 54 64 bd
       0.0203199 0.0037760164 -0.038574506 -0.05574475
000260 91 4b 5f be 6d fe bc 3e 41 ea 6a bd 05 d2 5a bc
       -0.2180617 0.3691286 -0.05735231 -0.013355737
000270 a1 cb c2 3d 59 e6 10 bf 9c e9 43 3d 0a fa 49 3c
       0.095114954 -0.5660148 0.04783021 0.01232768
000280 c2 35 f4 be 1b 82 15 3e cf 06 84 3c bc 59 df 3b
       -0.47697264 0.14600413 0.016116528 0.006816117
000290 9d 4a 7b 3d e7 43 74 be 9f dd 16 3d 65 fd ee 3c
       0.061350454 -0.23854028 0.036832448 0.029173562
0002a0 8c 69 ae 3c 0f b8 01 3e df 2f 0a bd 9c 16 ea 3a
       0.021290563 0.12667869 -0.03373706 0.0017859521
0002b0 d4 d6 18 3b 23 91 05 3d 6f db 8c be 1d f3 64 3d
       0.0023321407 0.032609116 -0.27511165 0.055895913
0002c0 bb 65 0f 3d bd 6c 9f bc 6d 38 ec 3c 18 9e 1b 3b
       0.035009127 -0.01946103 0.0288355 0.0023745354
0002d0 2e d7 88 3c 33 53 4a bc 0c 9e d8 bb 8b 24 8a 3c
       0.016704168 -0.012348938 -0.0066106375 0.016863128
0002e0 a6 af da bc 50 87 99 3d 26 01 b1 3d 24 6a 7d bb
       -0.026695084 0.07496512 0.08642797 -0.0038668
0002f0 20 13 2c bd 6f fe 51 3c 4e 68 b7 bc 91 ce 15 3d
       -0.042010427 0.012817009 -0.022388604 0.03657395
000300 cc 97 3d 3f 57 07 54 be 2e 90 87 3e 73 e5 33 bc
       0.7405975 -0.20705925 0.26477188 -0.010979998
000310 24 87 04 3c 57 a6 ac bb d6 13 8a 3b eb c3 92 bc
       0.008088861 -0.0052688527 0.0042137904 -0.017915687
000320 c1 4b 19 3d c5 0d d3 bd d7 25 93 bd ab 06 c4 39
       0.03742576 -0.10305361 -0.07184952 0.00037389
000330 2b e4 83 be 8a 56 37 3d 56 52 1c 3d a6 88 15 3d
       -0.25760016 0.044760264 0.03816446 0.03650727
000340 b5 13 86 be 74 df 8c be b7 ea 93 bd a6 3e 47 3c
       -0.2618691 -0.2751423 -0.07222503 0.012160933
000350 8f 38 52 bd 2b 0c 8e bd 05 07 09 3f 9c 41 79 bd
       -0.05132347 -0.069359146 0.53526336 -0.060853586
000360 9b a3 91 bb c8 24 1d bd 01 d1 2f 3e 3f be 95 bb
       -0.004444552 -0.038365155 0.17169572 -0.0045697982
000370 08 75 61 bc f5 fe 61 bd 42 17 48 3d f6 e7 ea 3c
       -0.013760813 -0.055174787 0.048850305 0.02867506
000380 e7 f5 29 3e d8 af 96 3d 3a 23 51 3e dd 5b ff 3c
       0.1659771 0.07357758 0.20423594 0.031171734
000390 23 e7 92 bd 0e ca be bc 4f 00 0f 3c 3b 5c f2 3b
       -0.07172992 -0.023289707 0.008728101 0.0073962486
0003a0 41 e1 31 bf 83 a7 2e bd bb cb 0b be e1 a5 20 3c
       -0.69484335 -0.04264022 -0.13651936 0.009805174
0003b0 f4 73 28 be 66 a5 79 be 2f 56 0d 3e 12 bc 25 3e
       -0.16450483 -0.24379501 0.13802408 0.16185024
0003c0 f5 f4 04 3e bb b7 12 bd 9b eb 6e be 70 27 2c 3c
       0.12984069 -0.03581975 -0.23332064 0.0105074495
0003d0 ae 51 14 3d ec 43 fb 3e 6a a7 3b be f7 9b 54 bd
       0.03621071 0.49075258 -0.18325582 -0.051906552
0003e0 67 70 92 bb 83 2f 51 3c af e4 b9 ba cd 61 db ba
       -0.004468966 0.012767675 -0.0014182533 -0.0016737521
0003f0 1c a0 a2 bc f0 d8 ad 3c be 94 79 3c 8d 38 01 bb
       -0.019851737 0.021221608 0.015233217 -0.0019717545

bias f4 [128]
000000 ee a2 a8 bf d1 47 8e bf 3e 1d 7e 3e d6 8e 0c be
       -1.3174722 -1.1115667 0.24815843 -0.13726363
000010 58 c8 8f be 0a 45 54 be b5 0f 83 be c8 87 70 bf
       -0.28082538 -0.20729461 -0.2559792 -0.93957186
000020 4b 31 3b bf 17 00 f4 be 08 b4 6f be d4 b2 ad bb
       -0.7312209 -0.4765632 -0.2340852 -0.005300859
000030 7c 89 31 bf a2 16 5a 3e c6 66 87 bf ce 1e 9e be
       -0.6935041 0.21297696 -1.0578239 -0.30882877
000040 74 a2 77 be 06 3b 91 3f 01 0b ae be 55 5d 70 bf
       -0.24183065 1.1346138 -0.3399277 -0.93892413
000050 e2 2c f7 bd 61 fd f5 39 9a f5 3d be 94 9d e2 be
       -0.120691076 0.00046918824 -0.18550721 -0.44260848
000060 8c 15 46 bf db a0 86 bd bf db 9c bf 33 4a 0c bf
       -0.7737663 -0.065736495 -1.2254561 -0.5480072
000070 d3 cb 53 bf fb ce d6 be f6 98 5b bf 31 df e8 bd
       -0.82732886 -0.4195479 -0.85780275 -0.113706954
000080 c4 21 66 3f ad 1d e4 bd ed a4 39 bf 4c 48 fe be
       0.8989527 -0.11138473 -0.7251728 -0.49664533
000090 2f d8 1b bf b3 64 9f bf 10 a1 25 be 2c 2e 62 3e
       -0.60876745 -1.2452606 -0.16174722 0.22087926
0000a0 22 13 15 be fb fd ff be 9f 6e 01 3e 50 82 8c be
       -0.1455808 -0.4999846 0.12639855 -0.2744317
0000b0 57 38 b3 be b7 15 5f be ee 10 9a bf 09 36 69 3d
       -0.3500392 -0.21785627 -1.2036417 0.056936298
0000c0 d6 b3 ac be 86 10 4e be 08 cb 0a 3f 05 d1 65 bf
       -0.33730954 -0.2012349 0.5421605 -0.89772063
0000d0 d2 46 fe be b2 f1 69 bf b5 aa 6a be 0a a0 91 be
       -0.49663407 -0.9138442 -0.22916682 -0.28442413
0000e0 31 f2 56 3e 0f 1f 35 bf 6e 5d 9c be 54 28 9c be
       0.20990826 -0.70750517 -0.3054003 -0.30499518
0000f0 22 bc 79 bf 33 5f 7e be 78 fd 89 be f7 f0 d8 be
       -0.9755269 -0.24841003 -0.26951194 -0.42371342
000100 56 c9 96 bf 5f 25 62 be d8 db 11 bf 48 95 c9 3b
       -1.1780193 -0.22084568 -0.5697608 0.006151829
000110 52 04 a5 be 79 59 08 be b5 9a a1 bf 4f e4 04 be
       -0.3222986 -0.13315381 -1.2625338 -0.12977718
000120 b4 8a a1 be df 31 08 bf 5c 26 cb be 45 06 b0 bf
       -0.31551135 -0.532011 -0.39677703 -1.3751913
000130 8d 38 99 bf 25 ce fe be 7a b8 7d bf 07 76 29 bf
       -1.1970383 -0.4976665 -0.99109614 -0.6619572
000140 43 30 9a be df b3 95 bf 06 28 85 bf 94 c4 08 bf
       -0.30114946 -1.1695517 -1.0402839 -0.53424954
000150 de a0 3e 3e 4d 55 6a 3d 14 15 c2 bd f7 c2 00 bd
       0.18616053 0.057210255 -0.094766766 -0.031435933
000160 50 cc 88 bf 93 25 e7 3e a0 17 89 be 70 68 4a be
       -1.0687351 0.45145854 -0.26775837 -0.19766402
000170 f3 e6 7c bf bd b7 8a bf 42 53 d6 be 32 56 89 3e
       -0.987899 -1.0837322 -0.41860396 0.26823574
000180 cb 8e 50 bf 65 a7 6c be e3 bd 56 bf 0d 48 16 3e
       -0.81467885 -0.23110731 -0.83883494 0.14675923
000190 f5 71 2e be 4d 2f 65 bf f1 62 a0 bf 14 fe eb be
       -0.17035659 -0.895253 -1.2530195 -0.46092284
0001a0 89 b2 0d bf 9f 83 ed be 65 86 44 3a d8 25 d8 be
       -0.5535055 -0.4638948 0.0007496833 -0.42216372
0001b0 32 e1 81 bf 7a 53 c7 3e e8 c6 21 be eb 3d 59 be
       -1.0146849 0.38930875 -0.15798533 -0.21215026
0001c0 05 b2 4d bf 93 bf 4d bf 85 02 91 bf 9a ef 77 bf
       -0.8034976 -0.80370444 -1.1328894 -0.9684998
0001d0 a9 8f 82 bd ae 9a bc be e3 18 70 be 88 d7 70 bf
       -0.06375057 -0.3683676 -0.23446994 -0.94078875
0001e0 ca 8d 51 bf 03 7e ab bf 04 e1 24 bf 43 1f 96 3e
       -0.8185698 -1.3397831 -0.64405847 0.29320726
0001f0 a9 1f 79 be 40 8b f7 be 56 89 83 bf 3d 61 16 be
       -0.24328484 -0.48348427 -1.0276287 -0.14685531

weight f4 [128, 128]
000000 f7 c4 d3 bd 24 90 a2 3c ec a4 aa bd cd e8 35 3d
       -0.103403024 0.019844122 -0.083322376 0.04441147
000010 da e8 1d 3d e8 44 78 3d 9e a1 5f bd bb 1e 9e bd
       0.038552143 0.06061259 -0.05459749 -0.07720705
000020 4b 4e 98 39 bd f5 aa bd af 05 28 bd bd cd a5 bd
       0.00029050032 -0.08347652 -0.041021045 -0.08095882
000030 4f b6 d1 bc 95 a9 57 bd 48 39 95 bd d0 f2 93 bd
       -0.025599627 -0.05265196 -0.07286316 -0.07224047
000040 c1 1e f5 3c 22 4e 7c 3d 6f 46 9d bd 13 c8 8f bc
       0.029921891 0.06159795 -0.0767945 -0.017551458
000050 60 86 35 bd 9b a5 a3 bd b3 29 0a be fc 6a a4 3c
       -0.044317603 -0.07990571 -0.1349247 0.020070545
000060 ea 26 ea bd 2c a9 95 bc d8 9f 78 bd 1a 9a f5 3c
       -0.114332035 -0.018269144 -0.060699314 0.029980708
000070 32 06 82 bd 8c 4b 3d bd ed d0 ec bc af b7 a4 3d
       -0.06348838 -0.046214625 -0.028908217 0.08042847
000080 77 de 67 bd 8d 66 e1 bd aa ab eb bc 69 a8 4e bd
       -0.056608643 -0.11005888 -0.02876838 -0.050453577
000090 19 e2 8d bd d7 f1 b9 bc 8b 65 e4 bd 36 a7 ca bd
       -0.0692789 -0.022698326 -0.1115218 -0.09895174
0000a0 c6 19 d9 3c aa 88 c1 3d f1 0b 55 3d 44 04 e4 bc
       0.026501548 0.09449895 0.05201334 -0.027834065
0000b0 ea 6c e9 bd 02 8b c1 bd 13 05 ce bd c4 50 05 bd
       -0.11397727 -0.09450342 -0.100595616 -0.032547727
0000c0 26 67 41 ba f4 f9 10 bd 24 37 48 bc 83 c6 26 be
       -0.0007377736 -0.035394624 -0.012220178 -0.16286664
0000d0 9f 04 d8 3c df e5 7b bd 31 a1 e2 bd da e3 23 3d
       0.026369391 -0.06149852 -0.11065901 0.040012218
0000e0 bc 1e 47 3d 5e b9 f5 bd 07 f1 f6 bd 9a bc 1c bd
       0.048613295 -0.119982466 -0.12057691 -0.038265802
0000f0 3f af ce bd 40 da 81 bd bc f9 22 3d f1 6c 93 bd
       -0.10092019 -0.06340456 0.039788947 -0.07198513
000100 15 1f a2 bd 39 02 df bd 8d c8 ae bd 34 ac f2 bd
       -0.07916085 -0.10889096 -0.08534346 -0.118492514
000110 56 da 5b bd f5 6f ba bd 46 b2 89 bd 9c 1e eb 3c
       -0.05367502 -0.09103385 -0.06723456 0.02870112
000120 fa 3d d5 bd cc 7a 1e bd 9e 5d ea bd 59 73 2d 3d
       -0.10412212 -0.038691327 -0.11443637 0.042346332
000130 a1 6e 38 3b 5c 68 a8 bd df ff 6d 3d 01 c1 ec bc
       0.0028142112 -0.0822303 0.058105346 -0.028900625
000140 ab ef 60 3d be 27 a5 3b e3 7d 39 bd 14 c3 5e bd
       0.054916065 0.005040138 -0.04528607 -0.05438526
000150 43 57 57 bc 08 69 96 bc 83 5a c7 3c 77 a1 ba bc
       -0.013143363 -0.01836063 0.024335152 -0.02278207
000160 7a 9e 4b bc f2 a7 cf bd c0 ce 26 ba b0 2c 9a bd
       -0.0124279205 -0.10139455 -0.00063632056 -0.07528055
000170 9e 6e 02 3d ad 42 92 bd af 5b 42 3b f1 a0 6c bc
       0.031843774 -0.07141624 0.0029656698 -0.014442668
000180 68 02 9b bd d8 49 a8 bd 01 8d 04 be a6 09 e7 bd
       -0.07568818 -0.082172096 -0.12944414 -0.11281137
000190 17 5c e4 bd c8 56 be bd f9 96 8f bd ef 81 ba bd
       -0.11150377 -0.09293896 -0.070112176 -0.09106814
0001a0 c0 31 06 be e5 04 ee bc 9b 4b 9f bd 2a ad 0b 3c
       -0.13104916 -0.029055068 -0.077780925 0.008525172
0001b0 8c 33 70 bd ff fd 62 bd 84 e9 03 3d 09 3e fc bc
       -0.05864291 -0.05541801 0.03220512 -0.0307913
0001c0 10 a1 ae bd 2f e9 53 3c fc 8b b0 bc 0e 1f a8 bb
       -0.08526814 0.012934013 -0.021551125 -0.005130655
0001d0 21 71 99 bd f2 d2 6a bd bf 5f 3c b9 76 f8 7c 3d
       -0.07492281 -0.05733008 -0.00017964745 0.06176039
0001e0 6b b0 0a 3d 97 54 9c bd 18 cd 18 3d 15 48 9c 3c
       0.03385965 -0.07633322 0.037304968 0.01907734
0001f0 4a 82 56 bd 52 4a 1e 39 b7 27 f2 bd 5b e9 b0 bb
       -0.052370347 0.0001509574 -0.11823981 -0.005398912
000200 69 bb aa bd 9a 98 0a 3e 21 7d 7f be 4f 76 6b 3c
       -0.08336527 0.13534775 -0.24950077 0.014371469
000210 2b 39 36 3c 19 24 dd 3c 29 d4 bd bd ef bd 8b be
       0.011122028 0.026994752 -0.09268982 -0.27293345
000220 e5 fe db be 81 c3 d7 3c 12 bc 59 be fb 2e f8 bd
       -0.42967907 0.02633834 -0.2126315 -0.12118336
000230 c5 11 84 bb f8 30 1d be 1c 5c 48 bf 4b 17 7a be
       -0.0040304386 -0.15350711 -0.7826555 -0.24422948
000240 13 52 e8 bc 66 d9 f5 bc e1 b8 3f 3d 48 0f 8a 3e
       -0.028359449 -0.03001089 0.046807174 0.26964784
000250 a3 63 2a bf 4c 60 6a bd 8b 04 02 be 1f 6e e6 3c
       -0.66558284 -0.057220742 -0.12697046 0.028128682
000260 17 92 e5 3d f9 d1 37 be 49 81 11 3e 77 1e 31 3e
       0.11209505 -0.17951192 0.14209475 0.17296778
000270 ec f4 90 3e 2b 47 b2 be 5c 0c de 3e 9f 16 69 bd
       0.2831186 -0.34819922 0.43368804 -0.05690634
000280 6a 7b a9 bf 28 dd 2a be aa 0a f8 3d 48 ed 26 3e
       -1.3240788 -0.16685927 0.12111409 0.16301453
000290 9d da 0e be 01 97 84 be 41 17 41 3d aa 0e a4 bf
       -0.13950582 -0.25896457 0.047141317 -1.2816975
0002a0 e2 99 e4 bd e0 67 e9 3c da 1e 85 c0 a5 cb bb bd
       -0.11162163 0.028491914 -4.160016 -0.091697015
0002b0 cb ea 18 3e 77 f4 b5 3c 00 04 37 be b2 84 83 bf
       0.14933316 0.022211296 -0.1787262 -1.027487
0002c0 24 2e 7b bd 3e 44 81 bb ca 05 0a 3e 1b ec 1d 3e
       -0.0613233 -0.0039449027 0.13478771 0.15422098
0002d0 dd 6c f8 be 07 c1 f6 be d1 ca e4 3e df 45 6c 3f
       -0.48520556 -0.48194143 0.44685987 0.92294115
0002e0 3b f7 d2 bd 21 36 32 bf 09 04 43 3b 60 62 62 bd
       -0.10301062 -0.69613844 0.0029757044 -0.0552696
0002f0 01 68 7c be fe c9 0e 3d eb dd 4a 3d 11 62 2e bf
       -0.2464905 0.034860604 0.049528044 -0.6811839
000300 69 5e 0f 3d f0 23 19 bd 7d a5 a2 3d 81 7c 85 3e
       0.035002146 -0.03738779 0.07941721 0.2607155
000310 a9 1d 9a bd ad eb f3 be e9 41 31 be 46 98 45 bc
       -0.075251885 -0.47640744 -0.17310299 -0.012060231
000320 8a 61 8b bb e8 0d 80 bf 36 1a 93 bb 4c b4 5e 3f
       -0.004253571 -1.0004244 -0.0044892086 0.8699386
000330 ca 8c 80 3e 3a bb 14 3e 50 19 dc be a1 e6 70 bd
       0.25107414 0.14524546 -0.42988062 -0.058813695
000340 99 99 56 be 5b a2 f4 be cb 1f b8 bf 1e fd fc be
       -0.2095703 -0.47780117 -1.4384702 -0.49411863
000350 15 88 a4 3c 33 ae 46 bd ae 97 fa bd 86 bd e2 bc
       0.02008442 -0.048505973 -0.12235962 -0.027678262
000360 18 1e 2e 3f 00 ee 93 be 7f 66 68 bd f1 b2 7d 3d
       0.6801467 -0.28892517 -0.056738373 0.06193823
000370 9c 1a 32 3e 4e 5d 13 3e b3 75 3b 3c 15 76 16 be
       0.17392963 0.14391062 0.011441636 -0.14693482
000380 5e 1d 9f be e4 c2 93 3f ed 5f ab bb 90 c9 4e 3f
       -0.31077093 1.1543851 -0.005229941 0.8077631
000390 a6 75 f7 bc a1 39 5c be a8 47 07 3f c6 27 1e 3e
       -0.030207466 -0.21506359 0.52843714 0.1544486
0003a0 2e 26 9c be ac af df 3d d2 11 d9 be 3c aa 49 3e
       -0.3049788 0.109221786 -0.42396408 0.19693846
0003b0 28 25 f7 3b 83 26 30 be 0e a3 2b be 3d f8 05 be
       0.007542271 -0.17202191 -0.16761419 -0.13082977
0003c0 47 b1 ed bd db f9 dc 3e b8 16 2f bf 6c 28 66 bd
       -0.116060786 0.43159375 -0.6839404 -0.056190893
0003d0 af 0d 05 3e eb a5 7b 3d cb e1 a6 bb 0c a3 8e be
       0.12993501 0.06143753 -0.0050928346 -0.2785877
0003e0 a6 8f 42 be cd cd 34 3e e7 fb 87 3d c5 c8 3b bf
       -0.1900011 0.17656632 0.066398434 -0.73353225
0003f0 1a 8e 7f 3d 0d 0a b6 be 9f 63 8a 3e a3 9d 46 3c
       0.062391378 -0.35554543 0.2702913 0.012122544

bias f4 [128]
000000 99 46 13 bd 0f d6 41 bf c4 b3 a5 be 61 94 16 bc
       -0.035956 -0.7571725 -0.32363713 -0.00919065
000010 e9 da 93 be dd 44 03 bf 55 fb 6c be a4 eb 0d bf
       -0.28877953 -0.5127695 -0.2314275 -0.55437684
000020 f0 99 08 bc ac a7 ab be 5f f7 c7 bb 0e fc f8 bd
       -0.008337483 -0.3352636 -0.006102487 -0.121574506
000030 2f 67 39 be f2 b0 81 bd 02 ff 39 bd cd 01 84 bd
       -0.18105768 -0.06332578 -0.04540921 -0.06445656
000040 7a b1 dd be 55 0e ce be 52 85 ed bd 8f ab fd bd
       -0.43299466 -0.4024531 -0.115976945 -0.12386238
000050 f9 6e e2 3d ce 74 9e 3d 3f a4 c3 bd e2 d7 24 bd
       0.110563226 0.077371225 -0.09552812 -0.040244944
000060 4c 12 dd be 02 55 03 bf 04 9a c1 bd 85 f9 03 be
       -0.43178022 -0.51301587 -0.09453204 -0.12888153
000070 87 80 51 be c5 5f ae bd d3 55 07 be 7f 49 f4 ba
       -0.20459186 -0.0851436 -0.13216333 -0.0018637626
000080 a8 db c5 be 2a 88 25 bd 07 ce 58 3e eb d9 55 bd
       -0.38644147 -0.04041306 0.21172343 -0.052209776
000090 f6 f1 01 bf ba 5c 94 be 40 e0 46 bf 77 12 4e bd
       -0.5075983 -0.28976995 -0.7768593 -0.05031058
0000a0 1a 42 04 bf a3 b4 41 3c eb 3e 9f bd e7 7e 0b be
       -0.5166336 0.011822852 -0.077756725 -0.13622628
0000b0 60 87 13 be 64 d3 a9 bd fe f2 5d bd 14 8a 7a bd
       -0.1440711 -0.08292273 -0.054186814 -0.061166838
0000c0 3e 80 47 bd 98 82 5a 3d b1 62 f5 bc a8 89 58 bd
       -0.048706286 0.0533472 -0.029954286 -0.052865654
0000d0 61 3c e6 bb 54 3e 7c bd 78 d5 cb bc de 5b 72 be
       -0.0070262407 -0.06158288 -0.024882063 -0.23667857
0000e0 92 8d 05 bf 7b 04 88 3c 87 21 ee be 1b 04 b4 be
       -0.52169144 0.016603699 -0.46509954 -0.35159382
0000f0 fe 3b 23 be 30 5b d1 3d 15 23 be 3d a9 75 70 bd
       -0.15940854 0.10222471 0.09284035 -0.05870596
000100 86 8f 9f bd 69 25 bc bd cf 82 06 be 5e 24 62 bd
       -0.07791047 -0.09186823 -0.13135837 -0.055210464
000110 b8 9e 33 bd aa cd 47 3e 1d 6e 98 bd a0 40 13 be
       -0.043852538 0.19512048 -0.074428774 -0.14380121
000120 ac 8b 8c be 88 91 20 be b0 ea d8 be dd 40 b9 3d
       -0.2745031 -0.15680516 -0.42366552 0.09045575
000130 3d 2a 07 be 84 41 57 be 76 a0 c3 bc 65 e2 04 be
       -0.13199706 -0.21021086 -0.023880225 -0.12976988
000140 ce 0f d4 bc 65 b8 64 bd 9e 55 09 be 6d 62 8c be
       -0.025886443 -0.055839915 -0.13411567 -0.27418843
000150 6b 47 38 bb 80 24 e9 bd 38 15 21 bc ca b3 38 bf
       -0.002811874 -0.11383915 -0.009831719 -0.72149336
000160 d4 98 5f be 48 72 68 bf b6 60 df bd 41 5a 54 3d
       -0.21835643 -0.9079938 -0.10907118 0.051843885
000170 fe 90 19 bd 9c 9c bf be 8d ec 58 be 9e 73 f3 bd
       -0.03749179 -0.3742417 -0.21183987 -0.118872866
000180 78 c8 ed bc 09 ef a9 bd b0 b5 03 be 67 6a 9a be
       -0.029026255 -0.082975455 -0.12862277 -0.30159304
000190 72 08 01 be a3 4f 0d be f8 be 11 bf 7f 22 5c 3e
       -0.12600878 -0.1379991 -0.5693202 0.21497534
0001a0 ed 37 04 be 81 f2 fb 3b 20 68 d2 3b e2 4d 21 bc
       -0.12911959 0.007688821 0.006421104 -0.009845229
0001b0 a0 be 78 be 08 d3 3b bf dc 39 2a be 5f 1e b5 bd
       -0.24291468 -0.73368883 -0.16623634 -0.088436835
0001c0 92 44 53 be a5 f8 ee be 8d e6 6c bf b4 13 5d bd
       -0.20631626 -0.46674076 -0.9253929 -0.05397387
0001d0 9b 3e 82 bd 8c 53 07 bf 1d 16 1f bc bf ec 5e 3c
       -0.06359597 -0.5286186 -0.009709862 0.013606249
0001e0 69 bf 5b bf a6 76 ea bd cf cb 18 bd 91 0e cb bd
       -0.85838944 -0.11448412 -0.037303742 -0.09914888
0001f0 c9 1f 81 bd bb f4 8b bd 98 f8 8a bd 04 e6 e7 bd
       -0.06304891 -0.06833788 -0.06785697 -0.11323169

weight f4 [1, 128]
000000 08 e8 3a bc 4e 61 57 35 3f df d3 3c a9 05 9b 3b
       -0.01140786 8.023534e-07 0.025863288 0.0047308994
000010 ad 7a 85 3c ce ea a9 3c 63 40 50 bd 2a b0 15 3d
       0.016293848 0.020741846 -0.050842654 0.036544956
000020 73 5a 4a bc 93 9a 13 bd 5e cf a8 3c a8 4f 1b 3c
       -0.012350666 -0.036036085 0.020606693 0.009479441
000030 5e c9 f4 bc cd 59 dd 3c ae e0 88 ba 48 9a bc bc
       -0.029881176 0.02702036 -0.0010442936 -0.023022786
000040 3a 02 a8 3c 7f ea 97 3c 79 91 45 3c be c1 b3 3c
       0.020508874 0.018544434 0.012058609 0.02194297
000050 87 01 52 3d 85 63 5d 3d d2 b3 29 3a 74 cd 1b bb
       0.051270988 0.054049987 0.00064736337 -0.0023773583
000060 a7 da 42 3d 9a 0b 91 bd 18 b8 7f 3c cc 99 08 bc
       0.047571804 -0.07082291 0.015607856 -0.008337449
000070 8d 9a a8 bc 2d ed 82 3c 0d f6 a6 bc a9 21 dd bc
       -0.020581508 0.015982235 -0.020380998 -0.02699359
000080 51 93 77 bd 3f fc 1c bc 00 2e b2 3d 90 02 a5 3b
       -0.060443226 -0.0095816245 0.0870018 0.005035706
000090 17 d8 ca 3c bf cf 4f bc 98 a7 ae bc c6 cf 4e bd
       0.024761243 -0.012683808 -0.02132015 -0.050491117
0000a0 c6 ab b0 bc ce 0c 88 bc b1 06 1c be 88 1a e0 3c
       -0.021566283 -0.016607668 -0.15236928 0.027356401
0000b0 a4 cb cd bc a0 55 1c 3c d1 a7 53 bd e7 c6 be bc
       -0.025121517 0.009541899 -0.051673714 -0.023288203
0000c0 7c 07 4b bc 06 40 84 3c d8 13 84 3d dd 5f 12 3b
       -0.012391921 0.01614381 0.064490974 0.002233497
0000d0 2a 83 1c 3c 09 68 06 bc e6 aa 9f bc 85 88 81 3c
       0.009552756 -0.008203515 -0.01949067 0.015812168
0000e0 3d 39 d4 bc be c7 9b bc b5 63 52 3d cc 9b c2 bc
       -0.0259062 -0.019016143 0.05136462 -0.02375593
0000f0 a2 80 ea 3b 73 05 c9 bd fa 24 66 3c 4a 28 49 bc
       0.0071564475 -0.098154925 0.014046902 -0.012277672
000100 56 79 0f bd 48 2c d0 3c 60 cd c5 3b f7 57 ed 3b
       -0.035027824 0.02541174 0.0060364455 0.0072431522
000110 be 0b 0b bd d8 36 47 bd bb 3e 5e bc 9c f3 ec 3c
       -0.033946745 -0.048636287 -0.013564761 0.028924756
000120 70 e3 00 bd 36 f1 83 3c 37 da 9d 3c e5 5c d5 3d
       -0.0314669 0.01610623 0.019269092 0.10418109
000130 a6 4a 39 bd 45 bd c7 bb 9f a5 85 3b 59 21 00 3d
       -0.045237206 -0.0060955607 0.0040785815 0.031281803
000140 47 26 be 39 25 72 8a 3b 39 81 d4 3c ad b4 0f bc
       0.00036268143 0.004225033 0.025940524 -0.008771104
000150 b4 19 cd 39 e0 76 ee 3c 73 ea d2 bd 6c eb 0c 3d
       0.00039119797 0.029109418 -0.10298624 0.034404203
000160 58 20 b4 3d dc 78 47 bd f1 17 73 ba 43 a6 c1 bc
       0.087952316 -0.048699245 -0.0009273282 -0.02363885
000170 cd 32 8a bc 93 d2 3e bc d2 8a 9a bc 47 e6 15 bd
       -0.016869927 -0.0116468845 -0.018865023 -0.036596563
000180 66 dc fc 3c 00 c0 80 bb 12 0d 2d 3c 86 dd f2 bd
       0.030866813 -0.003929138 0.010562198 -0.118586585
000190 82 9a d0 3c f2 c0 99 bc 65 8e 63 3d 11 01 07 be
       0.0254643 -0.018768761 0.05555572 -0.13184
0001a0 08 40 b4 bc 12 68 cd bb 92 7b 8a 3c fd 08 de bc
       -0.022003189 -0.0062685097 0.016904626 -0.027103895
0001b0 bc 0c 43 3d a0 5b 26 3d 9b 52 98 bc 49 6a 98 3d
       0.047619566 0.040614724 -0.018594077 0.07442147
0001c0 d0 c7 af 3c 94 5f f3 bc 28 99 8a bd e5 8d aa 3c
       0.021457583 -0.029708661 -0.067674935 0.020819614
0001d0 3b c0 f0 3c f2 75 ff bd 6a d8 4d 3c 8f bf 39 bc
       0.029388538 -0.12473668 0.012563804 -0.011337175
0001e0 9c c7 20 3d bf ac 04 bd 49 87 a0 3c 74 3c 14 3c
       0.039252862 -0.032391306 0.019595759 0.009047616
0001f0 1d 1a a3 3c 33 b6 91 bc ef 90 8f 3c a1 89 47 3c
       0.019909913 -0.017787075 0.017525164 0.012178809
