Dat/Nova pasta/models/CNA_model_scripted.pt (torch, 82036 bytes, 5 tensors)

weight f4 [128, 8]
000000 94 55 ab 3e d6 28 82 3e 16 49 db bb eb 9c e9 bb
       0.33463728 0.2542178 -0.006692062 -0.007129302
000010 b1 35 42 3e 27 a9 9d bc d1 ab 0d bb 5e 19 73 bd
       0.18965794 -0.019245697 -0.0021617303 -0.059350364
000020 1f 37 e9 be ff 63 8f be 3e c3 48 bc c8 87 09 39
       -0.45549867 -0.28005978 -0.012253581 0.0001311592
000030 6d 5d b7 bc 41 b1 4e bd 8d 37 b7 3e da 48 49 bd
       -0.022383416 -0.05046201 0.3578457 -0.049141742
000040 fd 98 87 3e ac f0 2c 3c c5 b9 97 3d a4 23 b7 bb
       0.26483908 0.0105554275 0.074084796 -0.0055889655
000050 68 7e ca bc b2 ef 0a be f5 02 2d bc 75 53 45 3e
       -0.024718478 -0.13567999 -0.010559787 0.19270118
000060 98 18 6e 3f 92 bd 2a bf 07 9e f1 bc d4 1f 27 3b
       0.9300628 -0.6669551 -0.029494299 0.0025501149
000070 74 6c 67 bb ab 50 17 bc b0 12 28 3c 85 5d 83 bb
       -0.0035312446 -0.009235541 0.010258362 -0.004008951
000080 bb c7 07 be ea 25 a4 be 08 92 47 bd ea a2 0b bb
       -0.13259785 -0.32060176 -0.04872325 -0.002130682
000090 9b 8b f7 bd 8f cf 0c 3f fb 92 91 bd 85 7b 24 bd
       -0.120871745 0.5500421 -0.071081124 -0.04015686
0000a0 9a 21 a1 3e d1 6d 45 be 01 83 1d bc c8 98 34 3c
       0.31470948 -0.19280173 -0.009613753 0.011022754
0000b0 77 d0 77 bc 50 61 d5 bc d1 e6 52 3e e1 cd bc bc
       -0.0151253855 -0.026047379 0.20595862 -0.02304739
0000c0 8d 68 e3 be 6f ad a1 3d 71 b3 8c be e5 06 d9 bc
       -0.44415703 0.07894408 -0.27480653 -0.026492545
0000d0 49 81 ae 3b 7a e3 3d bd 39 05 9f bd 42 28 46 3e
       0.0053254706 -0.046359517 -0.07764668 0.19351295
0000e0 25 4a 49 3b cf fd 1d bc 0e 35 65 3f 5f 7b 69 bc
       0.003071436 -0.009643032 0.8953408 -0.014250605
0000f0 20 1e 6f 3c 85 69 72 3c ff 63 ba 39 d5 35 75 3b
       0.014594585 0.014795666 0.00035551187 0.003741612
000100 56 15 b8 3e ec cf 35 3e cc 27 c3 3e ce 89 67 bc
       0.35953778 0.17755097 0.381163 -0.014131976
000110 07 8e ed bd dd 9a 5e bc f5 fb 2f 3d c6 15 c7 3d
       -0.11599355 -0.013586727 0.042964894 0.0972095
000120 e5 a3 e6 be 29 3b 4e 3e 02 95 80 bd 3a 7f 1d 3c
       -0.45046917 0.20139755 -0.06278421 0.009612853
000130 64 48 9b bd 63 39 36 bd 08 1e 60 bd af 40 0d 3f
       -0.07582167 -0.044488322 -0.05471614 0.55176824
000140 f3 c6 c6 bc da 0e 40 be 6f fb b6 be 1a f7 20 bd
       -0.024264788 -0.18755665 -0.35738704 -0.039298154
000150 84 cc fa 3d e6 9c b0 bd 48 bf 19 be 83 5a fd 3d
       0.122460395 -0.08623676 -0.15014374 0.12370779
000160 a1 26 b8 be 1e ff 9e 3e 27 b9 94 bd 4a fc 7a bb
       -0.35966972 0.31054014 -0.072618775 -0.0038297349
000170 22 f3 85 3d 54 96 05 bf dc a1 65 3d be 18 41 3d
       0.065405145 -0.5218251 0.056062564 0.047142737
000180 f5 a8 0c bf 0a 48 92 bc dc d2 fb 3e 50 f6 26 3c
       -0.5494531 -0.017856617 0.4918431 0.010190561
000190 66 bc d6 bb 3b 47 8e 3c 5b 43 15 3c 65 97 2e bc
       -0.0065532206 0.01736795 0.009110297 -0.010656212
0001a0 bb e9 d3 3e a3 1a fb bd 4d f6 08 3f bd 3f f4 bb
       0.4138926 -0.1226094 0.53500825 -0.0074538873
0001b0 1a cc 22 3d cd b0 2c bc 38 8a 5c 3b ad c1 c5 39
       0.039745428 -0.0105401995 0.003365172 0.00037719068
0001c0 d2 c3 21 3d f2 f2 ae bc cf ff b3 3e 9c 5e 48 bc
       0.03949339 -0.02135608 0.35156104 -0.012229588
0001d0 ae 86 92 bd db d3 78 be 18 8c 8a bc fe c8 12 be
       -0.07154594 -0.24299566 -0.016912505 -0.14334485
0001e0 63 0f f6 3e c2 39 a9 be 0c 92 45 bd dd 7f 09 bc
       0.48058614 -0.33051878 -0.048234984 -0.008392301
0001f0 74 40 9b bd fa a6 1c 3f 6d f3 44 bd fe d5 0a bd
       -0.07580653 0.61192286 -0.04808371 -0.033895485
000200 85 f5 51 bf 44 aa 8a 3e 24 57 61 3c c9 e2 07 3c
       -0.8201526 0.27083027 0.013753686 0.008293816
000210 7c 88 04 3b c4 97 5f 3a 4a 92 4b 3b 22 dd 2b bc
       0.0020222953 0.000852939 0.0031062537 -0.010489734
000220 af 81 08 3f 44 05 5c bc 15 14 23 bf 00 aa b0 ba
       0.5332288 -0.01342899 -0.6370252 -0.0013478398
000230 97 25 75 3c c0 d7 e1 3c 70 e6 09 3a fc 47 7e bc
       0.014962575 0.027568698 0.0005260473 -0.015520092
000240 bd 78 f4 bc a6 2f a6 bd b2 a4 05 3d c8 0f b7 bb
       -0.029842729 -0.08114557 0.03262777 -0.005586598
000250 12 f3 3c 3c e2 f1 37 3e e7 e4 12 bd 29 6b d6 bc
       0.011532562 0.17963365 -0.03586283 -0.026174145
000260 6d f3 cb 3c ae a8 92 3d 03 8c 4b be db 74 75 bc
       0.024896348 0.07161079 -0.19877629 -0.014981474
000270 2b d9 03 be b8 52 cb 3e 81 d6 bf bd 4e 32 3b bd
       -0.12875812 0.39711547 -0.09367085 -0.04570227
000280 d7 c6 bb 3e 8a 94 32 3e 61 08 43 bc 6b b7 ce 3b
       0.3667514 0.17439476 -0.011903853 0.006308486
000290 f5 38 ac 3e b2 1b 7e bd 73 99 3c bc 21 bd e7 bc
       0.33637205 -0.06203813 -0.0115111945 -0.028288426
0002a0 fc 5d b4 be 17 cc 87 3e 51 8f 92 3e e6 2c aa ba
       -0.35227954 0.26522896 0.28624967 -0.0012983351
0002b0 17 64 ac 3c 5d e9 a2 3b b8 1f dd 3c b7 b7 4c bd
       0.02104382 0.0049716667 0.026992664 -0.04997989
0002c0 bf 10 a8 be 3c 50 a7 3d ee 59 33 3f ed 8e ca bb
       -0.32825276 0.081696 0.70059097 -0.006181589
0002d0 06 9b 8e 3c 6e 76 9c bc 3a 7b 0a ba da a1 14 ba
       0.017407905 -0.01909944 -0.00052826444 -0.000566987
0002e0 68 91 04 bd 67 39 35 bd 60 41 7f 3d ac be b4 be
       -0.032365233 -0.044244196 0.062318206 -0.3530172
0002f0 a9 84 de 3d a8 74 9c bd af 8d fd 3c d2 18 1a bc
       0.10865147 -0.07639438 0.030951349 -0.009405332
000300 06 34 24 3f fa dd 1b bd f7 aa 97 3e e0 a8 ad ba
       0.6414188 -0.03805349 0.29622623 -0.0013249181
000310 2e 84 36 bc fd e8 9c bb 79 09 35 3c 66 1a 0f ba
       -0.0111399125 -0.0047885166 0.011049622 -0.0005458951
000320 54 bd eb 3e c6 58 2d 3e 8c ef f9 bb 6f a4 0b 3b
       0.46042883 0.16928396 -0.007627433 0.0021307727
000330 55 d5 96 3e 4f e9 b9 bd 88 39 f6 ba 02 a9 e0 b9
       0.29459634 -0.09077703 -0.0018785456 -0.0004285053
000340 3f f5 3b 3a 6d 20 83 bc 0c f9 e8 ba db d6 99 3c
       0.00071700284 -0.016006673 -0.0017774417 0.018779209
000350 0a 42 80 3b 47 ee e8 3b 0d 54 7e bc 8b a5 8f bb
       0.0039141225 0.007108483 -0.015522969 -0.004383748
000360 64 5d c3 be da e4 2a 3c 4c 02 2f 3f 4b a6 aa bc
       -0.3815719 0.010430539 0.6836288 -0.020831248
000370 a5 8b d5 3b c3 f8 3b bb db 36 08 3c 36 4e 20 bc
       0.006516891 -0.002868221 0.00831386 -0.009784272
000380 81 bf 78 bf 30 7e 81 be c3 bf 00 bd b5 f6 b5 3b
       -0.9716721 -0.25291586 -0.03143288 0.0055530914
000390 25 78 86 3c 37 ae 4c bb df d7 1c bc bc d7 05 bd
       0.016414711 -0.003123177 -0.009572952 -0.032676443
0003a0 21 2f b2 3c b0 2a 48 bd 91 72 a7 bd f6 b8 6a bd
       0.021750988 -0.048868835 -0.08176149 -0.0573053
0003b0 18 5d f7 bd 5d 50 35 bd 41 9b 5e 3e 21 ce 64 3e
       -0.12078303 -0.044266094 0.21738912 0.22344257
0003c0 f3 25 ed bd b0 ce 69 3c d4 36 a9 3d 2e 5b 60 3c
       -0.11579504 0.01427047 0.08262411 0.013693614
0003d0 fe 6f 6b be 68 06 77 3d 24 d3 70 3e fb 31 fa bd
       -0.2299194 0.060308844 0.23518044 -0.12216564
0003e0 d8 df 09 bd 70 eb 05 3d 2c 9e f9 3d b0 6b 39 be
       -0.03366074 0.032695234 0.12188372 -0.18107486
0003f0 a3 c6 27 bd bd e6 d9 be a5 3f 15 3e d4 29 d6 3c
       -0.04096092 -0.42558852 0.1457506 0.026142992

bias f4 [128]
000000 cf 80 4c be 47 e4 2e be e1 7e e0 be dd 54 39 bf
       -0.19971012 -0.17079268 -0.438468 -0.72395116
000010 f0 dd 80 bf f3 b2 dc be 59 94 f2 be 7c 84 82 bf
       -1.006773 -0.43105277 -0.47378805 -1.0196681
000020 02 e6 07 bf 43 1d 13 bf 8c d2 27 bf fa 03 27 bf
       -0.5308534 -0.57466525 -0.65555644 -0.6524044
000030 70 3b 24 3d ef 71 32 bf ad 8a 2c bf 77 81 fb be
       0.040095747 -0.697051 -0.673991 -0.4912221
000040 38 47 d8 3e 8f 20 17 bf c2 98 29 3e 14 6a 05 bf
       0.42241836 -0.59034055 0.16562179 -0.5211499
000050 34 9d be 3e 35 f4 8b be a5 14 05 3d 45 15 1e bf
       0.3722931 -0.27334753 0.03249039 -0.61751205
000060 cb e1 11 3f e3 79 f4 be 1d 0a b8 bd 45 25 14 bf
       0.5698516 -0.47749242 -0.08986304 -0.5786937
000070 db 5b e1 be 82 e4 d6 be f0 45 33 bf 3d fa 63 bf
       -0.44015393 -0.41971213 -0.7002859 -0.8905371
000080 96 01 8d bf 68 86 4b bf 6b 10 6d be de 57 0b bf
       -1.1016109 -0.7950196 -0.23150794 -0.5443095
000090 d8 4f f8 be 53 12 b9 3a ec bb 8e bf bf 6e 06 bf
       -0.48498416 0.0014119841 -1.1151099 -0.52512735
0000a0 ce 50 2c be eb 77 e0 bd 5a 7f 0c 3e ed 68 04 bf
       -0.168277 -0.109603725 0.13720456 -0.51722604
0000b0 1c a9 55 be c1 00 2f be 9c ba 88 bf 6b 96 21 bc
       -0.20865291 -0.17090131 -1.0681949 -0.009862523
0000c0 9b 17 2c be 21 96 cb be f4 d4 d3 be 28 a9 13 bf
       -0.1680588 -0.39762977 -0.41373408 -0.57679987
0000d0 2b 20 35 3f f9 de 34 bf 4a b0 36 bf 46 8b 2e bf
       0.7075221 -0.7065273 -0.71362746 -0.68181264
0000e0 fc 13 4e be 21 48 95 be f9 07 12 bf 1d e1 29 be
       -0.20124811 -0.29156592 -0.57043415 -0.1658978
0000f0 3b c8 9a be 42 df c5 bd 7c 94 17 be 9f b3 61 bf
       -0.3023089 -0.09661724 -0.14802736 -0.88164705
000100 9b e1 3b bf 15 e0 6e bf ec 70 15 3e b7 3e 60 bf
       -0.7339112 -0.9331067 0.14593858 -0.87595695
000110 d4 0b 97 bf b8 fe 8b be 30 b9 62 bf 4b 8c 2c bf
       -1.1800485 -0.27342772 -0.88563824 -0.6740157
000120 1d 8a ef bd d0 e5 bb be f2 2e 8d 3e d1 3c 5c bf
       -0.11696265 -0.3669877 0.2757488 -0.860303
000130 92 f8 69 bf b6 ec e7 bd f5 a1 2f 3e 33 26 93 3d
       -0.91394913 -0.11324446 0.17151625 0.0718502
000140 c0 fd 06 bf 2d 43 9d bf a3 d2 88 3e 4f 1b 58 bd
       -0.5273094 -1.2286125 0.26723203 -0.05276042
000150 b6 1e 4d bf 19 58 a7 be 39 05 88 bf c6 76 32 bf
       -0.80124986 -0.326844 -1.0626594 -0.69712484
000160 3e b2 69 bd c2 1b 92 bf f3 e2 b0 bf a3 97 03 bf
       -0.05705475 -1.1414721 -1.381926 -0.51403254
000170 97 a1 81 bd 5e 3a 98 3e 34 48 f1 3c d4 a1 21 bf
       -0.06329649 0.2973203 0.029453374 -0.63137555
000180 10 9f 72 bf 18 72 82 be d3 10 e7 bd 79 03 97 bd
       -0.9477396 -0.25477672 -0.11282506 -0.07373709
000190 2d 61 31 bf b3 c2 b3 be dd 43 6c 3f 38 d7 43 bf
       -0.69288903 -0.3510948 0.9229105 -0.7650027
0001a0 d7 52 09 bf 42 b2 1d bf c2 db f8 be b2 af d6 be
       -0.5364203 -0.61600125 -0.48605162 -0.4193092
0001b0 19 92 46 bf 50 0c 10 be 9d ae 1a be e4 e3 ff bd
       -0.7756668 -0.14067197 -0.15105672 -0.124946386
0001c0 4e 30 28 be 72 1e b8 bd 14 1a 4b bf eb 40 c1 bd
       -0.16424677 -0.08990182 -0.7933667 -0.0943621
0001d0 cf e9 3d be c0 2c cf bd 05 74 3e bf 9a 13 52 3f
       -0.18546222 -0.10115957 -0.7439578 0.8206116
0001e0 77 5a 25 bf aa ad 48 be 69 07 a8 be a8 19 86 bf
       -0.64591163 -0.19597498 -0.32818154 -1.047658
0001f0 24 68 fc be a6 db d9 3d 3a e7 dd bd 61 20 c7 be
       -0.49298203 0.10637598 -0.108351186 -0.3889189

weight f4 [128, 128]
000000 ea f0 43 3e 8e 84 f0 3e 8c 33 f9 3d 48 fc 81 3f
       0.1913487 0.4697613 0.12168035 1.0155115
000010 26 ed 8d 3d 71 1f 66 3d 7e 4c 63 be b1 cb 36 3e
       0.06929998 0.05618233 -0.22197148 0.1785114
000020 26 8f 7f 3e 68 c6 5e bf ca bb 87 be 79 f6 a5 be
       0.2495695 -0.87021494 -0.2651046 -0.32414606
000030 44 9a 9b bf 8e cc 7c 3c af c5 4c 3e 06 41 84 3d
       -1.2156453 0.015429629 0.19997285 0.06457715
000040 83 4e 51 be 4f 84 c5 bf 59 a4 0a bf a8 c4 29 be
       -0.20440106 -1.5431002 -0.54157025 -0.16578925
000050 46 be 9e bd a3 6e f7 3d 29 1c 63 be 13 0f 30 be
       -0.077511355 0.12081649 -0.22178711 -0.1719325
000060 8d 29 ad bd 9f 7f c6 3d 9b 9b ea bd da fe 73 3f
       -0.08455191 0.096923105 -0.11455461 0.9531075
000070 a4 b7 7f 3c 7b 46 b0 be e7 95 a8 be 70 5b 8a 3e
       0.015607748 -0.34428772 -0.32926866 0.27022886
000080 1b 2a 3e 3d 13 44 8a bf 28 46 96 bf c0 bb dd 3b
       0.046426874 -1.0802025 -1.174016 0.0067667663
000090 6a c9 ba 3c d7 89 e9 bd dd 9e 61 3e 3b b2 99 be
       0.02280112 -0.11403244 0.22033258 -0.30018792
0000a0 09 cf 6d be 7a e7 7c bd cc 79 1d bd 6e f9 a8 be
       -0.23223509 -0.06174419 -0.038446233 -0.330028
0000b0 3c 8a 2d 3e 22 3e 13 3e 10 66 cd be 74 46 78 3e
       0.16947263 0.1437917 -0.4011693 0.24245626
0000c0 39 f7 ec bb 90 d7 09 bf 53 70 bd bc 7c 8c a2 3c
       -0.0072316197 -0.5384455 -0.02312485 0.019842379
0000d0 76 c5 f3 be c7 46 2c 3e f5 99 89 bd cc 1d 38 bc
       -0.47611588 0.16823874 -0.06718818 -0.011237573
0000e0 cd 10 86 bd 3f d4 e2 3f ab 3f d6 bd 65 2d 80 be
       -0.06546173 1.7721022 -0.104613625 -0.25034633
0000f0 2e 0a 09 bd b7 3b 25 be 0a 2a 7b 3f 41 18 35 bf
       -0.033456974 -0.1613606 0.9811102 -0.70740134
000100 17 f9 61 3e 99 d1 c0 3e 25 d8 98 bd 31 ad 61 bf
       0.22067676 0.3765991 -0.07463101 -0.88154894
000110 46 d5 99 c0 20 32 b3 3d 14 66 cf bb dc b9 22 be
       -4.8072844 0.08749795 -0.0063293073 -0.15891212
000120 35 0b 99 bd e5 32 8a bf c4 d0 40 3d 33 74 9f 3e
       -0.07472841 -1.0796782 0.047074094 0.3114334
000130 dd 75 02 3e 4f 40 a8 be 91 4b 9b be 8c 3d 85 3e
       0.12740274 -0.32861564 -0.3033109 0.2602352
000140 84 cb d5 bd 91 50 ac 3e cb 0a a7 bd e0 e0 97 be
       -0.10439208 0.33655217 -0.081563555 -0.29663754
000150 ff e4 a9 bc 5b 15 36 bf 91 0e 86 3f 94 9b 45 3d
       -0.020739077 -0.71126336 1.0473195 0.048244074
000160 9e 0f b2 bc c0 d4 99 3e 01 6a 2a 3f b7 a1 81 bd
       -0.021735962 0.30045128 0.66568 -0.06329673
000170 4c 4d 32 bd 95 7a 9a bf 2c 05 f4 3e 05 1d c1 3e
       -0.043530747 -1.2068659 0.47660196 0.37717453
000180 72 88 cd 3c cf db bd bd 36 c0 ec bd 44 7c b7 bd
       0.025089476 -0.09270441 -0.11560099 -0.08959249
000190 d6 89 5d bd 3f 60 16 3f c6 8b 24 bf 08 af 9e be
       -0.05408653 0.5874061 -0.6427578 -0.30992913
0001a0 ad 7b fd 3c 65 1c 35 bf 8e e6 27 3f 04 2c 9f 3d
       0.030942762 -0.7074645 0.65586174 0.07772067
0001b0 87 19 6c 3d c9 6b 31 be a3 8e 2b bf 1e 05 bf bd
       0.057641532 -0.17326273 -0.6701452 -0.09327148
0001c0 29 01 ed bd 30 22 23 3b b2 c1 68 3f 6d e1 c0 bd
       -0.11572487 0.0024892204 0.90920556 -0.094179966
0001d0 1b dd 30 be 91 c3 9f be 6c ef ee 3d 04 aa 9d be
       -0.17271845 -0.31203893 0.1166676 -0.30793774
0001e0 fc 43 03 3e fe f9 07 bd fc 6d f7 3f 43 ec e2 3e
       0.12818903 -0.033197396 1.933044 0.44320878
0001f0 7a 44 13 3d 64 00 b9 be 9b 86 1e be 21 cc a5 3e
       0.035953976 -0.3613311 -0.15481035 0.323823
000200 ed 5e 9a bf 91 06 1b c0 0f cd e7 be cf 53 d4 3d
       -1.2060219 -2.4222758 -0.45273635 0.10367548
000210 39 c1 e3 be ca 09 af 3e 67 92 6f 3e 59 ad 28 be
       -0.44483355 0.34187156 0.23395692 -0.16472377
000220 0b fa 63 3e 58 ae 96 3e 0d 1d 73 bd b1 3a 0c bd
       0.22263353 0.2942989 -0.059353877 -0.03423566
000230 4c bb 6b 3d 69 1e 87 bb 8c 46 cf 3e c4 27 4b bb
       0.057551667 -0.004123498 0.4048351 -0.0030999044
000240 8a 2c 29 3d 06 f9 bd bd d9 c7 0e bd 22 5a 56 3e
       0.04130224 -0.09276013 -0.03485856 0.2093282
000250 15 91 d7 3d 2f eb 60 3e 26 15 e6 bd c1 48 d2 3e
       0.10525719 0.21964715 -0.112345025 0.41071132
000260 6e cc 65 3e da 58 b1 bf 39 51 cd 3b 88 0e a2 bd
       0.22441265 -1.385524 0.006265786 -0.07912928
000270 23 d0 13 be ab b9 ba 3e 92 5b f9 3e f5 0d bc bc
       -0.14434867 0.36469778 0.48702675 -0.022955874
000280 93 98 3a bf 86 36 dc be 3d da a8 3e 8e 51 bc 3e
       -0.7288906 -0.43010348 0.32979003 0.3678097
000290 11 30 a2 3e 20 b1 f6 bc 50 da ba 3e ef 32 9c be
       0.31677297 -0.030113757 0.36494684 -0.3050761
0002a0 e0 61 45 3e 9e 80 94 ba d9 a5 dd bd a2 10 ec 3e
       0.19275618 -0.0011329835 -0.108226486 0.4610644
0002b0 99 88 ac bd 8b cf ca be 38 2c d8 3d e6 d7 a4 bd
       -0.084244914 -0.39611468 0.10555309 -0.08048992
0002c0 c8 6d 46 3e 20 b1 89 3e 6b bd 5c be 6e dd 59 bf
       0.19377816 0.26892948 -0.21556632 -0.851035
0002d0 33 66 8a 3e 4e 51 a1 3e 4e 0e 0b 3f 94 12 7c 3e
       0.27031097 0.31507343 0.543187 0.24616462
0002e0 11 e9 94 bc bd f5 5f 3c 96 54 ea bc 56 58 5c 3d
       -0.018177541 0.013669428 -0.028604787 0.05379518
0002f0 f2 be 70 be 77 94 7d 3e 58 67 94 bc c5 4d 39 3d
       -0.2351034 0.24763666 -0.018115684 0.045240182
000300 07 48 d1 be fb c4 89 be 26 93 66 3e 97 34 82 bf
       -0.40875265 -0.26908097 0.2251707 -1.0172299
000310 72 0f d4 bc 17 c0 77 be 6d 5d f7 be d2 84 59 3e
       -0.025886271 -0.2419437 -0.48313466 0.21242073
000320 3c 07 bd 3d 2d 89 d3 3d 98 2a 4f 3d 02 41 7a 3e
       0.092298955 0.103288986 0.05057773 0.24438861
000330 2a ab 18 3b 82 9e 93 bb 71 85 81 3d e9 61 9c bd
       0.002329538 -0.0045049796 0.0632428 -0.076358624
000340 2a b3 0c 3e cb 6d a6 be 9f 19 30 bd 6d 47 3b be
       0.1374022 -0.3250564 -0.042993184 -0.18288966
000350 b6 44 7a 3d e6 e2 8c bf 08 85 19 be 1f a5 7e be
       0.061100684 -1.1006744 -0.14992154 -0.24867676
000360 19 89 be be 04 24 a2 be 62 53 a5 be 94 95 84 be
       -0.37213972 -0.31668103 -0.3229018 -0.2589537
000370 64 63 ab bf bd 47 10 3d 82 d7 a0 3c 8d 73 2d 3e
       -1.3389707 0.035224665 0.019634012 0.1693861
000380 40 6d e0 3e 27 35 82 bd d1 74 d6 bc d8 86 05 3d
       0.4383335 -0.06357794 -0.02617875 0.0325993
000390 0a 18 05 3e fa 50 a4 3e 72 4f 45 3d d3 da 0f bf
       0.12997451 0.3209303 0.048171468 -0.56193274
0003a0 b3 0a 8c bd 15 10 90 be c2 f4 ec 3d 31 06 23 3d
       -0.06837978 -0.2813727 0.11570121 0.039800826
0003b0 2e ec ca 3d 18 91 02 3c a4 00 b9 bd c1 0f 7f 3e
       0.09908329 0.007969163 -0.09033325 0.24908353
0003c0 5e 63 1a be 85 73 0c be 13 60 1f 3e 7e c4 4f be
       -0.15076968 -0.13715942 0.15563993 -0.202898
0003d0 ec db cf bc 35 3d 61 3e 9f 00 f7 bb d1 e9 c3 3e
       -0.025373422 0.21996005 -0.007537916 0.38264325
0003e0 f9 4f 78 be df 84 4c bd 96 df 2b 3e 62 ea 0f 3d
       -0.24249257 -0.049931403 0.1678451 0.035135634
0003f0 91 38 19 be 22 71 85 3e db d4 08 3e 4d b7 d0 3e
       -0.14962985 0.26062876 0.13362448 0.40764847

bias f4 [128]
000000 8e cc e4 be b3 89 15 3f 05 22 2a 3f 64 bd 50 3e
       -0.44687313 0.5841324 0.6645816 0.20384747
000010 88 0f ec be 2c 70 d0 bd 68 22 e3 be e0 95 da be
       -0.461056 -0.10177645 -0.44362187 -0.4269247
000020 d6 19 b4 be 80 04 a1 be 39 d4 dc bc 5d d2 82 be
       -0.3517596 -0.31448746 -0.026956664 -0.2555112
000030 44 88 c9 3b b9 c6 a5 be ce 75 a7 be a4 c1 19 bd
       0.0061502773 -0.32378176 -0.32707065 -0.037538186
000040 0b 23 b3 be 6b 49 c0 be a6 83 8b 3d a3 89 c0 3d
       -0.34987673 -0.37556013 0.06812219 0.09401252
000050 17 ff b4 3c a3 da 91 be 41 29 fd bc d2 2b 89 be
       0.022094293 -0.2848712 -0.03090346 -0.26791245
000060 df 75 e4 3c ce c4 9f be 1a 32 e9 bd 05 d4 82 3d
       0.027888237 -0.31204838 -0.11386509 0.06388096
000070 65 cc 31 bd f6 9b 1f 3e 78 11 72 bd 9d d8 63 bc
       -0.043407816 0.15586838 -0.05909869 -0.013906625
000080 17 94 a5 3e 11 7a e3 be ba 87 d6 3e 56 ef dd 3c
       0.32339546 -0.44429067 0.41900426 0.027091663
000090 fa da dd 3e 2b ad 30 bf 61 bb 1f bf f9 51 92 bc
       0.43331128 -0.69014233 -0.6239529 -0.017861353
0000a0 03 a7 32 be 3c 1a 60 3e 04 57 2e 3c 27 e7 4d bd
       -0.17446522 0.21885008 0.010640863 -0.050269272
0000b0 e2 3b 56 3d af 1e e0 bd ba 19 bf 3c 5c 99 16 3d
       0.052303202 -0.109433524 0.023327697 0.03676735
0000c0 ab d9 d1 3d 7d b3 05 bd de ac 02 3d 75 43 68 bf
       0.10246595 -0.032641876 0.03190314 -0.9072793
0000d0 28 15 68 bf f9 96 5e be 32 68 2e bf d0 d9 46 3d
       -0.9065728 -0.21737279 -0.6812774 0.048547566
0000e0 d2 8c d9 3d a7 e9 57 be 84 cd bd bd 54 fe 40 3d
       0.106225625 -0.21085225 -0.092677146 0.047117546
0000f0 43 b6 16 3d 32 fc d8 3e 1b 1b c2 be a4 82 36 3d
       0.036794912 0.4237991 -0.37911305 0.044558182
000100 e5 7f c9 be 1a 46 25 3e c2 8e 8b be a8 fa 1f bf
       -0.39355388 0.16140023 -0.27257353 -0.62491846
000110 bd b9 87 bd 4f 85 35 3d cb 1d 8b 3e f8 e4 8c be
       -0.06627224 0.044316586 0.27171168 -0.2751844
000120 e0 a3 76 bd 7d a5 87 be 70 e7 fa 3c f3 d4 39 bf
       -0.060214877 -0.26493445 0.030627936 -0.7259056
000130 ec 19 9e bd 4e 73 8a bd aa 6d 3a bd 81 c8 cc 3c
       -0.07719788 -0.06760274 -0.04551474 0.024997951
000140 fb a1 26 bd bd 28 88 3e d7 d6 91 be e9 ab 5f 3d
       -0.04068182 0.2659358 -0.28484222 0.054607306
000150 f4 5e 2b be 64 e4 ef be 7e 8e ed bd bd 79 62 bd
       -0.1673544 -0.46853936 -0.11599444 -0.05529188
000160 0e f1 d2 bb 6e 41 a9 3a ae 52 ad 3e 4b fc 47 bf
       -0.0064374274 0.0012913176 0.33852142 -0.78119344
000170 fb c3 12 3d 66 a8 85 bd 44 d6 00 bd 3e ed 2e be
       0.035831433 -0.0652626 -0.03145434 -0.17082688
000180 92 fc 4a be da e0 11 3f 28 d2 9f 3e 96 ec 41 3e
       -0.1982291 0.5698372 0.31215024 0.18937907
000190 9d 67 66 bf f5 3f e5 3d 72 62 82 bd ac 73 9e be
       -0.9000185 0.111938395 -0.06366433 -0.30947626
0001a0 25 6d c9 be 14 f5 c7 3e 5b 4e 57 3d a6 ab 0a be
       -0.39341083 0.39054167 0.05256496 -0.13542041
0001b0 3b 85 03 3e 77 9e 3c bd 58 f8 24 3e cd fc 04 3f
       0.12843792 -0.04604956 0.1611036 0.51948243
0001c0 b0 ac e9 3e ff c4 41 3d 3a 73 c0 bd 2d d6 f8 bd
       0.45639563 0.04730701 -0.09396978 -0.12150226
0001d0 c1 57 cc bd af 09 0b bf d6 38 37 be 4a 42 0d be
       -0.09977675 -0.5431165 -0.17892775 -0.13794819
0001e0 65 a0 86 be d5 c2 7a bd 7e 39 07 bf 54 f3 a6 bc
       -0.26294246 -0.061220963 -0.528221 -0.0203797
0001f0 e1 a9 87 bd c9 bd 3f bd 2c 80 2a bf bd 7c fb be
       -0.06624199 -0.046811853 -0.66601825 -0.49118605

weight f4 [1, 128]
000000 45 74 25 3e 8d 74 53 bd 6c 29 07 be 2b 9a 60 bd
       0.16157635 -0.051624823 -0.13199395 -0.054834526
000010 8b 76 aa 3d d9 32 30 bd ea 68 fb 3d 12 a5 c4 3d
       0.083233915 -0.043017242 0.1227587 0.09601797
000020 b2 fc 8f 3d 5d ad 2e 3e c4 c0 e5 bd e0 68 e2 bb
       0.0703062 0.1705832 -0.11218408 -0.0069094747
000030 55 48 9d bc 58 bf 3d 3d a6 5c 2a 3e 5f 0b 7d bc
       -0.01919953 0.046325058 0.16636905 -0.015444606
000040 56 cb 86 3d 94 ee 96 3d 0d d1 8d 3b 62 ea e6 b9
       0.06581752 0.07369724 0.0043278993 -0.00044043647
000050 fc 56 70 3d 9c a6 cc 3d 17 cd 4d bd 81 03 d3 3d
       0.058676705 0.09992716 -0.050244417 0.10303403
000060 c7 c5 a9 bb ef 91 c0 3d 92 ca 23 bc 79 52 a4 bc
       -0.0051810476 0.094028346 -0.009997027 -0.020058857
000070 2a a6 9d 3e 59 d6 f6 3d 27 45 59 bd 1d 2f 87 bb
       0.30790836 0.12052602 -0.053044464 -0.0041254894
000080 b2 dd 35 bd 3f 4d 4a 3d e2 77 33 bd 08 54 ad bd
       -0.04440088 0.049390074 -0.0438155 -0.08463293
000090 dc 62 48 bd aa a5 ac 3e 86 fb 4b 3e 97 ef 3a 39
       -0.048922405 0.33720142 0.19920167 0.00017827596
0000a0 14 aa 10 ba ae 3f 2f bd 38 4c 90 3c 24 fa fd bc
       -0.00055185077 -0.04278534 0.017614469 -0.031003065
0000b0 27 9a 19 3c e0 f1 9c bd f6 8e aa 3c 16 98 5e bd
       0.009375132 -0.076633215 0.020820122 -0.05434426
0000c0 ac e7 08 bd da e5 24 bc 8e 07 6f bc ad e1 41 3e
       -0.033424065 -0.0100645665 -0.0145892035 0.18933745
0000d0 86 c2 23 3e 60 b6 a7 bd 3f 98 85 3e 4c bd f9 bd
       0.15992174 -0.08189082 0.26092717 -0.12194309
0000e0 a7 7c ce 3d 76 fa eb bc e2 dc b1 bc e4 60 73 bd
       0.10082369 -0.028805953 -0.02171177 -0.059418574
0000f0 53 be a9 3b e7 29 88 bd 17 2c c6 3d 6e 47 ef 3b
       0.005180159 -0.06648617 0.09676378 0.0073022163
000100 99 ef 9f 3c 8a d8 2d bd 29 80 49 3d 28 f3 26 3e
       0.019523429 -0.042442836 0.04919449 0.16303694
000110 9f ef 06 3b 73 47 5b bd bc 40 4a bd 41 67 7f be
       0.0020589603 -0.053534936 -0.04937814 -0.24941732
000120 8e af fb bd 10 ab b2 3e ef 40 9f bd e0 25 83 3d
       -0.12289344 0.34896135 -0.07776057 0.064037085
000130 e9 0f 4a ba 6f 8c 6f 3c c0 11 6f bd c2 2e 91 bb
       -0.0007708059 0.014620884 -0.058366537 -0.004430623
000140 7d 80 11 bd d5 50 11 be b8 48 a9 3d 95 3a d1 3d
       -0.035522927 -0.14190991 0.08265823 0.10216252
000150 32 6c 19 3e ee a6 8e 3d de 43 8d be 6f c7 e8 bc
       0.1498268 0.06965433 -0.2759084 -0.02841541
000160 0f aa a7 bd 79 30 f6 bb fc e8 8f be 7a da 9d 3d
       -0.08186733 -0.0075131026 -0.2810744 0.07707687
000170 d7 2f f2 3c 9d 73 06 bc c3 bc 9c 3a f4 ec 4c 3b
       0.029563827 -0.008206275 0.0011958111 0.0031269165
000180 98 ff b3 3c fe 9a 73 bd 01 e6 98 bd 3c d9 3e 3e
       0.021972463 -0.059473984 -0.07465745 0.18637556
000190 d5 28 08 3e 07 d9 2c 3c 01 80 3c be 5d bd ac 3d
       0.13296826 0.01054979 -0.18408205 0.08434556
0001a0 cb 8f dc 3d 33 45 5d be 60 a2 d5 3c 94 4f ef bb
       0.10769614 -0.21608429 0.026078403 -0.0073031876
0001b0 4f e7 83 be eb 68 5b 3c 1a 66 b2 3e b1 10 37 bd
       -0.25762412 0.013391714 0.34843522 -0.044693653
0001c0 07 e8 74 bd 57 4f 60 bd f8 07 d8 bc 3a 01 7d 3c
       -0.05979159 -0.054763164 -0.026370987 0.015442187
0001d0 b5 60 83 bc db af 25 3f 2d 83 a2 3d 04 83 00 3d
       -0.016037324 0.6472146 0.07935176 0.031374946
0001e0 7d e8 a5 3d e6 42 19 3b 93 4b d5 bc 04 2a 3e 3d
       0.08100984 0.0023385822 -0.026037013 0.046426788
0001f0 87 86 05 bd 34 6d d9 bc b8 0e 2c 3e f2 76 22 3e
       -0.032599 -0.02654133 0.1680249 0.15865687
