Dat/Nova pasta/models/CY_model_scripted.pt (torch, 82011 bytes, 5 tensors)

weight f4 [128, 8]
000000 71 77 8f be 72 a6 da be df 49 25 be 34 92 f5 3b
       -0.28020814 -0.42705113 -0.16141461 0.0074942354
000010 c9 be 33 bd 7e a4 a4 3e 1e 5c 36 3e cc a8 80 be
       -0.04388312 0.32156748 0.17808577 -0.25128782
000020 2d 72 84 3d e2 9d bb bd 81 1e 9c 3c d6 14 aa ba
       0.0646709 -0.09160973 0.019057514 -0.001297618
000030 22 23 b8 bd f3 74 22 be 5a e2 95 be fa 1f b3 3d
       -0.08991076 -0.15864925 -0.29274255 0.087463334
000040 15 0b 0e 3e 10 bd 10 bd c0 f2 b8 bb e0 d8 96 3c
       0.13871415 -0.035336554 -0.0056441724 0.018413961
000050 53 6f 5d bc a2 5a ac bd 24 d2 80 bd b6 b3 b3 be
       -0.013515311 -0.08415724 -0.06290081 -0.35098046
000060 a2 30 13 be 94 d7 db 3d cb 47 8e 3d 6d 92 19 bd
       -0.1437402 0.10734478 0.06947287 -0.037493158
000070 0f 28 e8 bb c4 b6 b6 3c 7f 3e 28 bd 4d 6e f8 bd
       -0.0070848535 0.022303946 -0.041075226 -0.12130413
000080 5c e7 4a 3c eb 44 bb 3e 4d ed 91 3e 32 eb bb ba
       0.012384262 0.36576018 0.2850136 -0.0014337061
000090 1b 53 df bc 2e 7a 47 3b 27 92 09 3c 45 19 1d bc
       -0.027261307 0.0030437815 0.008396662 -0.009588544
0000a0 4a 19 ba 3c d6 93 73 3e 96 90 3a bf 39 5d 8f 3c
       0.022717137 0.23786864 -0.7287687 0.017500507
0000b0 b9 7c 4b 3d db cb a0 bd 33 2c 8a bd f4 6a ad 3d
       0.04967949 -0.07851382 -0.067467116 0.08467665
0000c0 8d 61 db be b6 b6 86 be b4 6d 04 bd 4a ce 22 bc
       -0.42847863 -0.26311272 -0.032331184 -0.009936878
0000d0 eb 10 97 bc a3 36 ba bd f8 ee 07 3f ab 6a 7e bc
       -0.018440684 -0.090924524 0.5309901 -0.015528361
0000e0 35 e4 21 be 53 68 ef 3e db ff f5 3e 73 df 5b 3c
       -0.1580971 0.4675928 0.48046765 0.013419974
0000f0 05 ef 8a bc 4b d7 f2 3c bc fa 33 3d 3f 66 64 bd
       -0.016959677 0.029643675 0.04394029 -0.055761572
000100 c5 7b 81 3c 38 a0 1d bd 33 2f 46 bd 92 8e 7d bb
       0.015806088 -0.038482875 -0.048384856 -0.0038689715
000110 f0 37 1f 3d a5 a2 c0 bd 38 c3 a6 bc 1a 19 f1 3b
       0.038871706 -0.09406022 -0.02035676 0.0073577287
000120 dd 05 c4 3b 54 0c 19 3e c8 ae 01 3e 3c 8b 08 3e
       0.0059821443 0.14946109 0.1266433 0.13334364
000130 fd fd 61 3e 49 0b 91 bd b6 c3 80 3e 2f fd ee 3d
       0.22069545 -0.070822306 0.25149316 0.11669385
000140 ea 71 76 3f ca 32 00 3f 01 87 92 bb c3 47 1f 3c
       0.9626757 0.500775 -0.00447166 0.009721699
000150 3c 80 9a bb 49 5c e1 3a eb dd f2 ba 2c f1 06 b8
       -0.0047149938 0.0017193641 -0.0018529271 -3.21727e-05
000160 5a e9 39 be 28 81 6d 3e d4 1d 3d bd 71 a3 76 3c
       -0.18155423 0.231938 -0.046171024 0.015053616
000170 4c e4 d6 bd 64 3e 05 bd b3 0f 9e bd 30 87 c6 3e
       -0.10492763 -0.032530203 -0.07717838 0.38775015
000180 01 92 96 3e b2 ef d9 3e a5 ee 2f 3e 9d 6d 26 bc
       0.29408267 0.42565686 0.1718088 -0.01015797
000190 be 13 10 3d 43 bf a6 be 96 ff 34 be 19 5c 84 3e
       0.035175078 -0.32567796 -0.17675623 0.25851515
0001a0 a2 97 28 bd 30 33 d9 3d 84 13 8a 3c 7b 21 b6 bd
       -0.041160233 0.10605466 0.016855009 -0.08893105
0001b0 77 32 22 be 7a b9 0f 3d 61 ab 9a 3b 7b bb 51 3c
       -0.15839563 0.035088994 0.004720137 0.0128010465
0001c0 4d 00 27 bf 22 d1 24 bf f1 22 79 3b 05 f2 52 3b
       -0.65234834 -0.6438161 0.0038015211 0.0032187712
0001d0 b2 c4 41 3b 9c ba 85 3b 9c 04 1f 3b d4 76 96 39
       0.0029566702 0.0040810835 0.0024264222 0.00028698763
0001e0 ad 02 f8 3c b9 4c 74 3c 71 8b 8b bd 21 84 a7 3d
       0.030274713 0.01491087 -0.06813706 0.081794985
0001f0 3b 84 89 bd 80 f4 35 be 18 2c d6 3c 3a 80 45 3e
       -0.06714674 -0.1776905 0.026144072 0.19287196
000200 2b e6 d9 3c 6c 3c b9 3e ca 55 0e 3f 2b ff 62 3c
       0.02659901 0.3617891 0.55599654 0.013854782
000210 c5 19 78 3d 2d 43 76 bd 3e 0b 17 bd 10 17 02 3d
       0.06057145 -0.060122658 -0.036875956 0.031760275
000220 98 e1 a0 bd 4d e0 e8 3d 08 ca 2f bc 92 c0 36 3c
       -0.078555286 0.11370907 -0.01072932 0.011154311
000230 b9 63 e7 3c 92 af 5c be 37 b2 5b 3d d2 0a da 3b
       0.028245794 -0.2155135 0.053636756 0.006654122
000240 23 4f 34 3e 68 cb d9 be 8e 10 66 3e 42 0c 48 b9
       0.17608313 -0.42538 0.22467253 -0.00019078053
000250 07 95 68 bc 11 25 1b bd bb e7 7c 3c 3a 39 f8 3a
       -0.014195687 -0.037877146 0.015436108 0.0018937953
000260 28 b9 c1 be a3 c5 14 3e f9 ae fc bc 97 54 77 bc
       -0.37836576 0.14528517 -0.030845152 -0.015095851
000270 8f 38 e8 bc 55 17 45 3b 10 25 9f bc 40 03 cc 3e
       -0.028347282 0.0030073721 -0.019426852 0.3984623
000280 04 24 60 bc ca 68 13 3f b5 61 a0 3c ef 57 7b 3d
       -0.013680462 0.5758177 0.01957784 0.061363157
000290 ac be b4 3d 58 24 86 bd 7e 3a e8 bd 27 8f 29 3d
       0.0882543 -0.06549901 -0.113392815 0.041396286
0002a0 b3 46 06 be 01 2f 81 be ce 9a 51 3d 27 ec ba bb
       -0.13112907 -0.25231174 0.051173024 -0.005704421
0002b0 a0 0c 5b bb 60 ed 8a 3e 46 50 32 bd 7b ac 32 bd
       -0.0033424273 0.27134228 -0.043533586 -0.04362152
0002c0 b8 65 62 3d 18 42 ce 3e 53 03 03 3f dd 6e 71 ba
       0.055272788 0.402848 0.5117695 -0.00092099403
0002d0 ba 3c 9a bc 15 f4 01 3d 71 0d 04 3d 45 7b 81 bc
       -0.018827785 0.031726915 0.03223938 -0.01580585
0002e0 eb 8e 96 3b 4d 59 9a bd 6f 79 37 3f a3 e8 47 3b
       0.004594674 -0.07536564 0.7166967 0.0030503653
0002f0 b3 cb ea bb ef d2 82 bb 3f 32 89 bb 08 9f 66 3c
       -0.007165396 -0.0039924304 -0.004186898 0.014076002
000300 86 3f b5 3a 04 3d 93 3e 9f 7c 20 be 45 62 ce 3c
       0.0013828136 0.2875749 -0.15672539 0.025193343
000310 ab e7 6a 3e e9 17 bc 3d d3 6f 1b 3e 5b 07 3b be
       0.22939937 0.09184248 0.15179376 -0.18264525
000320 bf cf 83 bd c6 c8 56 3c a2 2f 7d 3c 7b ab d1 bd
       -0.06436109 0.013109392 0.015453251 -0.102377854
000330 aa 23 69 3d da 5a 40 3e e4 eb 63 be e6 01 7e bd
       0.056918778 0.18784657 -0.22257954 -0.06201353
000340 73 7c 18 be 6d 8a 14 bf 63 20 9c bc 18 95 19 bd
       -0.14891224 -0.5802372 -0.019058412 -0.037495703
000350 97 af bd 3c 43 98 bb 3c 60 6b 54 bd 7b fb d0 3c
       0.023155017 0.022899752 -0.051860213 0.02551054
000360 41 c5 68 39 57 74 e3 3c f3 e9 e2 bc cd af 91 3c
       0.00022198727 0.027765436 -0.027699446 0.017784024
000370 7b 8c 2b bc 37 aa dd 3c 93 36 0c bc 40 ca 89 bc
       -0.010470505 0.027058704 -0.008557933 -0.016820073
000380 ca 71 89 bc 19 e9 97 3d b5 90 99 bd 04 a8 01 3d
       -0.016777892 0.07417507 -0.07498304 0.031654373
000390 28 f0 08 be 38 fb e0 3c 8e 29 2a 3e 2a 05 08 bd
       -0.13372862 0.02746354 0.16617414 -0.03320805
0003a0 34 80 83 bc fa d0 a7 bb a5 d7 70 3c be 58 2e bc
       -0.016052343 -0.0051213475 0.014699851 -0.010641275
0003b0 3f ba 54 bd 32 4d 11 ba 7a 7b de bc 2a 90 56 3e
       -0.05193543 -0.0005542814 -0.027158488 0.20953432
0003c0 55 34 2c 3d 19 5c 05 3c 30 e0 05 be 7a ab 6d 3c
       0.042042095 0.008139634 -0.13073802 0.014506215
0003d0 da 61 09 3f 72 90 b2 bd e4 4b 6b bd fd 25 d1 bc
       0.53664935 -0.08718957 -0.05744542 -0.02553081
0003e0 b9 52 bb bb 3c d7 fa bd fa a5 d7 be 75 fb db bb
       -0.0057166484 -0.12248084 -0.42118818 -0.0067133256
0003f0 02 90 e2 bd e7 1c a6 3d 78 62 0a 3e 7d 53 01 be
       -0.110626236 0.081109814 0.13514125 -0.12629505

bias f4 [128]
000000 08 99 4a bd f3 64 29 bf 31 48 cf be 86 98 36 be
       -0.04946235 -0.6616966 -0.40484765 -0.1783162
000010 4e 2c e3 bd 28 a4 a8 be 24 be 66 bf 06 10 59 bf
       -0.11092435 -0.3293774 -0.9013388 -0.84790075
000020 ae 30 8a be bb 05 43 bf d9 a7 ad be ab da 19 bf
       -0.26990265 -0.7618062 -0.3391712 -0.60099286
000030 b9 8a 6c 3d 36 53 91 be d2 ff 3b 3d 7e d4 a6 be
       0.057749484 -0.28383797 0.045898266 -0.32583994
000040 56 82 9b be 63 c0 b8 3c c3 39 ec be 5b 49 3c bf
       -0.30372876 0.022552675 -0.4613782 -0.7354943
000050 8e 48 4b bf 62 ae 07 3e c5 ba 65 bf bb 92 59 bf
       -0.79407585 0.13250116 -0.8973811 -0.8498952
000060 63 73 2a bf 74 e5 27 bf 31 38 3d bf 9b 2e 39 be
       -0.66582316 -0.6558449 -0.73913866 -0.18084185
000070 bd c2 15 be 29 ce d7 bd 23 cd 3f bf f8 8e e7 be
       -0.14625068 -0.10537369 -0.7492239 -0.45226264
000080 34 73 ff be 25 4d 2d bf 76 02 ae 3e ee 85 d2 be
       -0.4989258 -0.6769584 0.33986253 -0.41117805
000090 53 7f 0f be 69 87 2d bf fe 35 06 3f ea 5d 37 bf
       -0.14013414 -0.67784745 0.52426136 -0.71627676
0000a0 53 64 a8 3e 24 72 95 be 82 0e e4 be 55 a5 3c bf
       0.3288904 -0.29188645 -0.4454232 -0.73689777
0000b0 88 33 52 bf 07 32 86 3e cf 70 f3 be 2c f2 7d be
       -0.8210988 0.26210043 -0.47547004 -0.24799412
0000c0 e3 29 71 3e b7 16 fc 3e 92 1b 86 3c 93 43 c9 3c
       0.23551135 0.4923608 0.016370568 0.024568355
0000d0 35 64 54 be 30 2a ab be a7 83 f7 3e 86 97 e6 bc
       -0.20741351 -0.33430624 0.4834263 -0.028148424
0000e0 b1 6b 0d 3e b3 4e b7 be 51 8b 1e bf 7d 50 55 bf
       0.13810612 -0.3580223 -0.6193133 -0.8332594
0000f0 7a 4a 1e bf ad 35 07 3f 2a 9f 0c bf 99 8e 06 3e
       -0.6183239 0.5281628 -0.54930365 0.13140334
000100 3f 30 b8 be 25 60 2c bf aa 53 2d bf 6f 0f a9 be
       -0.3597431 -0.67334205 -0.67705786 -0.33019587
000110 3c 55 34 be 5b 4c 07 bf a7 1a 4d bf fb 15 f6 be
       -0.1761064 -0.52850884 -0.80118793 -0.48063645
000120 fc df 45 3e bf a8 1a bf 09 07 47 bf c6 42 5d be
       0.19323725 -0.60413736 -0.7774511 -0.21607503
000130 0c 67 59 bf d0 c0 51 3d d0 27 24 bf bf a8 b2 be
       -0.8492286 0.05120927 -0.6412325 -0.34894368
000140 56 2c b9 be de c8 fd 3e a6 73 9b be c8 7c a4 bd
       -0.36166638 0.49567312 -0.3036167 -0.08031613
000150 04 f4 64 bf 13 6a 9e 3e de e3 c4 be 75 c0 67 be
       -0.8943484 0.30940303 -0.384551 -0.2263201
000160 0e 74 15 bf bc 99 7c 3d 19 f3 de be fc bd f4 3e
       -0.5838021 0.06167005 -0.43544844 0.47801197
000170 c0 fb 8e be f6 b9 5a bf 63 bc 48 bf dc 0d b9 3d
       -0.27926445 -0.85440004 -0.78412455 0.090358466
000180 05 26 27 3f e1 eb 27 bf a5 09 35 bf ca f6 4a bf
       0.6529239 -0.655943 -0.7071784 -0.7928282
000190 1e c4 2c bf 15 bd 26 be 6b f3 17 bf 81 ea 99 be
       -0.6748675 -0.16283067 -0.593558 -0.30061725
0001a0 af 35 02 be 1e f7 80 bf b8 f8 18 bf 53 b3 fb be
       -0.12715791 -1.0075414 -0.59754515 -0.4916025
0001b0 60 66 b3 be 30 7a c9 be f0 50 40 3d 0a 83 a5 be
       -0.35039043 -0.39351034 0.046952188 -0.32326537
0001c0 88 a9 8d be 8e b7 29 3e ce 8a 18 bf 9c 5f 38 bf
       -0.27668405 0.16573927 -0.595868 -0.7202089
0001d0 84 23 f6 be 77 81 43 be 21 48 7a bf 95 90 4e 3e
       -0.4807397 -0.19092356 -0.9776631 0.20172341
0001e0 42 2a 8b be e5 fd 44 bf 60 97 b1 be fb 79 70 bf
       -0.27180678 -0.7694991 -0.34685802 -0.9393613
0001f0 71 1c b4 be 56 48 3e be 1f a1 57 bf 11 bb 45 bf
       -0.3517795 -0.18582281 -0.84230226 -0.77238566

weight f4 [128, 128]
000000 19 d6 c3 be 0a 49 ce bd 72 8f 55 be 7b 69 08 3e
       -0.3824928 -0.10072525 -0.20855501 0.13321488
000010 7e d0 25 3e c0 92 d7 3e 18 91 42 bd 0c ea 28 3f
       0.16192815 0.4210415 -0.047501653 0.6598213
000020 ad 70 6d be a4 3d 3d 3e 22 05 42 be 62 e3 0a 3e
       -0.23187514 0.18480545 -0.1894727 0.13563302
000030 f4 8e 78 be 02 df 7a 3e 9f 7d 10 bf 40 77 33 be
       -0.24273282 0.24499133 -0.5644168 -0.17525959
000040 6d a1 58 3e 8d e6 84 3d 33 dd 7a ba da b8 8b 3e
       0.21155329 0.064892866 -0.00095697044 0.27289468
000050 27 0d 4d 3e 84 f4 d0 be 2a 5e 28 3f c4 82 bb 3d
       0.20024548 -0.4081155 0.6576868 0.09155801
000060 04 48 d5 3d 41 3d 6b 3d 4d 15 4f be 58 2a 68 bc
       0.104141265 0.057431463 -0.2022297 -0.014170252
000070 e9 5f be bd b3 65 c9 be ec 24 3e 3f 7f 0c 18 bf
       -0.09295637 -0.39335403 0.7427509 -0.5939407
000080 5e 29 cb be 3f 9b ac be 5a 4e 3c bd 8e b4 92 bd
       -0.39679998 -0.33712193 -0.04597316 -0.07163344
000090 a9 c6 fd bd 12 64 a7 3e ba 71 0e bf be 9d 11 bd
       -0.12391407 0.32693535 -0.5564228 -0.035550825
0000a0 ee 53 e6 3c e7 8d 0d 3d c7 d7 e1 bd 93 5c b5 3e
       0.028116193 0.034559157 -0.110274844 0.3542219
0000b0 4c 56 44 be d7 91 c2 3d f2 3d 5e 3c 33 ab 7c 3d
       -0.19173545 0.09500473 0.013564574 0.061686706
0000c0 be 9c d3 be ed ab 1b be b7 c9 0f c0 42 76 a7 bf
       -0.41330522 -0.15202303 -2.2466867 -1.3082964
0000d0 ae 75 f8 bd 50 33 32 3c f6 2d 6f be 44 0b eb 3d
       -0.121318206 0.010876492 -0.23357376 0.11476758
0000e0 8c 0c 6a be f3 26 a8 3d 35 6c e8 3e 39 f1 b5 3e
       -0.22856349 0.08210554 0.45395055 0.355356
0000f0 da fe 44 bd 2d 0c c1 be 49 85 ac 3d 5b d8 e2 3d
       -0.048094608 -0.37704602 0.084238596 0.11076423
000100 ca 94 a5 3e ff 8c fe 3e 3a 02 9e 3e 67 d9 d3 bd
       0.3234008 0.49716946 0.30861074 -0.103442006
000110 96 ba ae 3d 8f 26 a4 3d 46 be 80 3e 56 46 87 3e
       0.08531682 0.08015167 0.25145167 0.2642085
000120 4f b1 08 be c0 95 00 be ed 99 11 3c bc 34 60 be
       -0.13348888 -0.12557125 0.008886796 -0.21895117
000130 8a ff 51 3e 6e 0e 0a bd 39 56 5f bd 29 fb 2b 3e
       0.20507637 -0.033705167 -0.054525588 0.16795029
000140 09 62 b3 bd 57 fd dc be 6b 0d 41 be a8 67 09 be
       -0.08758933 -0.43162033 -0.18852775 -0.13418448
000150 d3 fd 20 3e d6 57 47 bf 5a d6 25 3e 6e fb 28 bd
       0.15721826 -0.778684 0.1619505 -0.041255407
000160 49 d8 bb be b0 8a 86 bf af 13 3b 3e a5 87 e0 bf
       -0.3668845 -1.0511074 0.18269227 -1.7541395
000170 ca 86 5c 3b 53 d5 b1 be e6 11 91 be ad 01 87 bb
       0.0033649676 -0.34733066 -0.28333968 -0.004120073
000180 f1 9d 86 bf 5d c6 f0 3e c1 7d 58 be 6b 4a 7a bd
       -1.051695 0.4702634 -0.21141721 -0.061106127
000190 91 a1 ef bd f5 72 99 bd b9 b9 87 be 20 bc e1 be
       -0.11700738 -0.074926294 -0.26508883 -0.4408884
0001a0 73 71 34 3d 52 97 cc 3e 71 63 c1 bf 78 12 9e 3e
       0.044053506 0.39959198 -1.5108472 0.30873466
0001b0 8b 6d 54 bc 28 07 5f bd f4 cf 3c 3e 0d aa 4b 3e
       -0.01296557 -0.054450184 0.18438703 0.19889088
0001c0 df b1 e2 be 20 44 48 be 21 05 80 be d3 bf b9 3e
       -0.4427633 -0.19557238 -0.25003913 0.36279163
0001d0 aa 5a 12 bf 56 4a 6c 3e 5e 9c 20 3f 3c 0d 03 be
       -0.5716959 0.23075232 0.627386 -0.12798017
0001e0 b5 31 5f 3d 57 77 84 3b bb 8f ff 3d c8 28 cc 3e
       0.054490764 0.0040425467 0.12478586 0.39874864
0001f0 ae fa 32 3e 1e 01 06 3c e1 4f 1c 3e c9 8b b4 bc
       0.17478439 0.008178977 0.15264846 -0.022039311
000200 35 c5 74 3e 6a d1 a2 bd 19 ac 18 3d 76 9b 5f 3d
       0.23903354 -0.07950099 0.0372735 0.05459162
000210 42 a2 4d be cf ad 06 be a6 7a 4f bd 95 8f 1c be
       -0.20081428 -0.1315224 -0.050654076 -0.15289147
000220 b5 ba 6a 3b 64 f7 38 3e 9a 44 20 3d 42 10 15 3d
       0.0035816852 0.18063122 0.039127924 0.036392458
000230 95 e8 45 be a7 d7 f0 3b 8b 44 bf 3e 69 0a 82 bd
       -0.19327004 0.0073499265 0.37356982 -0.06349642
000240 ee 4a 92 be b9 a8 2f 3b cb 29 e1 be a5 80 58 3e
       -0.28572792 0.0026803447 -0.43977198 0.21142824
000250 7e f4 44 3d d1 ad 70 3e 6e de a7 be f8 49 f7 3d
       0.04808473 0.23503806 -0.32786888 0.12074655
000260 d2 9f 8f bc 13 ec 95 be 94 a0 a9 3e 7a e6 bf 3c
       -0.017532263 -0.29281673 0.33130324 0.02342533
000270 9c 1d 88 bd c1 7d 00 be cf 23 cd 3d 76 16 84 bc
       -0.066462725 -0.12547971 0.100165956 -0.016123991
000280 f3 64 43 3d f4 b3 47 be 18 49 b1 3d 0a 35 a5 bd
       0.047703695 -0.1950224 0.0865652 -0.08066757
000290 ac 75 0b be 49 ad 8a bd 26 6e ad be 85 5b ab 3e
       -0.13619107 -0.06771333 -0.338731 0.3346826
0002a0 8c 61 8c 3d 7e f1 f9 bd eb f8 32 bd 98 6b 0e 3d
       0.06854543 -0.12204264 -0.043694418 0.03477058
0002b0 07 a1 0f 3e 5f e1 db 3d e2 7d 2f be b1 e3 13 3e
       0.14026271 0.107363455 -0.17137864 0.14442326
0002c0 29 4c a6 3d 0d 7c 26 3e 0f d4 1e be 6e 34 4c 3e
       0.08119995 0.16258259 -0.15510581 0.19941875
0002d0 be 67 25 bc 68 96 97 be 2f 6a bc 3d af 35 52 be
       -0.010095535 -0.29606938 0.091999404 -0.20528291
0002e0 54 be 4a 3d bb 5f 7f be 66 04 64 3e 5a a9 04 bf
       0.049497917 -0.24938862 0.22267303 -0.5182091
0002f0 4a 6f a4 bd 5a 2a 8a be d3 32 af bd bf 21 1f 3e
       -0.08029039 -0.26985437 -0.08554616 0.15540217
000300 50 e2 1e 3e 8d 19 6a 3e b5 b0 40 bc 09 35 36 3d
       0.15516019 0.2286131 -0.01176088 0.044484172
000310 4a 24 cd 3e ee 47 0a be da e9 93 3d f2 2a 94 3e
       0.4006675 -0.13504001 0.07222338 0.28939015
000320 a2 bb ae be 42 5c c6 bc d3 89 a5 c0 89 01 43 be
       -0.34127527 -0.024213914 -5.1730742 -0.19043554
000330 74 4f cb 3c 70 4d a1 bf 66 ce 99 bb e0 1d 8b bd
       0.02481816 -1.2601757 -0.004693794 -0.067928076
000340 a9 ef 38 bb 72 fc d7 3d 26 9f 55 be 9c 1a 76 3e
       -0.002821902 0.10546197 -0.20861492 0.24033588
000350 ef 44 c2 3a 5b 92 25 bd 18 47 d9 3c 15 5f ad 3c
       0.0014821569 -0.04042278 0.026523158 0.021163503
000360 53 89 81 3e fb b4 cb bf 85 73 44 3e cf b7 5c 3e
       0.25300083 -1.5914606 0.19184692 0.21554492
000370 d8 ec 17 3e f6 04 28 3f 2e 7b 94 3e f7 f4 b1 bd
       0.14836442 0.6563257 0.2900023 -0.086893015
000380 8a 69 cd bf a1 ac a2 3d a7 88 a1 3d 07 4c b4 3e
       -1.6047833 0.079430826 0.078873925 0.35214254
000390 09 89 8c bb 4d 73 90 bd 3d ce 42 3c 04 c1 7b 3d
       -0.004288797 -0.07053242 0.011889991 0.06146337
0003a0 37 f5 4c bd 10 55 9c bd 5e 4f fd 3c 08 20 4b 3e
       -0.050038543 -0.07633412 0.030921634 0.19836438
0003b0 9e 59 86 be 5c 08 59 bd 8c a4 19 be 14 08 d0 3e
       -0.26240247 -0.052986488 -0.15004176 0.40631163
0003c0 d8 7c e4 bc 5b 52 00 3d b5 e4 60 3c 44 a2 4a 3e
       -0.027891561 0.03132854 0.013726403 0.19788462
0003d0 91 66 1f be 8c e1 42 bd d6 da 12 3f df 9f 83 3e
       -0.1556647 -0.04757838 0.5736517 0.2570791
0003e0 ff 9d 06 bc bd 79 97 be 93 db 2f 3e 3b dd ef 3e
       -0.00821638 -0.29585066 0.17173605 0.46848473
0003f0 29 83 a2 bd 40 6f f9 be f9 3b 5c 3b cc de 56 be
       -0.07935173 -0.4871769 0.0033605082 -0.20983428

bias f4 [128]
000000 c3 1d 0f bf e4 2d f2 bc 24 a8 9e bc e3 a1 fb 3b
       -0.5590479 -0.029562898 -0.019367285 0.0076792105
000010 3f 71 2a 3d 30 f8 32 bd 94 6f b8 be 22 20 0e 3e
       0.041611906 -0.04369372 -0.36022627 0.13879445
000020 d7 03 c3 3c 6c b5 bc 3d 2d 93 fa bd f4 80 5f bd
       0.023805542 0.09214291 -0.12235103 -0.05456634
000030 90 a3 1a bc 10 5a ad 3d d1 9d 06 bd 05 98 31 39
       -0.00943841 0.08464444 -0.03286535 0.00016936667
000040 c4 85 e2 3d 90 f2 1f bf 6a 09 41 be 40 43 04 bf
       0.1106067 -0.62479496 -0.18851247 -0.51665115
000050 2d 64 a0 3b ab 67 1f be d7 bc f9 bb 00 d0 b9 3d
       0.0048947544 -0.1556689 -0.0076213884 0.09072876
000060 ed 21 b1 be 4a ff 1b be 7f 92 3c be cc 5f 3b 3e
       -0.34596196 -0.15234104 -0.18415259 0.18298262
000070 22 fc a3 3c 0f f9 78 be d7 3c 16 3d e5 0c 88 bc
       0.020017687 -0.24313758 0.036679115 -0.016607711
000080 70 11 ad bd 45 ea 0b bf f0 18 11 bd 96 8d a2 bd
       -0.084505916 -0.5465434 -0.035424173 -0.079371616
000090 1c 9a 0d 3c d6 b7 fc be d5 92 51 bd e1 cc 41 bd
       0.0086427 -0.49359006 -0.05116542 -0.04731453
0000a0 80 47 db bc 0b 6d a5 bd fb 29 0c 3e b8 e3 20 3c
       -0.026767492 -0.08077439 0.1368789 0.009819917
0000b0 6a c7 4e 3e b6 d1 c8 bb 1e 49 64 bc 70 48 f7 be
       0.20193258 -0.006128515 -0.013933448 -0.48297453
0000c0 53 6f d6 bd e0 b0 69 bc 73 f0 0c 3b 89 ac d4 3d
       -0.10470452 -0.014263362 0.0021505624 0.10384471
0000d0 73 5c 4b be bf 46 11 bf dc 34 56 be 41 87 78 bd
       -0.19859485 -0.56748575 -0.20918602 -0.060675863
0000e0 b4 44 f1 bd a9 34 fc bd 7e 3c 76 bd 0e ef 03 bd
       -0.11780682 -0.12314732 -0.060116284 -0.032210402
0000f0 5a 53 59 bd 69 2f 0b bd b2 9a 92 3e 0d a8 ee 3b
       -0.053058006 -0.03398076 0.28633648 0.007283217
000100 5a 58 8a bd bb 39 00 bf db 22 45 bd a3 04 02 bf
       -0.06755133 -0.5008809 -0.048128944 -0.50788325
000110 a8 63 79 3e c0 4d 0e 3d a5 5e 11 3e 29 81 0c be
       0.24354422 0.034742117 0.1419626 -0.13721146
000120 c5 27 31 3d 1d 8d e3 bd c8 42 b7 bd a2 2e 88 be
       0.043250818 -0.111108996 -0.089482844 -0.26598078
000130 97 a7 1d 3e bb f9 a9 bd 8d 24 2c bf 86 f2 27 3c
       0.15395962 -0.082995854 -0.6724327 0.010250693
000140 ea 22 4f 3d 31 72 f5 bb 07 c6 87 bd b2 ef 21 bf
       0.050570406 -0.0074904193 -0.066295676 -0.6325637
000150 dc fb 12 be ee d2 2d bf a0 e1 46 bd 8c 17 f8 bd
       -0.14353889 -0.6789998 -0.048555017 -0.12113866
000160 67 55 1a 3b ac 7c b8 bd c7 45 f2 bd 44 ba b0 3c
       0.002354944 -0.09008154 -0.11829715 0.021573193
000170 8e bb a4 bd f6 fb d8 3d 80 e0 99 bd 60 1d c4 bc
       -0.08043586 0.10594933 -0.07513523 -0.023939788
000180 c8 ea cd 3d cc 99 4b 3e 45 7f 9d be b8 1f 1b bf
       0.100545466 0.19882888 -0.3076116 -0.60595274
000190 95 33 af bd a6 81 74 3c 08 43 10 3e 67 fc 48 3e
       -0.0855476 0.014923489 0.1408807 0.19627534
0001a0 80 08 f3 bd cd a3 81 bd 06 51 29 bd a0 a1 e4 bd
       -0.118668556 -0.06330071 -0.041337036 -0.1116364
0001b0 02 1b 66 3e 31 02 0d bf e0 e2 7c bc 5c b8 9d bb
       0.2247124 -0.5508147 -0.015434951 -0.004813237
0001c0 f3 2a c1 3d c2 a1 4d bc 3c 0d 34 be 2e ba be be
       0.0943202 -0.012550773 -0.17583174 -0.3725142
0001d0 5f 57 d2 bd 6d d1 c4 bd 1e 3e e0 bd 3e 75 b3 bd
       -0.10270571 -0.09610257 -0.10949348 -0.087625965
0001e0 63 f0 df bd 3f d6 9d bc fb a6 c5 3d cc 0e fa bc
       -0.10934522 -0.0192672 0.096509896 -0.030524634
0001f0 79 9a 7d 3e 3b 97 ea be d8 51 93 bd 97 91 50 bd
       0.24765958 -0.45818505 -0.07193345 -0.050920095

weight f4 [1, 128]
000000 d6 2e 8f bd 81 f5 1a 3e 81 26 1c bd cd f5 41 bc
       -0.06991355 0.15132715 -0.038122658 -0.011838389
000010 7c 05 ab 3d 1b e9 a7 3c 59 a4 83 3c 37 d0 1a bd
       0.083506554 0.020496896 0.016069578 -0.037796225
000020 b5 fd c8 bc da 44 ee 3c 2c 4d 4d 3c d3 e9 e3 3a
       -0.02453504 0.029085565 0.012530606 0.0017388411
000030 7d 0c 24 be c2 26 c5 bc 22 4f de 3c 0b 8d b9 bc
       -0.16020389 -0.024066333 0.027137343 -0.022650262
000040 b2 ac bf bc d5 c7 6e 3d 78 34 05 3d 47 3b 28 3d
       -0.023397777 0.058296043 0.03252074 0.041072156
000050 d1 f6 c2 bd f3 71 65 bc c7 35 37 3c c9 28 89 3c
       -0.09519733 -0.014004218 0.011182255 0.01674308
000060 26 e1 1d 3d 2c 45 19 3d 8c 76 db 3d 2f 40 0c bd
       0.038544796 0.037419483 0.107159704 -0.034240898
000070 cb f2 8b 3b 9c 42 1b 3d ef 4f 04 3c 1b 06 bb 3b
       0.0042708865 0.03790532 0.008075698 0.005707515
000080 57 01 a3 3c 1d b6 55 3d 69 d9 3f 3c 40 9d 2d 3b
       0.0198981 0.05217563 0.011709549 0.0026491433
000090 58 34 b7 bd 14 f5 43 bd 9e fe 47 3c 66 b8 aa 3c
       -0.08945531 -0.047841147 0.012206702 0.020839881
0000a0 84 58 86 bc 8e e5 88 39 0a e3 2e bd 18 16 8a bc
       -0.01639963 0.00026110973 -0.04269699 -0.016856238
0000b0 bf 07 2c 3d b7 a8 33 3b 7e 52 cc 3b 40 e1 61 bd
       0.041999575 0.0027413794 0.00623542 -0.055146456
0000c0 71 f4 26 3e 0a c9 c8 3c c9 1e 98 ba fa aa 4d bd
       0.16304184 0.024509925 -0.0011605854 -0.050211884
0000d0 1e 08 23 3d ec 90 7c bd 1c 3b 94 3c d7 49 8e bc
       0.039802663 -0.061661646 0.018094592 -0.017369194
0000e0 86 6f 09 3c 29 e1 94 3c ad 94 5b ba 7f de 7c bc
       0.008388406 0.018173771 -0.00083763414 -0.015433907
0000f0 c2 9f f3 bb 9c 1c 03 bd 23 5e 12 3d c2 88 b3 3c
       -0.007434816 -0.032009706 0.035734307 0.021915797
000100 8e 57 c8 3c c8 30 31 bd 7c b0 b0 bc 44 47 50 3d
       0.024455812 -0.043259412 -0.02156853 0.050849214
000110 d9 1e c9 3d f0 4f 1f bd b7 fb 26 bd 22 67 c6 3b
       0.09820337 -0.038894594 -0.040767398 0.006054775
000120 95 b9 14 3c 65 53 e3 3a 07 ca e7 3d 81 a8 75 bd
       0.009077449 0.0017343579 0.113178305 -0.05997515
000130 9b ea b8 bd 75 3f ad 3c ea 77 7f bd 8e 65 a2 3d
       -0.090291224 0.021148423 -0.06237022 0.07929526
000140 ad d6 f9 bc c5 5d de 3c a6 3c e3 bc fb c6 29 3d
       -0.030497873 0.027144322 -0.02773888 0.04144953
000150 4b 1d 7d bd 7e 9b 23 3d cd b6 24 3c 6f cb 14 3d
       -0.061795514 0.03994321 0.010053349 0.036326822
000160 23 2e b8 39 6b c7 02 bd d7 48 e3 bc 07 72 5d 3c
       0.0003512959 -0.03192846 -0.027744694 0.013515956
000170 cc 38 f9 3c 0b 19 18 3d d4 af b7 bc 94 73 12 3b
       0.03042259 0.037133258 -0.022422709 0.0022346722
000180 75 8d ea 3c 1e 2a e9 3d f6 46 c4 3c bf b1 77 3d
       0.028631905 0.11384986 0.023959618 0.060472246
000190 fb 62 97 3c 21 f7 f0 bb 7c c9 35 bd 7a c0 ff bd
       0.018479815 -0.007353679 -0.044381604 -0.12487884
0001a0 4c 4d 98 bc 3b 06 15 bc 57 08 4f b8 b2 83 0c 3d
       -0.018591546 -0.009095724 -4.9360413e-05 0.034305282
0001b0 94 82 a8 3c ec 30 49 bd 53 73 a1 bc f8 db 92 3c
       0.020570077 -0.04911892 -0.019708311 0.017927155
0001c0 65 4c e0 bc c3 d2 aa 3c 0b 0b 65 3b e8 a9 6f bd
       -0.027380178 0.020852452 0.003494921 -0.058511645
0001d0 8a 2d bd bb bb 00 dc 3c 3c 8e d9 3c 3d 42 46 39
       -0.005773251 0.026855817 0.02655708 0.00018907427
0001e0 06 32 a8 bd e8 cc 99 bc 8f 20 88 3d 79 0c eb 3c
       -0.08212666 -0.018774465 0.06646835 0.02869247
0001f0 30 05 2e bd a8 95 2c 3d 26 7e 6c 3c 62 7d 17 bd
       -0.042485416 0.04213491 0.014434373 -0.03698481
