Dat/Nova pasta/models/CYB_model_scripted.pt (torch, 82036 bytes, 5 tensors)

weight f4 [128, 8]
000000 be 58 29 3d 06 50 04 3e d1 0a 3d 3e 35 08 4b bd
       0.041344397 0.12921152 0.18461157 -0.049568374
000010 b4 43 92 3b 91 82 cc 3d 47 da 07 bf 02 e9 e6 3d
       0.0044636372 0.09985841 -0.5306744 0.112749115
000020 74 3c 9c 3d 2a 23 8b 3e 7a 75 15 3e 82 8c e8 ba
       0.07628718 0.27175266 0.14595595 -0.001774207
000030 21 e0 10 3f 96 a2 9c 3e ec 9c 3a 3e b5 97 06 be
       0.56591994 0.30592793 0.18223923 -0.13143809
000040 cf 12 8e bc 36 06 cf 3e ef c2 33 3f 23 1c f8 3c
       -0.017342953 0.40434426 0.7021932 0.030286854
000050 04 cc 51 bd f2 7e 5f bd 31 f7 10 3d a0 75 6e 3b
       -0.051219955 -0.054564424 0.03539199 0.0036386028
000060 fc a2 76 be 06 10 16 3e 85 e2 00 be 2b cd ac bb
       -0.24085611 0.1465455 -0.1258641 -0.0052734814
000070 72 71 4a bd 25 4f fd bc 1d ae 72 bd f0 df d8 3e
       -0.049424596 -0.030921528 -0.05924808 0.4235835
000080 ed 59 22 be 62 1d c3 be 0c f9 d9 3e 36 8e 9e bc
       -0.15854616 -0.38108355 0.4257282 -0.01935492
000090 7c 53 36 bc 48 9b 36 bc 74 d2 bd 3b 96 3f 03 b9
       -0.011128303 -0.01114542 0.0057929102 -0.00012516821
0000a0 ab ca cc bf d2 8b 79 bf 7d 2f 1e 3d 4c 48 2e bc
       -1.5999349 -0.97478974 0.038619507 -0.010637354
0000b0 81 f1 aa 3b 7b 12 15 bc 96 6e 9d 3b 69 77 c4 3b
       0.005216778 -0.009098644 0.0048044426 0.00599568
0000c0 ad 79 47 bf 07 8a c3 bd 4a 91 08 3f 65 15 8a bb
       -0.7792004 -0.09547811 0.53346694 -0.004213976
0000d0 b4 f8 4c 3c 85 38 0a 3c 8b 31 91 3c 04 07 c6 bc
       0.012510467 0.008436327 0.01772382 -0.024173267
0000e0 ca 65 23 3e 47 b9 56 bc 9f 26 b2 bd 07 60 23 3d
       0.15956798 -0.013105697 -0.08698773 0.0398865
0000f0 79 1b 22 be 79 61 1e be 3f 00 32 be 77 d3 e3 3c
       -0.15830792 -0.1546687 -0.17382906 0.027810795
000100 da 7d d6 3d 53 7b a2 3e 03 1e 7a 3e 40 f0 73 be
       0.10473223 0.31734714 0.24425511 -0.23822117
000110 ff 62 29 be 4a 60 ac 3e 7c 90 24 bb 0c 69 64 be
       -0.1654167 0.33667213 -0.0025110533 -0.22305697
000120 3e ec f6 be f1 b9 c9 3e a5 e8 83 3e c7 d3 8d bd
       -0.48227113 0.39399675 0.2576343 -0.06925159
000130 3f 40 a7 bd b2 b5 d6 bc 6e 90 aa bd 39 fc 91 3e
       -0.08166551 -0.026209686 -0.08328329 0.28512743
000140 47 5c 45 bd d3 23 64 3b 92 49 ab ba 3c 83 bb bb
       -0.048183706 0.0034811392 -0.001306819 -0.0057224315
000150 a5 83 d3 39 3b 67 29 3c 07 29 71 3c 10 cf 95 bc
       0.0004034314 0.0103395535 0.014719254 -0.018287212
000160 e4 2d 7a 3f 19 5b 41 bb 47 f6 91 3e 96 d1 6d 3c
       0.97726274 -0.0029503761 0.28508207 0.014515301
000170 8b 04 36 bc fb e5 c2 bb 8e 13 f3 3b 98 15 9a bb
       -0.011109482 -0.005947826 0.0074181026 -0.004702281
000180 3b df ba bb 12 8b e3 3c 9c b8 26 bc c0 d5 98 bc
       -0.0057028807 0.027776275 -0.01017585 -0.018656611
000190 2d 30 14 be b0 b3 8c 3e 43 1d df bc 14 1e ad 3e
       -0.14471503 0.2748084 -0.027235633 0.3381201
0001a0 1c a0 83 bf 09 87 9d be 82 78 a4 3d e0 8f 48 b9
       -1.0283237 -0.30767086 0.080307975 -0.00019127084
0001b0 f5 2f fb 3b 8b 10 29 bb 40 46 95 bc b8 1e 88 3c
       0.007665629 -0.0025797214 -0.018221974 0.01661621
0001c0 4e 14 25 3c 1c 71 91 3f 29 ea fe 3b e2 c0 82 3b
       0.010075642 1.1362643 0.007779379 0.0039902786
0001d0 21 1f 31 3b b1 76 7e 3a ec 47 79 3a 34 63 7e bb
       0.002702661 0.00097070175 0.00095093134 -0.0038816454
0001e0 13 87 88 3c 5f 4e 67 3c 76 ae 42 3d d2 84 5b 3c
       0.01666597 0.014117806 0.04752966 0.013398366
0001f0 70 66 c7 3c 20 1c a6 3b 94 3b bd bc 34 42 c1 3b
       0.024340838 0.0050692707 -0.023099698 0.0058977846
000200 35 4f 01 3f 0b 03 db 3d 69 00 d8 3e 4f b9 fb bd
       0.50511485 0.1069394 0.42187813 -0.12291204
000210 f6 31 67 be d4 30 a2 bd 63 c5 93 be d5 d9 03 3d
       -0.22577652 -0.079194695 -0.28861532 0.032190163
000220 fa 2a 3f 3d f3 63 a2 bf 3f 69 2d 3d 49 5a 2f bc
       0.046671845 -1.2686752 0.0423367 -0.010702678
000230 89 cd 46 3c 64 18 75 bc ac 1c b1 3b 9d 05 bd bb
       0.012133964 -0.014959428 0.0054050293 -0.0057684914
000240 02 bd f7 3e 41 30 a4 3d 68 62 22 3f 7d a3 14 3d
       0.4838639 0.08017016 0.63431406 0.036288727
000250 92 1f 9c bb c1 e0 d8 3c 89 b6 1d bd 79 bf 02 bc
       -0.0047645057 0.026474359 -0.038504157 -0.007980221
000260 3b b3 46 be e9 17 e3 3d 1d 5c 85 3e 2e b7 25 be
       -0.19404308 0.11088545 0.2604684 -0.16183159
000270 ec ae aa 3e ee 3e 66 be 36 3a ea bd cf 61 6e be
       0.3333658 -0.22484943 -0.11436884 -0.23279499
000280 2c 92 67 3c 4c 31 a2 be c1 93 8f 3f 2e ac 47 3c
       0.014133971 -0.31678236 1.1216966 0.012187047
000290 dd 1e 9d ba 87 fb 86 bb 8f 51 06 bd cc 16 8d 3b
       -0.0011987347 -0.00411934 -0.032792624 0.004305696
0002a0 9d 41 24 c0 51 d6 00 bf 1f b1 dc bd 42 95 e1 3a
       -2.5665047 -0.5032702 -0.10775971 0.001721062
0002b0 26 2c fe 3a 18 4d 64 ba 0a e0 cc bb ce 32 11 3b
       0.0019391819 -0.00087089976 -0.0062522935 0.0022155526
0002c0 be 47 fc 3d df b8 f1 3c 9c 84 e1 bd 0c e3 54 3d
       0.12318371 0.029507099 -0.11011621 0.05197434
0002d0 68 f4 17 3f ea 79 29 be 21 42 2c bd bf 3f 6d bd
       0.5935731 -0.16550413 -0.042055253 -0.05792212
0002e0 90 3c 95 bd 66 13 d9 3c 23 d7 e5 3d 20 61 dd be
       -0.07286942 0.026498508 0.11222675 -0.43238163
0002f0 8f c8 00 be 60 b4 cc bd e9 a6 5c be ae fa 38 3e
       -0.12576507 -0.09995341 -0.21548046 0.18064377
000300 59 4d 66 3d a9 83 ae bc a0 60 01 3f f6 76 ef ba
       0.05622611 -0.021303015 0.50538063 -0.0018269706
000310 2e 64 50 3b 6a 58 f1 3a d2 d8 8c bb 1f 8a 8d 3b
       0.0031797993 0.001841319 -0.004298308 0.004319444
000320 73 ce 60 bf 27 b6 d5 3d 98 66 18 3f 4d 81 a5 3c
       -0.87815017 0.104351334 0.59531546 0.020203257
000330 e9 31 5e bd e7 13 c2 3c 84 7b 24 bb 85 6a d8 bb
       -0.054246817 0.02369113 -0.0025098035 -0.006604495
000340 08 a0 28 3d 97 b6 8c 3e 7e 10 e5 3e 4d cd be 3e
       0.041168243 0.27483055 0.44739145 0.37266007
000350 b8 2c 8a 3e 00 2a b3 bd 3e e7 5d 3b 70 cd 8a 3e
       0.26987243 -0.08748245 0.0033859755 0.2710986
000360 f5 7f 22 be 8d 5a 79 be ca 4b 14 bf 40 d5 de bb
       -0.15869124 -0.24350949 -0.57928145 -0.0068003237
000370 f7 8b 77 bb 69 5b f7 bc a3 e3 a0 3b eb a2 c8 bb
       -0.0037772635 -0.030194955 0.004909949 -0.006122937
000380 2b 86 13 40 52 92 8b bf 32 11 a5 3d c0 48 88 b8
       2.305064 -1.0904028 0.0805992 -6.498536e-05
000390 a5 9e 9b 3b d9 08 4d 3b 5a 22 6a bb 63 2a 09 bb
       0.0047491365 0.0031285791 -0.0035726042 -0.0020929805
0003a0 83 36 9e 3f 5c b2 17 3f 5d 62 fd 3d b1 80 42 bb
       1.2360386 0.5925653 0.12372277 -0.0029678757
0003b0 0c 9a 8a 3c 60 13 3b 3b 21 5b 6d bb 30 80 24 ba
       0.016919158 0.0028545484 -0.0036217647 -0.0006275205
0003c0 1b 8a ff 3e 1c 63 2b be 39 92 7c 3d a3 ae 0a 3c
       0.49910054 -0.16737026 0.061662886 0.008464488
0003d0 87 7b d7 3b 75 24 b1 38 b7 db 4e 3c 91 79 70 3b
       0.006576005 8.446808e-05 0.012625626 0.0036693553
0003e0 31 30 f5 3c a9 06 85 3d 4b b3 cf 3e 34 cd 92 be
       0.029930206 0.06495411 0.40566477 -0.28672183
0003f0 17 7f 96 be 80 db 85 3d 21 48 2e 3e 1b b8 28 3e
       -0.29393837 0.06536007 0.17019702 0.1647648

bias f4 [128]
000000 eb 03 2a bf 35 9e 79 bf 63 37 8a bf 14 98 a0 be
       -0.6641223 -0.9750703 -1.0798153 -0.31366026
000010 3d 12 36 be 5d d6 32 bf de ed 74 bf c8 c5 0c be
       -0.17780395 -0.6985834 -0.95675457 -0.13747323
000020 31 89 97 bf 3c 4c a6 bf f6 f9 18 be a8 41 b4 3e
       -1.1838742 -1.2992015 -0.14939103 0.35206342
000030 0f f3 20 bf aa 8a ca bd d0 81 91 3f e8 50 4f be
       -0.6287088 -0.09889729 1.1367741 -0.20245707
000040 61 73 7f bf fe 5e 7c bf f8 1f 00 bf 76 38 83 bf
       -0.9978543 -0.98582447 -0.5004878 -1.0251606
000050 75 c0 b1 bf 9e c7 c7 bf d0 61 5c bf d0 af 81 bf
       -1.3886858 -1.5607793 -0.8608675 -1.0131779
000060 8c 40 c6 be 57 61 bd bf 4d ac ab bf 98 50 b4 be
       -0.3872112 -1.4795331 -1.3411957 -0.35217738
000070 1b c7 5f 3f d0 72 23 bf 8e 05 d1 3e ad 56 a8 bf
       0.87413186 -0.63847065 0.4082455 -1.3151451
000080 77 f7 80 be 85 80 81 bf 76 e9 21 3e f3 37 34 3e
       -0.251888 -1.0117346 0.15811715 0.17599468
000090 91 33 64 bf da 13 22 bf 88 18 a1 bf 07 f7 0e bf
       -0.89141184 -0.6331154 -1.2585611 -0.55845684
0000a0 d9 be a5 bf 61 4a d5 bf 04 2c b2 bf b4 61 07 c0
       -1.2948867 -1.6663324 -1.3919683 -2.1153383
0000b0 ab 2b 9a 3e e6 40 c0 bf b0 95 2a bf 73 96 35 3e
       0.3011144 -1.5019805 -0.66634655 0.17733173
0000c0 ad 5d 63 bf ad e3 9b 3f 0b e9 9e be 0b 29 e5 be
       -0.8881481 1.2178856 -0.31037173 -0.44757876
0000d0 2a 9c 0a bf 8d e2 78 bc 61 c1 e7 be 3c 87 ee 3d
       -0.5414454 -0.015190733 -0.45264724 0.11646888
0000e0 28 1e 73 bd 81 1d 89 be f7 19 87 bf 7f 3c 47 be
       -0.05935493 -0.26780322 -1.0554799 -0.19456671
0000f0 4a 69 4f 3e 52 80 ca bf e4 a7 d7 bd 62 89 f5 bf
       0.20255008 -1.582041 -0.105300695 -1.9182551
000100 dd a2 21 bd 9d 1b 3e bd b8 23 56 bf 81 55 60 bf
       -0.03946196 -0.046413053 -0.8364825 -0.8763047
000110 87 ca 61 bf 43 52 99 bf e1 19 9b bd 08 e5 91 3e
       -0.8819966 -1.1978229 -0.075732954 0.2849505
000120 6c b0 80 bf f5 94 8b bf 14 2d df bf 5e 07 b5 be
       -1.005384 -1.0904833 -1.7435632 -0.35357183
000130 07 94 42 bf 4a 9f 9a bf cd 5a 83 bf 48 1f 7e bf
       -0.7600712 -1.2079861 -1.0262085 -0.9926648
000140 0d d5 94 bf 60 66 99 bf bc 74 90 bf c0 ae f8 be
       -1.1627518 -1.1984367 -1.1285625 -0.48570824
000150 ad e7 14 bd ff a7 f3 be 00 00 e2 bd 28 b3 ce bd
       -0.036353756 -0.47589108 -0.11035156 -0.10092765
000160 cd 6c 45 3f 79 66 a5 be b1 7e 17 3d 14 02 68 bf
       0.7711914 -0.32304743 0.036986057 -0.9062817
000170 c1 33 d3 bd c4 c8 5b bf c8 e1 83 bf 57 f3 a4 bf
       -0.10312606 -0.8585322 -1.0303278 -1.2886761
000180 de 59 f3 bf d6 db 9e 3a a2 3a 07 bf e8 7a a1 bf
       -1.90118 0.001211996 -0.5282384 -1.2615633
000190 44 29 2d bf 70 b3 c2 bf 1e b2 39 3e 57 35 58 bf
       -0.6764109 -1.521101 0.18134353 -0.8445639
0001a0 a6 4d 65 bf 8f 30 bd bf 79 08 ae bf 67 4f 6b be
       -0.8957161 -1.4780444 -1.3596336 -0.22979508
0001b0 51 93 65 bf bd 86 6a be 71 ce 3c bf e8 63 46 3e
       -0.8967791 -0.22902961 -0.73752505 0.19374049
0001c0 75 00 07 bf 73 b2 84 bf 51 c4 93 bf 8d bd c7 be
       -0.5273507 -1.0366958 -1.1544286 -0.39011803
0001d0 ba a7 a5 be 9a a3 b3 bf a3 cd 98 bf ba e9 db bf
       -0.32354528 -1.4034302 -1.1937755 -1.7180703
0001e0 dd 0d 50 3f 4a 69 54 bf 37 86 a4 bf d7 38 8c bf
       0.81271154 -0.8297316 -1.2853459 -1.0954846
0001f0 f8 c0 2e bf 1b 48 c3 3e f8 9f 57 3f 15 16 f1 be
       -0.68263197 0.3814095 0.8422847 -0.4708716

weight f4 [128, 128]
000000 3f 35 56 bb d6 bc 3f bc 9d 57 a4 3e b2 8e f9 be
       -0.0032685546 -0.011702737 0.32098094 -0.4874168
000010 ae 36 59 c0 6a c6 eb 3a f3 10 44 bf 0a 56 1f bf
       -3.3939624 0.0017988209 -0.7658836 -0.6224066
000020 fc 97 1a bd 2f e1 07 3f 51 e5 76 3e 3e 8d a6 3c
       -0.0377426 0.5307798 0.24110915 0.020331021
000030 fe 72 33 3e 06 54 10 c0 b7 33 29 be 28 06 31 3a
       0.17524335 -2.2551284 -0.16523634 0.00067529315
000040 f7 ca a1 bc 7a 68 1c ba 34 bf 95 3d 62 3e c1 be
       -0.019750101 -0.0005966496 0.0731186 -0.37742907
000050 94 df 3a 3f 9c a3 d6 bf cc 5f df 3e 55 62 f6 be
       0.72997403 -1.676868 0.43627775 -0.48121896
000060 4d d8 af be a4 0a 65 be cc 12 4a 3e f0 1d b5 3f
       -0.34344712 -0.2236734 0.19733733 1.4149761
000070 9a a3 67 3d 60 66 8f 3e a0 c9 e2 bc bc c2 21 be
       0.056552507 0.28007793 -0.027684033 -0.15796942
000080 49 ac 20 3f 16 76 81 bf 5e d5 13 3d 09 9e 9f 3e
       0.62762886 -1.0114162 0.036092155 0.3117526
000090 f8 7e 2c 3d 8b 5b bb be dc b6 19 be d6 19 1b 3e
       0.042113274 -0.3659328 -0.15011162 0.15146574
0000a0 23 03 5d bf 7b 8f b2 3f 2c 6d 2c bf b0 4f 77 3f
       -0.8633291 1.3950037 -0.67354083 0.9660597
0000b0 33 c9 76 bf 79 26 c6 3e 2d 31 87 3f f2 7a 08 3e
       -0.96400756 0.38701227 1.0561882 0.1332815
0000c0 82 b8 df be 53 f8 21 bf 8e 5e 4c 3e 71 e7 a9 3f
       -0.43695456 -0.6326954 0.19957945 1.3273755
0000d0 c2 50 24 40 7d 8c 17 be a2 5a 3b 3f f8 38 f8 3e
       2.567429 -0.14799686 0.7318517 0.48480964
0000e0 04 0f ce 3d de 20 b7 bd 3b f4 08 bf 29 5a 22 3e
       0.10061458 -0.08941816 -0.53497666 0.15854706
0000f0 c2 ad 1a c0 ed 97 68 bf cb 88 55 bd 6c 10 36 3f
       -2.4168553 -0.9085682 -0.05213241 0.7111881
000100 ad 79 b5 be 69 0c 03 3e a1 c8 1d 3f ba 4a 0d 3e
       -0.35444394 0.12797703 0.6163426 0.13798037
000110 0c 07 40 3d a0 f1 e1 be de be a0 bc c5 6e a4 be
       0.04688172 -0.44129658 -0.019622263 -0.3211576
000120 d5 54 8c 3e 7e 41 9b be db 7b 3f bd 2c 76 85 bd
       0.27408472 -0.30323404 -0.046748977 -0.0651668
000130 a7 cc c2 bc 3c 31 b3 3e e1 70 07 be 3e 42 41 3e
       -0.023779226 0.349985 -0.13226654 0.18872926
000140 a6 c6 e9 be c0 4e 29 3f ca 2a 49 3e 13 af 12 bf
       -0.4565937 0.6613579 0.19645229 -0.5729839
000150 49 5d 99 3d 4a 5a b3 be bc b9 85 3d 25 62 95 3a
       0.07488496 -0.35029823 0.06529567 0.0011397047
000160 41 33 92 c0 d3 66 83 3f f4 58 79 be 98 ef b2 bf
       -4.5687566 1.0265754 -0.24350339 -1.3979368
000170 aa 75 a7 3e 12 65 5d bf eb f4 4f be f4 8e f3 bd
       0.32706958 -0.86482346 -0.20308273 -0.118925005
000180 7a 9e b3 be 21 62 16 be 6b ff 07 3f ef 2c c3 3e
       -0.35081846 -0.1468587 0.5312411 0.3812022
000190 52 1d a3 bf 1e 3a 31 bc f6 56 2b be 3c 66 a0 be
       -1.2743323 -0.010817079 -0.16732392 -0.31328
0001a0 a8 bd fe 3d a7 c4 af 3e 1f 1e 20 be 9c 22 6c 3d
       0.12438518 0.3432972 -0.1563649 0.057650194
0001b0 a6 fc db 3e 72 0e c3 bf 10 ba 75 3e 9b e1 57 bf
       0.42966193 -1.5238783 0.23996758 -0.8432862
0001c0 c3 80 ef 3d a0 ef b4 3e ab 49 21 bf bc 19 23 3d
       0.11694481 0.3533907 -0.63003033 0.039819464
0001d0 d8 6f 64 bd cf 3d 82 3f 70 d7 a3 3e 79 19 20 be
       -0.055770725 1.0175112 0.32000303 -0.15634717
0001e0 0f 5a 99 bd 81 da b7 3e ba 71 14 bf 4c 3f 44 3e
       -0.074878804 0.35908893 -0.5798603 0.19164771
0001f0 a8 7f 49 bf 14 f3 d2 bd 40 22 ff bd 51 f9 e2 be
       -0.7871041 -0.1030027 -0.124577045 -0.44330838
000200 30 a1 27 c0 51 76 8b 3f 12 ff a5 bc 6d 5a e0 3d
       -2.619213 1.0895482 -0.020263229 0.10954747
000210 f4 94 cf bf 21 42 28 be 44 ae 89 bf f9 d6 28 bf
       -1.6217332 -0.16431476 -1.0756307 -0.6595302
000220 25 10 e6 3e 47 d8 0b 3f 3d a4 bd bd 2e 48 05 be
       0.44934192 0.5462689 -0.092598416 -0.13015816
000230 66 50 d3 3e a3 b0 b1 bf 3c 5a 53 be 35 f8 2f bd
       0.41272277 -1.388203 -0.2063989 -0.042961318
000240 ae 26 02 3f 38 3c 8c 3d 25 a8 48 bb ce db d6 bf
       0.5084027 0.06847423 -0.00306178 -1.6785829
000250 ab cd 1f 3d 3d 21 d2 be 64 23 9b be 58 8f 7b bf
       0.0390145 -0.41040984 -0.30300438 -0.982656
000260 d2 29 c0 bc 36 24 83 bf a7 0f 7c bf 2c e5 58 3d
       -0.023457441 -1.0245426 -0.98461384 0.05295293
000270 c2 44 5b c0 cc 4d 0d bb 3a 0d b0 bc 82 4f 07 3f
       -3.4260716 -0.0021561263 -0.021490682 0.52855694
000280 ca e4 cf bf 2f 79 d5 3f 72 f0 ad 3c 8e 12 da bd
       -1.6241696 1.6677607 0.021232817 -0.1064807
000290 c4 2b 0f bd a5 d6 19 3e 51 25 22 c0 6a d3 a2 3f
       -0.034953848 0.15023287 -2.5335276 1.2720768
0002a0 a4 65 a1 be c3 91 29 c0 be 99 52 be d3 a9 03 3f
       -0.31522858 -2.6495216 -0.2056646 0.51431006
0002b0 d9 65 97 be df 32 b4 bf e2 03 04 bf eb d6 f9 3c
       -0.2956989 -1.4078025 -0.51568425 0.030497989
0002c0 fe ed 49 bf 0a be 2e bf 3d a2 b7 3e 64 7a 1f be
       -0.7887877 -0.68258727 0.35865965 -0.15574032
0002d0 4e e2 43 bd 1a c2 84 3c 05 7a 2d be 7a cc 01 be
       -0.047823243 0.016205836 -0.16941078 -0.12675658
0002e0 fe b2 2a c0 80 2a e6 3d 76 3f 30 bf 23 4f a1 3d
       -2.6671748 0.11238575 -0.68846834 0.07876422
0002f0 fb e2 1b 3d 88 7f 65 bd b9 15 49 3d be 9a d2 3e
       0.038058262 -0.056029826 0.049092982 0.41133684
000300 d5 d7 18 3e eb 4e 05 bd 0c f3 40 bf ea f7 9d 3e
       0.14926083 -0.032545965 -0.7537086 0.30853206
000310 26 00 65 bf 2f 47 99 3d 76 94 19 be b7 4c b0 3f
       -0.8945335 0.0748428 -0.1499804 1.3773412
000320 50 f7 84 bf d7 d2 8e bf c5 e5 57 3d 25 e6 68 3e
       -1.0387974 -1.1158093 0.05270936 0.22744043
000330 11 e6 ad bf f9 9e ea 3e 69 da 59 bf f5 58 05 bf
       -1.3585836 0.45824412 -0.8509889 -0.5208886
000340 ad c3 b6 bd e1 d5 0f 3f ca 0c 05 c0 2d d1 b0 be
       -0.08924041 0.5618573 -2.0789056 -0.34534588
000350 0b 24 c1 bd d3 46 07 bf e1 49 1e 3d 75 6e fc be
       -0.09430703 -0.52842444 0.038644675 -0.49303022
000360 64 84 d2 bf 46 f3 bf bd f4 8d 65 3d 2c 1e 4b 3f
       -1.6446652 -0.093725726 0.05604358 0.79342914
000370 21 93 d0 be 8e 67 a1 3f dc 22 55 bf 97 2d be be
       -0.4073725 1.2609727 -0.83256316 -0.37144157
000380 e9 4b fe bd ef 18 dc bc f6 03 16 bd 4e 34 00 3e
       -0.124168225 -0.026867358 -0.03662487 0.12519953
000390 51 47 92 bd fa 0c a1 bd 0b be af be 66 b5 13 bd
       -0.07142509 -0.07863803 -0.3432468 -0.036061667
0003a0 ba 6c c6 3e a4 a3 83 3e c7 d3 18 3f 9a c8 d9 bc
       0.38754827 0.25710785 0.59698147 -0.026584912
0003b0 b8 d8 6f 3e 8b 78 24 bf c7 e2 05 c0 5c 82 ed be
       0.23422515 -0.64246434 -2.0919664 -0.4638852
0003c0 33 08 d8 bf 7b 5f bb be 52 71 41 be f4 27 14 3f
       -1.6877502 -0.36596283 -0.18890885 0.57873464
0003d0 cd 6e 11 3d 57 16 62 bf 99 7b 34 be fc 84 2b be
       0.03550606 -0.8831534 -0.17625274 -0.16749948
0003e0 3f b6 95 bd b3 a0 af be c9 03 b0 3f 5d c6 2d 3e
       -0.07310151 -0.3430229 1.3751155 0.16970201
0003f0 73 f3 fe bd af 66 93 3e 51 48 7d c0 a8 d1 cf be
       -0.12448778 0.2878928 -3.9575388 -0.40589643

bias f4 [128]
000000 95 19 8f bf fb 56 4c bf 17 b6 97 be 8b 8a b8 bd
       -1.1179682 -0.7982022 -0.2963111 -0.090108
000010 49 4a 02 be 07 29 f3 3d f3 31 62 3d f3 eb ea bd
       -0.1272365 0.1187306 0.055223417 -0.11470785
000020 50 d5 b1 3e 21 f6 c2 bd 45 f4 41 bf 72 76 ae 3d
       0.34733057 -0.095196016 -0.7576335 0.085186854
000030 f7 ce a0 bf 9f 0b b9 bf 0d cb 0d 3d eb 7d 3e bf
       -1.2563161 -1.4456671 0.034617472 -0.74410886
000040 30 4e 97 bd ac 2d 89 bc fb 8c 82 3e 1c 06 bf bc
       -0.0738796 -0.01674541 0.25498185 -0.023318343
000050 f6 63 cd be 5e 7b f4 be ff f7 76 3e ed 36 86 be
       -0.40115327 -0.47750372 0.2411804 -0.2621378
000060 fb ca df be dc 44 41 3d b7 72 83 bf b1 8c 84 bd
       -0.4370955 0.04718481 -1.0269383 -0.06472147
000070 64 f1 09 3f 41 2f e6 b8 47 7d df bc a9 67 85 be
       0.5388396 -0.000109760564 -0.027281417 -0.2605565
000080 7c 27 17 be 5b ce 90 3d 83 fa 36 bf 75 9c 50 be
       -0.14761156 0.07070609 -0.71476 -0.20372184
000090 26 e6 b6 3e 0f 2a 8a bc 00 22 08 bf 0b 44 ed bc
       0.35722464 -0.016865758 -0.5317688 -0.02896311
0000a0 5d 3c 82 bd 23 62 7e 3d 18 d6 9e 3e c2 d0 55 bc
       -0.0635917 0.06210531 0.31022716 -0.01305026
0000b0 33 4f 18 bd c2 81 81 be 48 51 ed bd 7e b2 a1 bd
       -0.037184905 -0.2529431 -0.11587769 -0.07895373
0000c0 0a b6 04 bd 32 97 4f bb 60 ae 23 be a8 76 59 be
       -0.03240017 -0.0031675813 -0.15984488 -0.2123667
0000d0 08 66 78 be 82 28 56 3d b5 62 7f 3e 94 d2 6f bf
       -0.24257672 0.052284725 0.24939997 -0.9368069
0000e0 90 d2 d3 bc 88 6f ec bc a5 e7 b3 3c f1 63 13 bf
       -0.02585724 -0.028861776 0.021961043 -0.57574373
0000f0 88 6a 88 bd bd 5b 98 bf 74 1b fa bd 13 9c 20 3e
       -0.06660944 -1.1902996 -0.122122675 0.15684538
000100 a7 5c 37 bc 00 a3 40 bd 37 33 7f be 3d c8 17 3f
       -0.011191524 -0.04703045 -0.2492188 0.59289914
000110 44 9d 35 bd e0 d0 4b be f4 0d 15 be 85 19 b0 bd
       -0.044339433 -0.19903898 -0.14556104 -0.085986175
000120 7e d4 9c 3e d3 e1 15 bc d8 b2 cf 3e f0 18 cb bd
       0.3063087 -0.009148079 0.40566134 -0.09916866
000130 2d d6 8a bd 6c de 07 be 0b fc 0c bc 08 50 98 bf
       -0.06779132 -0.13268441 -0.008605014 -1.1899424
000140 89 7d a5 bd e1 29 c6 bd df 7f b0 bd 0a 21 10 bf
       -0.080805846 -0.096759565 -0.086181395 -0.56300414
000150 25 36 86 be f1 a3 7e bf 0a 3e 65 be 49 f0 b9 b8
       -0.26213184 -0.99468905 -0.22386947 -8.866244e-05
000160 bb 3d e3 3d d8 e0 ba 3d 5b d6 48 3e 46 f4 dc be
       0.110957585 0.09124917 0.1961302 -0.43155116
000170 a7 18 5c 3d 1e 83 c4 bc cc 61 34 be 5a 6e 3a 3e
       0.053734448 -0.023988303 -0.17615432 0.18206158
000180 ff 0f 01 bf 94 3a 47 3d 28 1e fc be 0f 36 6a bf
       -0.50415033 0.04863985 -0.49241757 -0.91488737
000190 84 da f8 bd 9c f5 06 bc de da ef 3c 47 fd a2 bf
       -0.121510535 -0.008237269 0.029279169 -1.2733544
0001a0 12 6c 5b bd 7d e3 a2 be 01 4d 47 bf df 2a ad be
       -0.05356986 -0.31814185 -0.77851874 -0.3382177
0001b0 98 d0 8d be f4 1b 2a be 17 80 a0 be 2e 52 17 3d
       -0.27698207 -0.16612226 -0.31347725 0.036943607
0001c0 bb 02 eb bc 27 a7 10 bd 6d c7 4a be 44 e3 20 3d
       -0.028687825 -0.03531566 -0.19802637 0.039279237
0001d0 4e 09 3f bf a6 80 a8 bf f6 3a 6a bf 91 bf 0b bf
       -0.7462357 -1.316426 -0.9149622 -0.5458918
0001e0 23 d0 f2 bd 43 ad a1 bf 12 8d 00 bf 3b 0b ec bd
       -0.11856105 -1.2631 -0.50215256 -0.115255795
0001f0 67 26 fc bd a3 99 25 bd 69 61 8d be a0 16 08 3f
       -0.12312012 -0.040429723 -0.2761338 0.53159523

weight f4 [1, 128]
000000 2a f3 a0 bd 54 28 14 bf a6 50 7a 3d 0c 18 bf bc
       -0.0785888 -0.57874036 0.06111207 -0.023326896
000010 3c 90 1b bd 5e 49 52 be 50 27 92 3e 21 a6 07 3d
       -0.03797935 -0.205358 0.28545618 0.033117417
000020 31 44 2e be 71 30 f1 bf 3a 8d bc 3d 04 f3 d4 bf
       -0.170182 -1.8842908 0.09206624 -1.6636662
000030 34 f2 92 bf 07 6e 1b bf ca 5a 59 3e 05 f9 cb 3d
       -1.1480165 -0.60714763 0.2122604 0.09959606
000040 09 68 53 3f 5a b7 e9 3b a9 34 e8 3d 66 d4 b4 3b
       0.8258062 0.007132453 0.11338169 0.005518484
000050 96 1e e7 be 09 30 14 3e c9 4c ae bd d4 26 e2 bc
       -0.45140523 0.14471449 -0.08510739 -0.027606405
000060 b2 5a be 3d 08 7b de bb 3f ba a0 3f 7c c7 62 be
       0.092946425 -0.006789569 1.2556838 -0.2214641
000070 7d 3e 5d 3f 61 3f f1 3a c8 a9 9e 3c dd 1a 68 bd
       0.86423475 0.0018405729 0.019368067 -0.056666244
000080 0e 8b 3d be 62 68 99 bc 6c 05 72 3e 88 c3 72 3d
       -0.18510076 -0.018726531 0.23634881 0.059268504
000090 f2 0c a2 be b9 cb a1 3c 2b 4b 6f be e9 90 f4 3c
       -0.316505 0.019750463 -0.23368518 0.029854255
0000a0 33 63 ee 3a 01 cc 91 3f 5e a3 88 3e 0f b0 d6 3c
       0.0018187523 1.1390382 0.2668714 0.026206998
0000b0 5b 79 47 bd af 73 6c bd 57 02 22 bc 50 8e f5 3c
       -0.048699718 -0.057727512 -0.009888253 0.029975086
0000c0 f5 e8 5c b9 b3 61 f8 bc d2 c5 d1 3e c8 94 dd bd
       -0.00021067618 -0.030320024 0.40971237 -0.108193934
0000d0 23 6f b1 bc 44 9b f4 bb c4 22 00 3f 69 76 4f be
       -0.02165944 -0.007464798 0.5005305 -0.20260014
0000e0 c9 11 ae 3f 11 1d dc bb 3f a6 af bc c9 6b a0 3e
       1.3599178 -0.006717332 -0.021441577 0.31332234
0000f0 0e 1f a6 3a 9e a7 22 be 81 3c db bc eb f0 4c bf
       0.001267405 -0.15884253 -0.026762249 -0.8005511
000100 77 5e d5 3c 13 27 69 3d fd 38 26 3e 3e 08 bd 3d
       0.02604602 0.05692203 0.16232677 0.09230088
000110 80 70 c5 bc a1 c2 9c 39 d8 36 29 3b fc fb 37 be
       -0.024101496 0.00029899649 0.0025820043 -0.17967218
000120 bd 3f 67 bd 07 01 a2 3d fa 04 31 3e 08 28 69 3c
       -0.05645727 0.07910352 0.17287055 0.014230736
000130 ec 15 00 3d f5 ce 86 bc e0 6e 19 3e 05 e8 b9 be
       0.031270906 -0.016456107 0.14983702 -0.3630983
000140 52 0e fe 3c 03 58 1e 3d 86 70 30 bc d0 24 a2 3d
       0.031012688 0.038658153 -0.010769015 0.07917178
000150 33 8b 17 be fc 11 c7 bd b5 00 3f be fc a4 47 3f
       -0.14799194 -0.09720227 -0.18652613 0.7798612
000160 5b c5 a6 3d fb 4c 02 3f 19 81 f3 3d ba dc c2 bd
       0.08143111 0.5089871 0.11889858 -0.095147565
000170 3a 24 5b 3e 5b 27 ac 3e f0 fd b8 bd aa 56 4f 3f
       0.21400538 0.33623776 -0.0903281 0.80991614
000180 f8 5e 9d bc 0f 26 12 3e 69 a1 8e be 92 52 18 3e
       -0.019210324 0.1427233 -0.2785752 0.14875248
000190 3e 1e 9f 3c 6e c5 0f be 2f fc ae 3b 5f ab 0a be
       0.0194236 -0.14040157 0.005340121 -0.13541935
0001a0 e1 af ed be 49 0b 86 3d 08 ea e9 bd 1e 7b 08 3e
       -0.46423247 0.06545121 -0.11421591 0.13328215
0001b0 40 e7 d2 bd 80 6b ef 3c 8b 27 e8 bc dd 88 e1 3c
       -0.10298014 0.029226065 -0.028339168 0.027531082
0001c0 3b 7f 9b 3c 07 da ae bc 41 00 ea 3c f3 a9 50 3e
       0.018981567 -0.021344198 0.028564574 0.2037733
0001d0 3b 90 51 be 66 17 47 bf bf 40 3d bf a6 45 e6 3e
       -0.20465176 -0.7777008 -0.7392692 0.44975013
0001e0 fc b4 b8 bc 7d aa 99 bd 75 90 90 3e 18 c0 59 bb
       -0.022547238 -0.07503221 0.28235212 -0.003322607
0001f0 e4 40 12 3c 37 15 dc bc f5 7b 85 3d 05 1a 93 3d
       0.008926604 -0.026865585 0.065177836 0.07182697
