Dat/Nova pasta/model_scripted.pt (torch, 86992 bytes, 6 tensors)

weight f4 [128, 8]
00000000: 7a4e c5be d3c3 433e 2157 d0bc 5b12 08bc
00000010: fb0a 51bd 8a96 b8bc 9fbb 86bd be59 d63e
00000020: 36e5 a3bf 4052 8bbf 0042 ab3d aadd 2abc
00000030: f578 b3bb 7ccf 2e3c 31af f93b 9c58 3f3c
00000040: 668f 6fbe c41a 8f3e 5e35 c93b 320b 07bc
00000050: 2a5b 75bc 7e91 d9bc f75b 6e3e fb04 0ebd
00000060: ab46 13be b1d7 7b3e 1d1e 8dbd 4a34 19bc
00000070: bce7 9d3d 138f c9be e151 933d e809 093b
00000080: ab49 80bd 08dd e43d b53a 5b3e b8df ae3e
00000090: ce19 3cbe 0737 4a3e c8b9 83be e093 00be
000000a0: eacc 4bbf 4f4d 443e 4fe0 6a3f 047a 2dbc
000000b0: 7ec9 763c 8923 f0bc d84e 933c c1ec 623b
000000c0: 9eac 25be bd0f 363e 0333 2ebb 06c5 a43b
000000d0: 0fee 3e3c 5e06 4b3d 97dc 74be b113 343d
000000e0: ba00 a13f aa7d 95bb cfd4 e03c e237 60b9
000000f0: 1cee df3a 82bb 2f3c acad 0a3c cac9 0fbc
00000100: d0de 2ebd e707 9b3c 5e73 f53b 118b bebb
00000110: 2dce 0fbc 43c0 773a 5bab 4e3b b83c af3b
00000120: 5d4c 20be d646 cf3d e53c d03e 5650 5bbb
00000130: 4a61 20bb 34cd 2fbc 08db 31bc ebc4 333c
00000140: b0de f53f b330 623f 2e81 643c 6b07 823b
00000150: 91b4 6ebb aae3 c439 7e11 5ebc ac2b e43b
00000160: a751 983e bc5d 0abf 4988 523b c26b 703b
00000170: d0e0 7739 2320 64ba 32f8 803b 35ee 12bc
00000180: 189b bbbc ea8f cbbb aea8 e83c 6fe9 80bc
00000190: 9816 ff3c 1200 773c 9c9d 043d 37bb 0b3a
000001a0: a543 983f b282 883b 0369 153d b28c 19ba
000001b0: 58ca d73b cefd ff37 ea43 3a3c 11f1 eabb
000001c0: 2258 6ebc 6b94 0dbd f38e b23c 1385 263b
000001d0: 50f5 83be cd2b a43c 2ab0 883c 42e2 793c
000001e0: 6fa9 0b3d ed87 c13a 161b 17bf 3dfe 183b
000001f0: d2c8 db3b 271c 6a3b 801b 9e3a 2b26 97bb
00000200: dc39 8d3f 4bec 6b3c f542 763f 41f7 01bc
00000210: 640b 363b 4906 d23b 0efa cfbb 1c09 6f3c
00000220: b524 0b3d 9272 46be ff93 32bd 988a ccbb
00000230: 1b41 b8be aa17 d43d 2500 8a3c 1c70 243d
00000240: 6cea cdbf 0b19 51bd d1b4 cf3e 185e b537
00000250: 669c 9939 cf75 5dbc 78b5 343c e5a4 cc38
00000260: 2d13 923e 946a dcbd 9d9c 9f3c 8eab 923b
00000270: 463a 0c3d f16b b03c f3a1 b23c 869e 3cbe
00000280: 3738 00bf ca76 adbe 620c 83bc 71fa 04bb
00000290: a6f3 fbbc a953 67bd cc95 e93e 3a8d 89bd
000002a0: 5660 8c3d 98df 18bd c152 003f b716 3c3a
000002b0: d5a3 84bc 7c47 c539 e88c a1bc 0ff2 b33b
000002c0: 6dd0 13bf f045 d63b b31e 0b3e 428e 8a3b
000002d0: 40c5 003e e489 a63c 1607 eabc 51f7 babd
000002e0: 023d 9dbe 4c0c d53f bf76 e73d 9a60 0a3b
000002f0: 2e9c 383b 3c75 9ebb dde5 e3ba 8b2e 263c
00000300: e888 afbf bc03 e73e 2544 8c3d 66f6 bb3b
00000310: 7918 f5bb bf22 1bbb 33e6 a639 638b 03ba
00000320: 021c bcbc 04b8 7abc 5aca 623b 3230 493c
00000330: a341 253b 792a 8ebc 070b 7b3e 7039 2fbc
00000340: 1771 b9bf 96ba a33f ab71 863e 1395 f3bb
00000350: 0137 953b 13b6 833a 14a3 31bb ea2f 37bc
00000360: 0722 ce3e 25d4 9fbe dea0 6bbc 7d77 c93a
00000370: caee 7b3d 78a8 9f3c e0d8 983d cb06 d3be
00000380: ac93 c0be 27f4 c9bd dfe8 a53e 2ac6 20bc
00000390: b146 ae3b a2cb 5bba b6e3 65ba 4af5 fabb
000003a0: b6d7 33bb 6870 493b 7f8b ca3f 3057 80bc
000003b0: cd44 c13b a072 ecbb a701 9d3b b746 44bb
000003c0: 7265 a7bb ace1 d6bf 6b65 ef3e d67a 573b
000003d0: 854b 23bc 6f99 a53b 1a6e 453c 93d3 8e3b
000003e0: 251f d1be 1e84 63be ebeb 00bc 93df 56bb
000003f0: 4f04 97bc ec68 53bd 506a a73e 6b39 54bd
-0.38536435 0.1911767 -0.025432171 -0.008305158 -0.051035862 -0.02253272 -0.06578755 0.41865343
-1.2804325 -1.0884476 0.08362198 -0.010428825 -0.0054770657 0.010669585 0.0076197614 0.011678841
-0.23394546 0.27950108 0.006140395 -0.008242415 -0.0149753485 -0.026558634 0.2327727 -0.03467272
-0.14382426 0.24593998 -0.06890509 -0.009350846 0.077102154 -0.3936697 0.071933515 0.0020910446
-0.06264051 0.11174971 0.21409114 0.3415506 -0.18369219 0.19747554 -0.25727677 -0.1255641
-0.7960955 0.19170116 0.9174852 -0.010588173 0.015062688 -0.02931382 0.017981932 0.003462598
-0.1617913 0.17779441 -0.0026580698 0.00502837 0.011653437 0.04956662 -0.23912273 0.04396409
1.2578347 -0.0045620995 0.027445225 -0.00021383123 0.0017084512 0.010725858 0.008464258 -0.008776138
-0.04269296 0.018924667 0.0074905595 -0.005814918 -0.0087771835 0.00094509515 0.0031535241 0.0053478144
-0.1565413 0.10120933 0.4067146 -0.0033464632 -0.0024472051 -0.010730077 -0.010855444 0.010972242
1.9208584 0.8835556 0.013946814 0.0039681694 -0.0036423544 0.00037553656 -0.013553975 0.006963214
0.29749796 -0.5404928 0.003212469 0.0036685322 0.00023639505 -0.00087022985 0.003935837 -0.008967926
-0.022901103 -0.0062122243 0.028400745 -0.01573631 0.031138703 0.0150757 0.03237687 0.00053303264
1.1895643 0.0041659707 0.0364771 -0.0005857452 0.0065854006 3.0516556e-05 0.011368731 -0.0071698506
-0.01454738 -0.03456537 0.02179668 0.0025408908 -0.25773096 0.020040417 0.016685564 0.015251698
0.03409713 0.001476524 -0.59025705 0.0023344897 0.0067072893 0.0035722347 0.0012062639 -0.0046127043
1.1033282 0.014399598 0.9619592 -0.007932485 0.0027777785 0.0064094407 -0.0063469475 0.014589574
0.033970553 -0.19379643 -0.04359817 -0.0062421076 -0.35987172 0.10356076 0.016845772 0.04014598
-1.6087165 -0.051049273 0.4056764 2.1620697e-05 0.0002929896 -0.013516857 0.011029594 9.758192e-05
0.28530255 -0.10762516 0.019483859 0.0044760173 0.03423526 0.021535845 0.021805739 -0.18419847
-0.5008578 -0.3387969 -0.015997116 -0.0020290876 -0.030755829 -0.05647627 0.45622098 -0.0671639
0.06854312 -0.03732261 0.5012627 0.00071750156 -0.016191402 0.00037628028 -0.01972051 0.005491502
-0.5773991 0.006539099 0.1358593 0.0042283842 0.12575245 0.020329423 -0.028567832 -0.09129203
-0.30710608 1.6644378 0.11301946 0.0021114708 0.0028169262 -0.004835753 -0.001738723 0.010142933
-1.3713655 0.45120037 0.06848935 0.00573616 -0.007479724 -0.0023671833 0.000318335 -0.00050180237
-0.022962574 -0.015302662 0.0034605474 0.012279557 0.0025216124 -0.017354237 0.24515925 -0.0106948465
-1.4487637 1.2791317 0.26258597 -0.0074335425 0.004553676 0.0010048769 -0.0027105259 -0.011180857
0.40260336 -0.3121654 -0.014381615 0.0015370693 0.061507024 0.019489512 0.074632406 -0.4121612
-0.37612665 -0.098610215 0.3240423 -0.009812871 0.0053184857 -0.00083845307 -0.00087695883 -0.0076586353
-0.0027441806 0.0030737165 1.5823821 -0.015666574 0.0058980943 -0.007215813 0.0047914567 -0.0029949376
-0.005108529 -1.678762 0.46757063 0.0032879612 -0.009966736 0.005053691 0.012050176 0.0043587177
-0.40844074 -0.22218367 -0.007868747 -0.003278707 -0.018434672 -0.051613733 0.32698298 -0.05181257

bias f4 [128]
00000000: a167 04bf cd3a a5be 1b09 1bbf b895 55bf
00000010: 0d6c cbbf eeb1 aabf c609 84be 34d2 5b3f
00000020: 65ed 1cbe 08b3 f9be 6403 22bf d5b8 40bd
00000030: f7c7 91be 764b 07bf b8ce 0dbe d23b 5b3d
00000040: 74f0 0dc0 8183 38bf 909f 9dbf dc81 6dbe
00000050: 1dc2 3ebf 7596 d5be 6c38 53bf ff64 8ebf
00000060: 2c10 ccbe ff50 e4bd 7055 713d 117b 19bf
00000070: ba01 05be a7f1 0cc0 e4d6 08c0 599c 9dbd
00000080: a21d 9bbf 9a3c 41be 66f4 afbe 8247 c5bf
00000090: b297 03bf 8f84 0bbe a102 eebf f606 efbd
000000a0: 3b6b 85bf 0054 a3bf 35f8 08c0 1c00 33be
000000b0: 3656 b5bd e447 19bf f6f3 ad3e d759 a7bf
000000c0: cb95 a9be b22d a7be 171e febf f4ca 39bf
000000d0: 6b41 59bf dcdb dd3c 0eef 3cbf b678 55be
000000e0: c275 bf3e 5fee 9dbe 8660 cbbf 6153 3b3c
000000f0: 8cdf dbbf 4eb3 d5bf 5384 bebe 39b9 bebf
00000100: a058 85bf f5a7 7f3f 62ca ca3f 744a 93bf
00000110: 1d45 4fbf d1ec aabf dc07 65bf 59a1 94be
00000120: b2c3 1ebf 457b 39c0 f7fc 70bf 36da b4be
00000130: 1374 b0bf d1bc 36bf 6426 34bf f984 50bc
00000140: 4389 2a3e a803 24c0 3a40 89be e81a 14bd
00000150: 013a 10be 0b29 62bf 425c 08bd 4c01 76be
00000160: 0b50 8a3f a88a 23bf 1692 6e3e 03a8 06be
00000170: 29f0 703e bd66 23be 6537 e6bd d2bc 04bf
00000180: c995 61bf f75f 193e 55ec 89bc 0163 a6bf
00000190: de61 e4bf b62a 9dbc 42da b1bf a871 0ebf
000001a0: 98fb ccbe 7979 2fbf a879 eabe 2d0e 37b8
000001b0: d1cb e9bf 2225 ddbf 6f15 30bc e135 1b3e
000001c0: 1877 283f aa33 09bf 2219 8b3e bb56 8fbf
000001d0: 493f d03d 417f bfbe 585e 85bf f857 2b3e
000001e0: f456 e7bf ae55 babe 4f99 3abf c68e 01bf
000001f0: e824 36bf 3d70 29bf bfc8 0fbd 4357 6ebf
-0.51720625 -0.32271424 -0.6056077 -0.8343158 -1.589235 -1.333555 -0.25788707 0.8586762
-0.15324934 -0.48769403 -0.63286424 -0.04705127 -0.28472874 -0.5284952 -0.13848388 0.053523846
-2.217801 -0.7207566 -1.231432 -0.23194069 -0.74514943 -0.41716352 -0.8250797 -1.1124572
-0.39856088 -0.11148261 0.05891937 -0.5995341 -0.1298894 -2.2022493 -2.138116 -0.076958366
-1.2118418 -0.18870774 -0.3436615 -1.5412447 -0.51403344 -0.13624786 -1.8594552 -0.116712496
-1.0423349 -1.276001 -2.1401494 -0.1748051 -0.08854334 -0.5987532 0.3397519 -1.3074292
-0.33122095 -0.3265205 -1.9852933 -0.72575307 -0.84865445 0.027082376 -0.7380227 -0.20846829
0.3739453 -0.30845925 -1.5888832 0.011433453 -1.7177596 -1.6695344 -0.3721033 -1.4900275
-1.0417671 0.9986566 1.5843012 -1.1507096 -0.80964833 -1.3353521 -0.8946512 -0.29029348
-0.6201736 -2.8981488 -0.94135994 -0.35322732 -1.3785423 -0.7138186 -0.7037108 -0.012727016
0.16653924 -2.5627232 -0.26806813 -0.036158472 -0.14084627 -0.88343877 -0.03329111 -0.24023932
1.0805677 -0.6388345 0.23297915 -0.13150029 0.23529114 -0.1595716 -0.112410344 -0.51850617
-0.8811918 0.14978014 -0.016836325 -1.2998964 -1.7842367 -0.019185405 -1.3894732 -0.55642176
-0.400357 -0.6854473 -0.4579594 -4.3643802e-05 -1.8265325 -1.7276957 -0.010747298 0.15157272
0.6580672 -0.5359446 0.27167612 -1.1198343 0.10168321 -0.37401775 -1.0419416 0.16732776
-1.8073411 -0.36393493 -0.7289018 -0.5060848 -0.71150064 -0.6618689 -0.035103556 -0.931019

weight f4 [128, 128]
00000000: 59a4 2a3d b221 1a3e f526 65bf 7251 363f
00000010: 5550 473f eb59 d43f 0d0b 3e3e c44a 303d
00000020: 67d6 93be 3e0e 983e 5949 1ebf 9bf4 09be
00000030: b494 f03c f2e0 213f c911 cf3e 214a 3c3e
00000040: 3df2 86bf 9247 bf3e ee8b 3ac0 a578 1ebf
00000050: 23dc f13d 407b 603e 058a 383e 8e27 88c1
00000060: af61 54c0 544d 0c3d a76f a63e 73dc 71be
00000070: 6323 b43d 62be 8dbf cc31 3c3f 44f0 78bd
00000080: a1f8 ffbe 4cef ccbc 4967 debe 60f7 a53e
00000090: 461a e3bf ffbf acbb 0166 71be 4b0f 933d
000000a0: 2909 7a3f cd06 343f c8d5 3740 242d 84be
000000b0: e074 d23e e917 ddc1 612c 1b3f 82bd 253f
000000c0: 6410 cfbe c373 193e 12c0 733f 4011 cdbe
000000d0: 63d5 8fbf a52b 183f e81a 0e3e 5272 7d3b
000000e0: 0643 b53e 3f0d 16c0 751e 123f 0c17 f3bd
000000f0: ce53 e5bd 174d 77be 1271 73c0 f704 093f
00000100: b2a5 423e 4ba6 91bd 7cbb 103e 43ca 333e
00000110: a248 34bf 308b 15bf b878 eb3d 4cbf 91bd
00000120: b2f6 c03e 308a debe b5d4 1c40 79c6 193e
00000130: dfb8 103f 1f5f dcbe 025e 2a40 9785 cc3e
00000140: fbd7 1a3e d32e b1be 0e30 43be e137 a23d
00000150: 00ee 33be 243c bc3c 62ad 4ebe 4376 76be
00000160: ded4 25bf 450f 4ebf a928 a63e 4cb2 28be
00000170: 8510 4a3e a29b 843e 8501 cbbd 7e31 8b3e
00000180: cb22 18bf d339 b83f de80 e4bd a2b3 ea3b
00000190: 233a 61bf df20 493e 4032 babf 3a05 59be
000001a0: 0069 53c0 6c75 87bd 2b3d 81be dfa7 033c
000001b0: 2c30 91bf c347 c13d 4057 86be 0aa7 07be
000001c0: a97e 5b3b c672 423d 2e18 943e c12e 873f
000001d0: a6a5 a33a 8829 d33d f016 a33d f25b bfbd
000001e0: 4909 80be cafc 643f ec41 64c0 0e2c 63bd
000001f0: 5ca5 00bf 2962 2a3e 8819 9cbe cb70 5e3a
00000200: 0c5a 82bd 1c13 213f d09e 6d3c ed39 eabd
00000210: 0f4e ba3e e89f 0ebe 0ff3 66bc b761 47bf
00000220: 0ce3 54bd 5f52 6f3e 7173 0fbf 5376 423f
00000230: 4412 81bd 451e 3dbe b31c 0a3c a0a3 88bd
00000240: 9dc1 783e 86f6 483d a7ee c0be 61ff b7bd
00000250: cdaa 423d d8e6 653e 2892 85be a4db 2a3f
00000260: 96a3 b9be 0eed d03d 65e4 34bf 6ec2 ff3d
00000270: 7972 f7bd a290 cfbf e2ac 3cbf 9049 0dbe
00000280: 305e f4bd 4a01 243e 1c4e 003d 805c 793f
00000290: 81a0 76be c629 e2bd e3ff 6bc1 d1f6 353e
000002a0: e6a3 62be b877 383d 5af1 023f e582 0abe
000002b0: 7396 3b3d e518 00bf c507 6bbe 8181 f6be
000002c0: cdeb 0e3d f4f1 1c3e 16ee 503e d91a 8a3c
000002d0: 7413 bebe a413 7c3d 533a bfbe bab1 f43e
000002e0: 4da7 60be af4b 1bbf 0a60 593f 2b40 c8bd
000002f0: 838f 10bd 7155 6ebe cb2a ea3e cd47 9cbf
00000300: bfdf e33c b449 e6be aa66 26be c90b 3cbd
00000310: 2c77 f1bc 810f aabf 65cf 023e 622a c3bc
00000320: c8d1 283e d168 ec3f 6eb0 b53e 0b34 313e
00000330: 2a73 2abf d017 36be db1b 7b3e 255f 903c
00000340: 5b42 4cbb fdcf 9040 3e71 b03d 0d64 16bd
00000350: c1f1 b93c f876 003e 5d26 9cbd d077 893e
00000360: 5cb0 c1be ba36 bdbd a569 d83d fd91 b0be
00000370: 8d45 0cbe 8329 e0be 34be 42be 8017 09bd
00000380: e478 573e aa9f dfbe 94b7 b83e 1b23 8abe
00000390: fb68 a3bf b9d0 2b3e fd42 c23e 8950 283f
000003a0: cb0b 963e 46f1 c33e 3f3f dc3e b1e2 48be
000003b0: c22a 5d3f 5d18 77bf 1743 8d3e 5465 203f
000003c0: fcb9 10bf 6e8a 6a3d ab2f 10be 6dce 413e
000003d0: a598 3cbe 47d2 40be 2914 5a3f 2381 623e
000003e0: f457 a23f ea7e 653e 569c cebe d0ba c43d
000003f0: e5b8 a3bc f4f0 e23e 6567 24bd 9370 ea3e
0.04166064 0.15051916 -0.8951257 0.71218026 0.7785695 1.6589941 0.18558903 0.043040052
-0.28874514 0.29698366 -0.6183067 -0.13472216 0.029367782 0.63233864 0.40443256 0.18387653
-1.0542675 0.3735929 -2.9147906 -0.6190284 0.11809566 0.21922016 0.180214 -17.019314
-3.3184621 0.034253433 0.3250706 -0.23619251 0.08795812 -1.1073725 0.73513484 -0.06077601
-0.49994376 -0.02501645 -0.43438175 0.32415295 -1.7742393 -0.005271911 -0.23574068 0.07180651
0.9767023 0.7032288 2.8724232 -0.2581569 0.41104794 -27.636675 0.6061459 0.6474229
-0.40442193 0.14985566 0.9521495 -0.40052223 -1.1236995 0.59441596 0.13877451 0.0038672877
0.35402697 -2.3445585 0.57077724 -0.1186963 -0.11197625 -0.24150501 -3.8037763 0.535232
0.1900852 -0.07111796 0.1413402 0.17557625 -0.7042333 -0.5841551 0.11497635 -0.07116565
0.37688214 -0.43464804 2.4504826 0.15017118 0.5653209 -0.43041322 2.6619878 0.3994567
0.15121453 -0.34606037 -0.190613 0.07920814 -0.17571259 0.022977896 -0.20183328 -0.24068551
-0.64777935 -0.8049205 0.32452896 -0.16474265 0.19732864 0.25899988 -0.09912399 0.27186197
-0.5942809 1.4392647 -0.11157392 0.007162527 -0.87979335 0.19641446 -1.4546585 -0.211934
-3.3032837 -0.06614193 -0.2524198 0.008035629 -1.1342826 0.094375156 -0.2623844 -0.13247314
0.0033492243 0.047472738 0.28924698 1.0561143 0.001248528 0.10310656 0.07963359 -0.09343709
-0.25007084 0.89448225 -3.5665236 -0.055461936 -0.5025232 0.16639008 -0.3048823 0.00084854354
-0.06364831 0.62919784 0.014503196 -0.1143683 0.3638768 -0.13928187 -0.014096036 -0.77883476
-0.05197434 0.23371266 -0.56035525 0.759618 -0.06302312 -0.18468578 0.008429694 -0.06671834
0.24292608 0.049063228 -0.37682077 -0.089842565 0.04752617 0.22451341 -0.2608807 0.66741395
-0.3625762 0.102014646 -0.70661 0.124882564 -0.12082381 -1.6216013 -0.737013 -0.13797593
-0.11932027 0.16016117 0.03132449 0.9740677 -0.24084665 -0.11043124 -14.749972 0.17769934
-0.22132835 0.045036048 0.51149523 -0.13526495 0.045797776 -0.50037986 -0.22952183 -0.4814568
0.034892846 0.15326673 0.20403323 0.016858505 -0.37124217 0.06154217 -0.37349185 0.47791845
-0.2193882 -0.6066236 0.8491217 -0.09777864 -0.035293113 -0.23274781 0.45735773 -1.2209412
0.027816651 -0.44978106 -0.162501 -0.045909677 -0.02947577 -1.3285981 0.12774427 -0.02382392
0.16486275 1.8469487 0.35486168 0.17305009 -0.66581976 -0.17782521 0.24522345 0.017623493
-0.003116748 4.525389 0.08615349 -0.03671651 0.022698285 0.12545383 -0.07624505 0.26849222
-0.37829864 -0.09238954 0.10567025 -0.3448638 -0.13698407 -0.4378167 -0.19017869 -0.033469677
0.2104221 -0.43676502 0.3607756 -0.26979908 -1.2766412 0.1677884 0.37941733 0.65747887
0.29305872 0.38270015 0.43017003 -0.19617726 0.8639337 -0.9652155 0.27590248 0.62654614
-0.5653379 0.057260923 -0.14080684 0.18926401 -0.18417604 -0.18830214 0.8518701 0.22119574
1.2683091 0.22411695 -0.4035365 0.09605944 -0.019985626 0.44324458 -0.040137667 0.45789012

bias f4 [128]
00000000: de61 3b3f 44c7 28bf c014 e03d 7aac 44be
00000010: 9ef8 bc3d b1f4 8ebe b423 923e 6965 10be
00000020: b3ea 8e3e 3d32 263e 4d04 39be 074f a23e
00000030: 7021 94be 8cb4 97be cf84 02bf efba 82bf
00000040: 0904 1c3f c305 1fbe 34cd 6f3e d93e 533e
00000050: e0fb cc3e 10f5 bf3d 2778 7c3e 546b 613f
00000060: 2c1c 313f d357 463f ab0f f13e 9d6e b63e
00000070: bb4f 5abf c364 d73e 34e4 313e 00b6 0abf
00000080: b3a3 743e 9239 133f 693c 143d 2f05 8e3f
00000090: c9e4 683f 1c0f a7bf 0990 263f 1e15 d6bd
000000a0: 01d1 c0be e829 0a3f e119 0bbd 4c03 853c
000000b0: 7815 03bf 6bf5 c5bb f3b1 01bf 2b8f a7be
000000c0: 5cd7 ac3e bbbd e2bd 02d4 1abe c1ab f6bd
000000d0: f262 eabe caaa d8be 051c dfbe 4122 2d3f
000000e0: 2112 84bf a0ce 563e f453 3ebf 5f7c e23e
000000f0: 947e e8bc 9dcf 933e 177e ddbe 21bd f63e
00000100: d96a 2e3f aad5 14bf de3b 59bf 3ea6 1c3f
00000110: 943f 393d 2ea3 3cbf 45f8 2a3e 0d78 4e3f
00000120: 7e48 01bf 1537 6d3e 05f3 48be 8f86 233d
00000130: 8d7b 06bd 4be2 3f3f 11ab c4be caaf 09bf
00000140: 800e dcbc 9a30 983e fbfe 223e 7cf9 f13c
00000150: 8994 e13e 9b16 98be 0f77 3dbe 3e80 103f
00000160: cacc a5bd 7a83 3abe ac25 cdbd c5a4 a6be
00000170: 3b93 5cbe 5989 b6bd 65c8 fb3e c074 5f3f
00000180: 3cf8 e9be f302 13bc 60fc 053f d205 da3d
00000190: 7de9 0ebe 75cc 2bbf 7071 40bf 6339 b8bf
000001a0: e155 94be d58b f1be ba2f c03e c4e0 05bf
000001b0: 4e87 2a3f b7b8 35bf e04a e2be 4111 d7be
000001c0: 1d4b 30bf e476 17bf 0f1c 57be c22d 573f
000001d0: 775a b63d e2ba 5ebf fdf2 dd3d 9c04 9dbe
000001e0: a59b 0cbe c049 e7be ab64 f93e b205 a53e
000001f0: 7c2d 4fbc f4bc de3d c6ed ccbe b091 d33d
0.7319621 -0.65929055 0.10941458 -0.1920642 0.092271075 -0.2792106 0.28542864 -0.14101185
0.27913436 0.16230102 -0.18068047 0.31700918 -0.2893176 -0.29629934 -0.509839 -1.0213298
0.6094366 -0.15529542 0.23418123 0.20629443 0.40035915 0.09372914 0.2465521 0.88054395
0.6918361 0.7747776 0.47082266 0.35631266 -0.8527791 0.42069063 0.17372209 -0.5418396
0.23890571 0.5750972 0.036190424 1.1095332 0.909741 -1.3051486 0.6506353 -0.104532465
-0.37659457 0.53970194 -0.033960227 0.016236924 -0.51204634 -0.006041219 -0.50662154 -0.32726416
0.33758056 -0.110713445 -0.15119937 -0.12044478 -0.45778614 -0.42317802 -0.43576065 0.6763039
-1.0318033 0.20977259 -0.7434685 0.44235513 -0.02838067 0.28869334 -0.4326026 0.4819117
0.68131787 -0.58138525 -0.84856975 0.61191165 0.04522665 -0.7368649 0.1669627 0.8065193
-0.5050124 0.23165543 -0.19623955 0.039923247 -0.03283267 0.7495467 -0.38411763 -0.5378386
-0.026862383 0.2972458 0.1591758 0.029537909 0.44058636 -0.29704747 -0.18502448 0.5644568
-0.08095701 -0.18214217 -0.10016951 -0.32547584 -0.21540539 -0.08912916 0.49176326 0.8728752
-0.456972 -0.008972871 0.5233822 0.106456414 -0.13956256 -0.6710885 -0.7517309 -1.4392513
-0.2897177 -0.47176996 0.37536412 -0.5229609 0.6661271 -0.7098498 -0.4419775 -0.4200535
-0.68864614 -0.5916579 -0.21006797 0.84054196 0.089039735 -0.8700391 0.10837362 -0.3066758
-0.13731249 -0.45173454 0.48709616 0.32230908 -0.012645122 0.10875884 -0.40025157 0.10330522

weight f4 [11, 128]
00000000: bae8 e839 37d1 65ba b105 a93d e77a 3abd
00000010: de83 8638 c4b8 373c 8e52 853c c25a 313d
00000020: 1fbd 41bc 2a9b 723d 2832 f0bc 5157 b4bb
00000030: 9e69 efbd 6b21 363d f137 12bb 7c36 84ba
00000040: 9763 ba3d 391b 3e3b e801 84bb da35 573c
00000050: b2ac 893c 845b 123c ecbb c4bc 0b8d a63b
00000060: 0e94 3d3c 852a 3abe 0ff4 bdbc cf30 053c
00000070: 81f3 0e3c 5840 ff3c b13f faba e4a2 a5b8
00000080: 2769 e03b 9ee8 6e3b 7381 6c3c 3dfb 30bc
00000090: d586 b2bc 73ce 8a3d 6c04 99bb d285 23b9
000000a0: d1a0 1ebc 08bd 5038 4c48 6e3c fdb5 12bd
000000b0: 0299 123d 4c4f 32bc 3f60 c43c bfbe b1bc
000000c0: e7d7 7a3c f9ee c53b 8d0b e33b 7954 ebb8
000000d0: 2793 f4bb 00d5 e03b 692d f7ba 9174 0dbd
000000e0: 387d 89bc f464 603c b256 cdbc b287 9b3c
000000f0: 26ce c63b 0e15 543d 699f ba3c 55c0 e4bb
00000100: c2af 27bc de3c 9e3a 8de4 10bc 96bf 983c
00000110: 447e 78ba 91ee efbc b132 a5ba 6856 693d
00000120: 42be 69bd 7cea e0bc aca3 81bd 64e6 59bc
00000130: cba7 cabc b410 dfbd abf3 18bc f410 c0bc
00000140: c028 613c c4bd 853e 9f4f 88bc 1e20 7bbd
00000150: 3ae1 27bc 103d a2bc 7643 1abb 9a4c 64bb
00000160: 418c 12bb 3d71 053c 4d83 9f3c be1e 733c
00000170: c75a 12bd b539 88bc 14eb 79bc 2629 133d
00000180: 07c0 37bc 61d0 f63c e081 64bd 26e2 a1ba
00000190: 962f 96bd 28a2 d03b 600d adbc df5e e03d
000001a0: b52f f33b a4cd 243d f1cc 62bd 8402 fbba
000001b0: 14c0 de3b 3d59 b63c 262b 82ba fa27 e2bb
000001c0: 1bfa e03c 276e f4ba da20 8cbc 2f47 cfbd
000001d0: ca2b 1fbd 37ee 783c 587b ff3d 6569 84bd
000001e0: 19ee 02ba 0a48 1d3c 4cb4 15ba e212 99bb
000001f0: 4268 403d 3d93 7a3c 29da ad3a bbde 5c3a
00000200: 2c7e 573b a17e 80bc 7fc6 bfbd 6bf5 8b3d
00000210: d8f3 933b 6915 4abc 101d d8bc ded0 debd
00000220: 9837 043d 2cf6 823b 439c 473d 2e5f 6dba
00000230: 3a1d 3a3d 26ae 2ebd e5ff 4f3c 8635 963c
00000240: eec5 69be 172a 183d 6e01 18bb 1b1d 5ebc
00000250: 992e e4bc c138 80bc 18db 813d 9fc9 4fbb
00000260: b5b8 adbc f4bb c43e a25d 783e a75a ecbc
00000270: e650 c8b8 dbc5 40bd 6d7f 393d b292 acbc
00000280: facb 92bc f409 19bc fa40 c83c b08a d8bc
00000290: 9b31 7abc 95dd 9dbc 93b2 2abd 6799 d63b
000002a0: 4d97 02bd c61a 49bc e45f d2ba f726 5cbc
000002b0: c8fa 59bc f790 943c 9e23 02bc 00dc 873d
000002c0: ead5 33bb 05ee 04bc b0cc 22bc 014c 4c3a
000002d0: 1039 21bc 2281 13bc 81f3 153c 595d 7f3d
000002e0: f805 693c be96 5ebc be78 373c 9b36 c5bc
000002f0: 25fe 33bc 0864 f0bc fd47 8a3c 9550 75bb
00000300: 836e 333c 60d8 243c a6ca 4bbc 4451 7fbd
00000310: 1535 7abc 7595 6dbc 3202 65bb a90b 69be
00000320: 4da5 b63d 6a19 983c 9895 d33d c9c5 283d
00000330: 8360 3a3d d4b2 263e 6c05 293c 8c8f 1d3d
00000340: 0f1a d0bc 338e d0be 294a 083d 0a41 efbc
00000350: 2a84 e63c 4413 e63b f27c 043c 0935 67bc
00000360: 6fcf bb3b 5cba 563b b10b eabc b998 b23b
00000370: 6252 b93c a045 843d 9622 9e39 75ea acbd
00000380: 5fce be3c d7d7 1abc 7620 e33c afd1 26ba
00000390: 5815 a83d 2239 9ab9 4d69 093b 013d 14bd
000003a0: bd78 64bb e4d1 9bbc b35d 4a3e ece0 0abc
000003b0: efed 39bd c928 a9bb 278b 47bc 460d 0d3c
000003c0: 13b1 f8bc 300d 90bc e867 fa3c 3ebc 683e
000003d0: d406 0a3d 906d eebc 09aa 93be 3f32 003d
000003e0: 9f59 0bba 4c22 6dbc da6b 5bbb f8e2 df3c
000003f0: fff9 0ebe 8f8b b9bc 3e41 0a3b 71b7 0c3c
0.00044423883 -0.0008766832 0.08253039 -0.045527365 6.41418e-05 0.011213485 0.016274717 0.043299444
-0.011824875 0.059230007 -0.029320791 -0.005503573 -0.11690067 0.044465464 -0.0022311176 -0.0010087038
0.091010265 0.0029007925 -0.0040285476 0.013135398 0.01680598 0.008932952 -0.02401539 0.0050827316
0.0115709435 -0.18180282 -0.023187665 0.008129313 0.008725048 0.031158611 -0.0019092468 -7.898154e-05
0.0068484726 0.0036454569 0.01443516 -0.010802087 -0.021792809 0.06777658 -0.0046697166 -0.00015594743
-0.009681896 4.9767114e-05 0.014543604 -0.03581809 0.03579045 -0.010883164 0.023971675 -0.0216974
0.015310264 0.0060404507 0.006928867 -0.000112214075 -0.007463831 0.006861329 -0.0018858138 -0.034534995
-0.016783342 0.013695944 -0.025065754 0.018985603 0.0060670553 0.05177789 0.02278109 -0.0069809356
-0.010234775 0.0012072583 -0.008843553 0.018646043 -0.0009479264 -0.029288562 -0.0012603608 0.05696717
-0.05706621 -0.02745556 -0.06330046 -0.013299558 -0.024738213 -0.10891858 -0.009335439 -0.023445584
0.013742626 0.26121342 -0.016639529 -0.061309926 -0.010246569 -0.019804507 -0.0023538745 -0.0034835697
-0.002236143 0.008144674 0.019471789 0.0148388725 -0.035731103 -0.01662908 -0.015253801 0.035927914
-0.0112152165 0.03012866 -0.05578792 -0.0012350723 -0.07333295 0.006366987 -0.021124542 0.10955595
0.0074214586 0.040235177 -0.05537123 -0.001915053 0.0067978 0.022259349 -0.0009931072 -0.0069017382
0.02746301 -0.0018648551 -0.017105509 -0.10120999 -0.03886012 0.015193514 0.12474698 -0.06465415
-0.0004994586 0.009599695 -0.0005710765 -0.0046714405 0.046974428 0.015293893 0.0013263869 0.00084255234
0.00328816 -0.015685381 -0.09364032 0.06833919 0.0045151524 -0.012334206 -0.026381046 -0.10879682
0.03227958 0.003996631 0.048733007 -0.00090550154 0.04543803 -0.04264655 0.012695287 0.018336069
-0.2282941 0.037149515 -0.0023194212 -0.013556744 -0.02785425 -0.015652062 0.06340617 -0.003170587
-0.02120624 0.38424647 0.24254468 -0.02885182 -9.551812e-05 -0.04706369 0.04528754 -0.021066044
-0.01791953 -0.009340752 0.024445046 -0.026433319 -0.015270616 -0.019270698 -0.041674208 0.0065490487
-0.031882573 -0.01227445 -0.0016050306 -0.013437024 -0.01330442 0.01813553 -0.007943062 0.066337585
-0.0027440735 -0.008113389 -0.009936497 0.0007793308 -0.009840265 -0.009002956 0.009152294 0.062344883
0.0142226145 -0.013585744 0.011198221 -0.02407389 -0.010985886 -0.029344574 0.01688003 -0.0037432064
0.010951641 0.010061353 -0.012438452 -0.06233336 -0.015271445 -0.014500965 -0.0034943935 -0.22758354
0.08918247 0.018566806 0.10331267 0.041204248 0.045502197 0.16279155 0.010316234 0.038466975
-0.02540305 -0.4073349 0.03327385 -0.029205818 0.028139193 0.0070213396 0.00808643 -0.014111766
0.005731515 0.0032764887 -0.028570028 0.005450335 0.022622291 0.064585924 0.00030161877 -0.08443157
0.023291765 -0.009450874 0.02772544 -0.0006363643 0.08207196 -0.00029415736 0.0020967305 -0.03619099
-0.0034862005 -0.019020982 0.19762306 -0.008476477 -0.045392927 -0.0051623327 -0.012179173 0.008609122
-0.030357873 -0.017584413 0.030567124 0.22728059 0.033697918 -0.029104978 -0.28840664 0.03129792
-0.0005315784 -0.014473509 -0.0033481033 0.027329907 -0.13962553 -0.022649555 0.0021096016 0.008588658

bias f4 [11]
00000000: 7bfa fabd 38af eb3e ec23 73bf b54c 133f
00000010: b364 fcbd 3641 80bf 2fdc 54bf 7235 c73e
00000020: 08b5 3f3f c925 19bf 0879 43be
-0.122548066 0.4603212 -0.9497669 0.5753892 -0.12323894 -1.0019901 -0.83148474 0.38907963
0.74885607 -0.5982328 -0.19089139
