Dat/Nova pasta/model_scripted.pt (torch, 86992 bytes, 6 tensors)

weight f4 [128, 8]
-0.043983597 -0.0089565925 0.0091118505 0.0007562338 0.0060031214 -0.255531 0.012754116 0.008810713
-0.0154028395 0.0442661 0.06216871 -0.050946273 -0.02979338 0.009208898 -0.029189007 0.014194241
0.0922295 0.01872739 0.0046005854 -0.0007258789 0.019188616 -0.022286423 -0.00025350924 -0.006190353
-0.24744678 -0.052845523 0.38001066 0.0024458119 -0.024607891 -0.011061518 0.0058942554 0.014523358
-0.47002178 0.27653936 -0.02175695 -0.011646596 0.06673742 -0.40942344 0.06552101 0.013045563
-0.55130893 -1.137798 0.9572079 -0.017087048 -0.0030332194 -0.0032240092 0.009769309 0.001998324
0.28653848 0.4992295 1.1273302 -0.00084130245 -0.0044923583 -0.002034804 0.014915888 -0.013851706
0.53479224 0.35526702 -0.0039860248 -0.003513976 0.48128188 -0.07224906 -0.02662531 -0.07469704
1.5646127 -0.0050822594 0.09459496 -0.0060706213 0.0028353916 0.0001389066 -0.00035870034 -0.0014922849
-0.020323629 1.904403 0.28091782 0.000398061 -4.5165056e-05 0.0015190971 0.008734849 -0.005302009
0.59466267 0.10244786 0.7923682 0.011857094 -0.0005363766 -0.0013180263 -0.011448195 -0.008063007
0.40477398 0.006699076 0.2346289 0.004297995 0.009004802 -0.0023678117 -0.012065833 0.0083758095
-0.028288808 0.07016397 -0.015321204 0.015633665 0.3085853 -0.03784081 -0.019974543 -0.024558464
-0.3307849 0.84654987 0.07523479 -0.0029885443 0.0007147243 -0.0029921941 0.005879861 0.0013321629
-0.5079884 0.06537001 1.3171889 -0.011514785 -0.001283308 -0.0016457756 0.00038871693 -0.016882598
-1.0103633 1.1375711 -0.24486269 -0.0055035045 -0.0047801053 0.00961891 0.0069741537 0.000713929
-1.7932746 1.6590079 0.026012462 -0.00039723836 -0.0022197727 0.0049950588 0.0037903588 0.006231601
0.73014843 1.628957 0.05272651 -0.0057955193 -0.00482941 0.0051669125 -0.0044004633 -0.010498532
0.37426138 -0.21054456 -0.031631425 0.0022160236 -0.05443177 0.3924464 -0.03403275 -0.0069378037
-0.82287914 -1.1763035 0.41380557 -0.0075204307 -0.005822917 0.0035710882 0.003924076 -0.009188858
-1.623291 -1.6230402 0.024067577 0.0009366101 -0.0010602887 -0.0024152591 -0.0020485374 0.0054791337
-1.4003724 0.5918092 0.47242552 0.003550955 -0.0024713993 0.006687776 -0.00043801527 -0.012634621
0.84430087 -0.4329462 0.5411213 -0.01186636 0.01746858 -0.0010089471 -0.020564403 -0.014760457
-0.02440347 0.049580123 -0.005796561 0.012237694 0.010959144 0.022735108 -0.29623413 0.031846896
1.34435 0.020434424 -0.23454821 -0.0063979714 0.0064802817 0.0061388193 -0.0129090585 -0.009359117
0.41884482 0.0223451 0.052740846 -0.008829662 -0.04670596 -0.05912583 0.052808274 0.107399434
-0.0029682382 -0.004885543 -0.0072407643 -0.055982847 0.0035670595 -0.0010379977 0.0035880934 0.0052106804
0.05250628 -0.0037840118 0.0026051141 0.009278684 0.01589664 0.01025283 0.009253708 -0.0039393594
-0.006067042 0.011099295 1.689555 -0.006499716 0.005630085 -0.0041903695 0.003804563 0.013355681
-0.0068552415 -0.010661516 0.014695078 0.0035524056 -0.10021773 -0.06010795 0.09459752 0.054470077
-0.004760846 -0.00030042694 -1.252646 -0.00023318724 -0.00043856513 0.0022925434 0.002088164 0.0023394714
-0.002691635 0.0038984728 -0.015011143 -0.0029499745 -0.0012902636 0.00020337472 -0.012309913 -0.003931525
00000000: 2528 34bd acbe 12bc df49 153c fe3d 463a
00000010: d5b5 c43b f6d4 82be a4f6 503c cf5a 103c
00000020: 315c 7cbc 5f50 353d 9ea4 7e3d 0aad 50bd
00000030: 3f11 f4bc ebe0 163c c91d efbc f68e 683c
00000040: d2e2 bc3d 2f6a 993c 82c0 963b e948 3eba
00000050: 7231 9d3c 0492 b6bc 6fe9 84b9 72d8 cabb
00000060: b062 7dbe 8c74 58bd c290 c23e ea49 203b
00000070: 7d96 c9bc 5f3b 35bc 9924 c13b 61f3 6d3c
00000080: b2a6 f0be 9196 8d3e a23b b2bc 5dd1 3ebc
00000090: a1ad 883d f39f d1be e12f 863d 0fbd 553c
000000a0: 9522 0dbf 5da3 91bf 940b 753f 23fa 8bbc
000000b0: fac8 46bb e649 53bb 740f 203c 50f6 023b
000000c0: 2cb5 923e 029b ff3e 5b4c 903f da8a 5cba
000000d0: a234 93bb 595a 05bb c561 743c 44f2 62bc
000000e0: 25e8 083f 8fe5 b53e 339d 82bb bc4a 66bb
000000f0: 946a f63e 51f7 93bd 521d dabc c3fa 98bd
00000100: 3b45 c83f 1589 a6bb 01bb c13d 10ec c6bb
00000110: fad1 393b 75a7 1139 f20f bcb9 c698 c3ba
00000120: bd7d a6bc 7ac3 f33f 76d4 8f3e d8b2 d039
00000130: 9c6f 3db8 711c c73a 9d1c 0f3c 7abc adbb
00000140: d03b 183f 2fd0 d13d a4d8 4a3f 4244 423c
00000150: a09b 0cba a0c1 acba 3691 3bbc b41a 04bc
00000160: 893e cf3e ec83 db3b 8f42 703e 32d6 8c3b
00000170: e188 133c 4a2d 1bbb c6af 45bc b13a 093c
00000180: eebd e7bc 21b2 8f3d ca05 7bbc 2c12 803c
00000190: e4fe 9d3e f7fe 1abd a7a1 a3bc d52e c9bc
000001a0: a35c a9be 7eb7 583f b314 9a3d 74db 43bb
000001b0: 565c 3b3a b018 44bb d9ab c03b f89b ae3a
000001c0: 870b 02bf b6e0 853d a599 a83f 82a8 3cbc
000001d0: ac34 a8ba 11b7 d7ba b4cc cb39 604d 8abc
000001e0: 9653 81bf ee9b 913f 49bd 7abe be56 b4bb
000001f0: 6ea2 9cbb a298 1d3c 7187 e43b f726 3b3a
00000200: 068a e5bf 5f5a d43f 1618 d53c 6e44 d0b9
00000210: 9b79 11bb 97ad a33b ab67 783b 7532 cc3b
00000220: 02eb 3a3f aa81 d03f c1f7 573d 57e8 bdbb
00000230: 0740 9ebb 344f a93b c331 90bb 0902 2cbc
00000240: 309f bf3e fe98 57be f48f 01bd b53a 113b
00000250: d9f3 5ebd bcee c83e ed65 0bbd 8456 e3bb
00000260: 35a8 52bf 1d91 96bf 53de d33e f26d f6bb
00000270: 2bce bebb eb08 6a3b 8995 803b dd8c 16bc
00000280: 00c8 cfbf c8bf cfbf 5e29 c53c d786 753a
00000290: 63f9 8aba 5349 1ebb c140 06bb 4e8a b33b
000002a0: 673f b3bf cf80 173f c2e1 f13e 24b7 683b
000002b0: 33f7 21bb 2225 db3b 6aa5 e5b9 7101 4fbc
000002c0: 1a24 583f 20ab ddbe ed86 0a3f 1f6b 42bc
000002d0: 441a 8f3c a63e 84ba ae76 a8bc d8d5 71bc
000002e0: c9e9 c7bc 8714 4b3d 14f1 bdbb 9c80 483c
000002f0: fb8d 333c fa3e ba3c 00ac 97be e471 023d
00000300: a913 ac3f 1866 a73c 682d 70be 13a6 d1bb
00000310: 8b58 d43b 2628 c93b 8480 53bc fb56 19bc
00000320: d472 d63e 120d b73c c906 583d 49aa 10bc
00000330: c04e 3fbd ed2d 72bd 7d4d 583d 3cf4 db3d
00000340: c686 42bb e816 a0bb ef43 edbb 454e 65bd
00000350: 54c5 693b 6c0d 88ba 3826 6b3b 5bbe aa3b
00000360: d310 573d 2ffd 77bb 90ba 2a3b 9f05 183c
00000370: ac39 823c 7cfb 273c dd9c 173c be15 81bb
00000380: 09ce c6bb d1d9 353c 5743 d83f 92fb d4bb
00000390: 937c b83b 5e4f 89bb fa55 793b c9d1 5a3c
000003a0: efa1 e0bb a4ad 2ebc a0c3 703c 7acf 683b
000003b0: f43e cdbd c133 76bd 58bc c13d 041c 5f3d
000003c0: df00 9cbb 9f82 9db9 b456 a0bf b983 74b9
000003d0: 37ef e5b9 7f3e 163b 94d9 083b d151 193b
000003e0: 2466 30bb 857d 7f3b 4cf1 75bc 5c54 41bb
000003f0: 101e a9ba fc40 5539 84af 49bc 06d4 80bb

bias f4 [128]
-0.15114757 -0.335364 -0.29171032 -0.11200121 -0.6702159 -2.0304217 -1.7223669 -0.72008836
-1.9892954 -1.7192557 -0.725588 0.30170617 -0.27906296 -0.33126035 -1.481867 -1.6015815
0.16480298 -0.6386555 -0.9011552 -0.71955115 -0.2093838 -1.7239609 -1.070316 -0.20593801
-0.6920801 -0.46838787 0.08977717 -0.15873104 -2.3541021 0.412599 0.05427371 -0.106839485
-0.90791243 -1.6627699 -0.07886364 -0.91801035 -0.077933334 -0.13739306 -0.587771 -1.2551066
-1.880997 -2.2568264 -0.14204156 -2.0286121 -0.16153207 -1.2249691 -0.087124944 -0.14724192
-2.0239217 -0.5696957 -0.1430376 -1.0079763 -0.76666 -0.03982423 0.57109267 -0.77788836
-1.7608081 -0.021248106 -0.13412964 -0.060713515 -2.0145075 0.671722 -0.97496665 -0.89351755
0.016683543 -0.2099751 -0.63907725 -0.8998557 0.15204957 -0.48932704 -1.3987311 -0.05007377
-0.7673517 0.4378917 -0.3946967 -0.57273465 -0.1112816 -0.6428805 0.3885816 -0.7267244
-0.16154198 -0.39478967 -0.22539657 -1.6854849 -0.34130457 0.013858375 -0.2098197 -0.49751207
-0.17845969 -0.21376194 0.009839621 -0.07450272 -0.39081916 -0.108861886 0.24248423 -0.48255298
0.09017515 0.85004014 -1.1329086 -0.6716471 -2.5056398 1.0262303 -2.757972 -0.8572749
-2.4575634 -0.02808084 0.5361731 0.49772742 -0.192679 -1.2962103 -1.5947787 0.011549053
-0.17899728 -2.03008 0.4108855 -0.09148366 -2.3641841 -0.5661934 -1.5364114 -1.9037157
0.20289634 -0.01499486 -0.9191983 -1.1142567 1.3066794 -0.82869685 0.2320825 -0.75249606
00000000: 6ec6 1abe d5b4 abbe 0e5b 95be e460 e5bd
00000010: 4593 2bbf 6ef2 01c0 8576 dcbf b657 38bf
00000020: 3ba1 febf 9210 dcbf 23c0 39bf 3b79 9a3e
00000030: 57e1 8ebe f59a a9be d1ad bdbf 9f00 cdbf
00000040: 1dc2 283e ed7e 23bf 1bb2 66bf 8134 38bf
00000050: b568 56be c0aa dcbf 1d00 89bf 6ae1 52be
00000060: 292c 31bf 89d0 efbe 18dd b73d 648a 22be
00000070: 9ca9 16c0 2d40 d33e 1c4e 5e3d a9ce dabd
00000080: f36c 68bf a5d5 d4bf 4383 a1bd ba02 6bbf
00000090: 839b 9fbd c4b0 0cbe 2978 16bf 55a7 a0bf
000000a0: 82c4 f0bf d86f 10c0 5873 11be c8d4 01c0
000000b0: aa68 25be cacb 9cbf 906e b2bd 96c6 16be
000000c0: ef87 01c0 94d7 11bf 7378 12be 5e05 81bf
000000d0: d443 44bf bb1e 23bd 2133 123f b123 47bf
000000e0: 2962 e1bf 8210 aebc 4859 09be bcae 78bd
000000f0: b1ed 00c0 f9f5 2b3f 6a97 79bf 91bd 64bf
00000100: edab 883c b603 57be 919a 23bf f15c 66bf
00000110: e2b2 1b3e 1389 fabe 9f09 b3bf 271a 4dbd
00000120: 2971 44bf 5733 e03e b015 cabe bd9e 12bf
00000130: 9ce7 e3bd d193 24bf 2bf4 c63e 9c0a 3abf
00000140: 436b 25be df21 cabe 5cce 66be f8bd d7bf
00000150: 79bf aebe 3d0e 633c fada 56be e7b9 febe
00000160: 23be 36be 69e4 5abe 5d36 213c e294 98bd
00000170: 7319 c8be fbf2 debd c94d 783e 2f11 f7be
00000180: c0ad b83d 3b9c 593f 2603 91bf 10f1 2bbf
00000190: 675c 20c0 845b 833f 9d82 30c0 5e76 5bbf
000001a0: b848 1dc0 ca09 e6bc a442 093f 21d6 fe3e
000001b0: a54d 45be 38ea a5bf b521 ccbf 3d38 3d3c
000001c0: 104b 37be d5ec 01c0 965f d23e c95b bbbd
000001d0: cb4e 17c0 0df2 10bf 21a9 c4bf f5ac f3bf
000001e0: 0fc4 4f3e 00ad 75bc 9450 6bbf f79f 8ebf
000001f0: 4541 a73f 7a25 54bf 09a7 6d3e 95a3 40bf

weight f4 [128, 128]
0.10254082 -0.69262564 0.20314364 -2.0894969 -1.4232491 0.117809735 -0.222507 -1.5526739
2.170506 0.019967647 0.4853676 -0.07736751 0.123720266 -0.9031692 -0.40642306 0.7379871
0.16894276 0.463943 0.11225064 -0.07865448 0.23109679 -0.09221643 -0.8026677 -0.29131347
0.019039473 -0.38962787 0.34405783 -0.10184261 -0.34084222 -0.23514365 0.9878424 0.19200051
-0.2711283 0.29110596 0.42359373 -0.20386489 1.1587657 -0.8209393 0.061504506 -0.73396593
0.71365345 -0.54377955 -0.04736168 0.2590639 0.16193314 -1.0489416 -0.15111053 0.06728645
-0.13111451 0.31976393 0.7649865 -0.74308515 -1.4753877 1.287202 -0.0034028352 0.0030291995
-1.5514568 1.1811173 -0.13221613 -0.49368414 0.6077972 -0.18253085 -0.6734082 -0.40970242
0.036753796 -2.065035 -1.7174532 0.33720174 0.015521149 -0.07063166 -0.31635246 1.9987314
-0.64898 -0.65094405 -0.24501921 0.06504131 -0.18320037 -1.0060401 1.0569978 -1.0788093
-0.15037048 0.11098507 0.37370986 1.0918472 -0.070197776 0.45139846 -0.10360993 -0.0033589904
0.21941201 0.22150566 -0.96922624 -0.20534593 -0.21690856 0.48269832 0.11336275 -2.3024287
0.2860666 -0.4609419 0.99981356 -1.7679728 -0.08696434 -0.22463042 -0.38747862 0.90020233
-1.6297278 0.8205177 -0.41032073 -0.15407707 0.026071694 -0.9251725 0.16773662 1.8779373
0.03302796 0.71594316 -0.07008525 0.45157593 -1.0636029 -0.062083814 -0.65106016 -1.9250642
-0.13726738 0.7374227 -0.4907015 -0.0017748891 -0.28480095 -1.8747323 -0.121807724 -0.2398985
0.32880923 -0.3413124 -0.35711396 0.07928576 0.14742142 1.14465 -1.4009243 0.023950852
0.026711864 -0.045331214 -2.068136 -2.4723473 -0.19684713 -1.6030254 0.49880257 -0.2892315
-0.9375248 0.042199433 0.48742875 0.60593677 0.334049 -1.578218 2.7095606 0.49220833
-0.0068988185 0.80724293 0.123287566 -1.437267 -1.4913847 -0.8961313 -0.42660362 -0.5058012
-0.52565056 -0.78138673 -0.38439006 -0.11163174 0.010273336 0.21401823 -0.20709763 0.647295
0.92592204 0.39560884 -0.06661987 -0.17038104 -1.9295667 -0.48378512 -0.16148548 -0.2977572
0.80792314 -0.3566919 -0.3337898 -0.33537298 -1.8226355 -0.92481637 -0.7233164 -0.08786331
-0.10137607 0.3969785 0.37357447 0.18580846 0.0036398293 -2.7468736 0.096560955 -0.2311692
2.5780523 -1.6092834 0.1170031 0.09243202 0.2142601 -0.7712622 -0.67730916 0.30193236
-0.04061993 -0.64497995 0.39190975 0.5281238 -0.06548404 -0.053612433 -0.71402335 -0.18979874
-0.059005048 -0.114576384 0.049086217 0.7394026 0.08532796 -0.31101948 -0.23474425 -0.027627578
-0.002713009 -0.35700285 0.116053864 -0.25087562 0.054795712 0.21136552 -0.69577694 -0.12868
0.3236323 -0.62544423 0.058392957 0.44997773 0.8436778 -2.7352953 -0.027170416 -1.4321508
4.2342467 0.25570995 -0.21660236 0.0049981847 -0.12423702 -0.37646008 -1.9068607 0.0006915878
-0.20290263 0.031012533 -0.07169167 0.15871206 -0.29389605 0.3784526 -0.124239795 -0.24238065
0.013596251 -0.042111777 0.0648976 -0.074949615 -0.22716774 0.21845917 -0.8951037 2.4604843
00000000: ec00 d23d ea4f 31bf e304 503e 51ba 05c0
00000010: 072d b6bf 3b46 f13d e0d8 63be 05be c6bf
00000020: 92e9 0a40 3193 a33c 1a82 f83e db72 9ebd
00000030: 0d61 fd3d 1936 67bf af16 d0be b9ec 3c3f
00000040: 55ff 2c3e f089 ed3e aae3 e53d 9a15 a1bd
00000050: a3a4 6c3e f8db bcbd a17b 4dbf 0a27 95be
00000060: abf8 9b3c 4e7d c7be 5928 b03e dc92 d0bd
00000070: df82 aebe 7fc9 70be 3de3 7c3f c89b 443e
00000080: 54d1 8abe d70b 953e 47e1 d83e f5c1 50be
00000090: 6f52 943f 1429 52bf 26ec 7b3d 31e5 3bbf
000000a0: feb1 363f 2335 0bbf 52fe 41bd 06a4 843e
000000b0: cdd1 253e b843 86bf b8bc 1abe 7acd 893d
000000c0: e242 06be 19b8 a33e 28d6 433f d43a 3ebf
000000d0: 81d9 bcbf 09c3 a43f 1a02 5fbb 8985 463b
000000e0: 2396 c6bf da2e 973f aa63 07be 2bc4 fcbe
000000f0: 9998 1b3f 5ee9 3abe 7b64 2cbf 84c4 d1be
00000100: 268b 163d 8929 04c0 82d5 dbbf b5a5 ac3e
00000110: 6b4c 7e3c 55a7 90bd f3f8 a1be 6ed6 ff3f
00000120: 8e23 26bf 45a4 26bf 51e6 7abe 6134 853d
00000130: e198 3bbe ecc5 80bf b44b 873f 6c16 8abf
00000140: b8fa 19be 244c e33d e656 bf3e a6c1 8b3f
00000150: dac3 8fbd b31d e73e 7131 d4bd 8222 5cbb
00000160: 8bad 603e 61d2 623e 361f 78bf 3446 52be
00000170: 471d 5ebe 3c24 f73e bb2a e83d fe5a 13c0
00000180: 5277 923e 9400 ecbe c8f3 7f3f ef4c e2bf
00000190: 5c1a b2bd 8405 66be 9963 c6be a973 663f
000001a0: ec9a d0bf 730d 523f 8f15 d2be 61c6 1dbe
000001b0: 4e94 d53c 1bd8 6cbf 26c3 2b3e 4060 f03f
000001c0: 5448 073d 0d48 373f db88 8fbd f634 e73e
000001d0: 2424 88bf 994b 7ebd e1ab 26bf 8168 f6bf
000001e0: d28f 0cbe bcc7 3c3f 3a3d fbbe 65a3 e8ba
000001f0: 6ed1 91be 3af7 efbf 5476 f9bd f4a7 75be
00000200: af59 a83e 80c0 aebe a4d7 b6be 9360 a23d
00000210: a4f5 163e e483 923f 7d51 b3bf 9434 c43c
00000220: d7d2 da3c 39ad 39bd 575c 04c0 f03a 1ec0
00000230: 4b92 49be f02f cdbf 0d63 ff3e 2716 94be
00000240: a001 70bf 50d9 2c3d 4390 f93e ac1e 1b3f
00000250: 7808 ab3e 0c03 cabf 7169 2d40 bb02 fc3e
00000260: 7c0f e2bb 79a7 4e3f 317e fc3d 5df8 b7bf
00000270: b2e5 bebf dc68 65bf ca6b dabe 307c 01bf
00000280: 0991 06bf f608 48bf c6ce c4be 2f9f e4bd
00000290: 7f51 283c 9827 5b3e 6711 54be 20b5 253f
000002a0: 3a09 6d3f 3e8d ca3e 0070 88bd 5e78 2ebe
000002b0: 0bfc f6bf afb2 f7be 735c 25be a273 98be
000002c0: 0dd4 4e3f 52a0 b6be 7fe6 aabe 02b6 abbe
000002d0: 1f4c e9bf c4c0 6cbf 432b 39bf aef1 b3bd
000002e0: 429e cfbd c440 cb3e 2745 bf3e 9344 3e3e
000002f0: 348a 6e3b c7cc 2fc0 c0c1 c53d 9eb7 6cbe
00000300: cffe 2440 00fd cdbf 529f ef3d 004d bd3d
00000310: 0067 5b3e 7171 45bf 2264 2dbf e196 9a3e
00000320: 1561 26bd 681d 25bf 65a8 c83e 1f33 073f
00000330: 7f1c 86bd b698 5bbd 3cca 36bf 9a5a 42be
00000340: 47af 71bd 06a7 eabd a10e 493d 7d49 3d3f
00000350: 6dc0 ae3d f23d 9fbe cc60 70be 3b53 e2bc
00000360: bdcc 31bb 14c9 b6be a6ad ed3d c572 80be
00000370: 7871 603d 3470 583e 701e 32bf b1c4 03be
00000380: 22b3 a53e 1d1d 20bf 742d 6f3d 7b63 e63e
00000390: 45fb 573f 140f 2fc0 7e94 debc b850 b7bf
000003a0: f37e 8740 6aec 823e 02cd 5dbe d0c7 a33b
000003b0: fb6f febd 60bf c0be 0314 f4bf ac4b 353a
000003c0: b5c5 4fbe ff0d fe3c 15d3 92bd 6a85 223e
000003d0: 8b79 96be 8ac4 c13e 6f71 febd a232 78be
000003e0: cfc2 5e3c 667d 2cbd 08e9 843d 2f7f 99bd
000003f0: a99e 68be c3b3 5f3e 8425 65bf 9378 1d40

bias f4 [128]
-0.58207667 -0.9386994 -0.30942178 -0.050339013 0.8890111 0.56407803 -1.9317276 -0.74194336
-0.6227778 0.1379965 -0.80369294 0.27384454 -0.061071847 -1.9858694 -0.9881404 -0.7389724
0.57698303 0.4517013 0.5760955 0.85755426 -0.043504037 -0.09660848 0.1882805 -0.5863702
0.17158657 -1.0680856 0.48545024 0.22029965 0.04201745 -0.26129967 0.17421976 0.5024929
0.53974956 -0.5469625 -0.9844259 0.025694832 -0.787761 -0.19825983 0.5651395 0.978073
-0.113855 -0.41195014 -0.36205366 0.889675 -0.08553999 -0.0005435358 -1.4559058 -0.19718984
-0.5535641 0.83609563 -0.63493276 1.3004199 -1.4207181 -0.5358924 -0.36429274 -0.09857955
0.25237122 0.33776113 -0.73205304 -0.2813042 0.8262385 0.09619945 -1.3067083 0.2056129
0.2629539 -0.28007352 -0.41637126 0.9239664 0.3179144 0.20393711 0.24166179 0.29689112
-0.8352646 -0.10727777 0.38872087 0.2122555 0.3577921 -0.33799666 -0.2717896 -0.43137625
-0.062233567 0.41109335 0.080194026 0.46011102 0.01683697 0.75787425 -0.055036146 -0.72822565
0.24648963 -0.1532713 0.3250669 -0.45711988 -0.04631459 -0.07057556 0.42834964 0.63601595
0.27055955 -0.6224884 0.27808237 0.1693951 -1.2095795 -0.7629567 -0.5057543 0.05253982
0.4478813 0.09306171 -0.17541233 -0.11702601 -1.3388793 0.3457748 0.6769326 0.6936862
0.33386293 0.5880438 -0.37143096 -0.0988277 0.42826107 0.04819863 0.12291481 -0.64244825
-0.4412087 -0.09907575 -0.120060354 -1.1832823 -0.23570645 -0.16863863 -0.42331934 0.905657
00000000: fa02 15bf 9b4e 70bf 886c 9ebe 4830 4ebd
00000010: 3b96 633f 6b67 103f da42 f7bf 00f0 3dbf
00000020: 5e6e 1fbf f44e 0d3e d2be 4dbf 5a35 8c3e
00000030: 7926 7abd f830 febf c5f6 7cbf 4c2d 3dbf
00000040: 29b5 133f 6545 e73e ff7a 133f ad88 5b3f
00000050: 4a31 32bd abda c5bd 9acc 403e 5c1c 16bf
00000060: 64b4 2f3e 07b7 88bf ef8c f83e 3b96 613e
00000070: 7d1a 2c3d 12c9 85be aa66 323e 60a3 003f
00000080: 072d 0a3f bc05 0cbf 5603 7cbf f87d d23c
00000090: b4aa 49bf a004 4bbe fbac 103f fe62 7a3f
000000a0: cf2c e9bd 21eb d2be 195f b9be bec1 633f
000000b0: 972f afbd 127c 0eba 1f5b babf 22ec 49be
000000c0: 60b6 0dbf 5d0a 563f f48a 22bf 2974 a63f
000000d0: 17da b5bf 3f30 09bf 9484 babe 13e4 c9bd
000000e0: cd36 813e 07ef ac3e d467 3bbf 1b07 90be
000000f0: 5e84 533f 3804 c53d 3842 a7bf 308c 523e
00000100: e5a1 863e cc65 8fbe 9d2e d5be 1089 6c3f
00000110: adc5 a23e e4d4 503e 3076 773e 1d02 983e
00000120: e7d3 55bf 73b4 dbbd 6c06 c73e 8159 593e
00000130: 8730 b73e e60d adbe 0228 8bbe 59dd dcbe
00000140: a0e8 7ebd d47a d23e c43c a43d ac93 eb3e
00000150: afed 893c 0c04 423f 956d 61bd ff6c 3abf
00000160: c767 7c3e 27f3 1cbe 2b6f a63e 9e0b eabe
00000170: 5eb4 3dbd eb89 90bd a550 db3e f1d1 223f
00000180: c886 8a3e 665b 1fbf d060 8e3e e975 2d3e
00000190: 80d3 9abf 2151 43bf 1d79 01bf ff33 573d
000001a0: b350 e53e 2397 be3d 4a9f 33be 55ab efbd
000001b0: 6660 abbf 6509 b13e 744b 2d3f 6b95 313f
000001c0: 15f0 aa3e 0a8a 163f 332c bebe 2d66 cabd
000001d0: 0945 db3e ed6b 453d c3ba fb3d 7d77 24bf
000001e0: 1be6 e1be 3ae8 cabd 34e2 f5bd cb75 97bf
000001f0: 085d 71be 9baf 2cbe 50bd d8be 23d9 673f

weight f4 [11, 128]
-0.008506638 -0.029041952 -0.109843194 0.07256561 0.0034678737 0.102731936 -0.060027473 -0.0025111034
-0.011651359 -0.05538993 0.02143589 0.003540554 0.009008171 0.007723571 -0.0033412178 0.02687415
-0.056372326 -0.027267745 0.18645382 0.0021147048 -0.039271437 -0.02683728 0.0062817964 0.0032932
0.0011859884 -0.0014146828 0.008987672 0.026115322 -0.019155636 -0.006518128 -0.013853377 -0.008527355
0.11900267 -0.011985958 0.03313748 -0.014148743 -0.0042503546 0.006870424 0.0047034044 0.0050058565
0.0059252335 0.23791449 0.020103704 0.0053216913 -0.0012045342 -0.006053003 -0.0018646521 -0.017054867
-0.01429079 -0.037819877 -0.040999483 -0.010054659 -0.023042427 -0.001779089 0.017243205 -0.039588492
0.06848411 -0.015083884 0.009589916 -0.00031904358 0.024715759 0.021101296 -0.035860475 -0.022500187
-0.0007915895 -0.001301863 -0.003527238 -0.0045698 -0.009632273 0.010657886 0.010710213 -0.0071141548
-0.037504666 -0.0011533523 -0.0073854937 0.00047483688 -0.12382492 0.025490353 0.0034315027 0.0013955984
-0.016291656 -0.0016130321 0.013890595 0.09713462 0.07001822 -0.006022622 0.0063837008 -0.0041587176
-0.002054804 0.0016631719 0.047072142 -5.3235388e-05 0.014886045 -0.0020585652 0.011837243 -0.011124788
-0.00855204 0.0043007447 0.017161306 -0.0048846332 0.03208151 -0.05881541 -0.028309017 0.039978676
-0.0013522889 -0.0030263602 -0.051853742 -0.013948081 0.032127116 0.022069486 -0.016644223 -0.006443459
0.0035057878 -0.05210033 0.019409005 -0.0136161 0.0059952172 0.011848707 0.021811847 -0.10225025
-0.008195172 0.014161773 0.007978488 -0.011221757 0.0024701548 0.0024559032 -0.0021090768 0.008752911
-0.018235303 0.03679041 0.0773786 -0.070232846 -0.013111486 -0.15994418 0.0772525 0.008742508
0.01858332 0.13026714 -0.036075898 0.002354029 -0.0106197735 -0.038406488 0.014963198 -0.040991306
0.13364078 0.050584815 -0.44742414 -0.0047382964 0.057161108 -0.0024240396 0.008693661 -0.0033324729
-0.0033887902 0.025784204 -0.051101822 -0.0066231424 -0.00011111436 -0.005644362 0.021273613 -0.005102944
-0.28174818 0.037682626 -0.028703868 0.014002408 0.0073531764 -0.011139656 -0.007322 -0.00276988
0.00035647003 -0.07468394 -0.025825625 0.030909393 -0.0023306862 -0.04606072 -0.0067083444 0.02004855
-0.0068456614 0.058020603 0.078469 0.02300804 0.006899127 0.018049628 0.0046366025 0.046450093
-0.025248926 -0.015680498 -0.027884753 -0.0059473272 -0.03492872 -0.0421769 0.0060314382 0.0006310963
-0.0025857599 -0.005433478 -0.0010218293 0.013896165 0.002610319 0.085374646 0.29584214 0.0074925856
0.02311063 -0.10305895 0.032370582 -0.034167737 0.2651149 -0.011954566 -0.002255588 0.0046803183
0.029850598 -0.0029182944 -0.01872474 -0.22260314 -0.019981155 -0.0408741 -0.003906621 0.0007418231
-0.0079459455 0.0044120597 -0.12584247 0.0039871954 0.057296094 0.016889863 -0.0072544706 0.010367012
-0.0047462247 -0.0025661157 -0.0521192 0.012733671 -0.054482922 0.022903625 0.012832305 0.047741007
-0.00458459 0.013268082 0.03967218 0.013679554 -0.065209344 -0.0080277 0.013294587 0.03355473
-0.00015165942 0.15582441 -0.028384674 0.0449391 -0.004353773 -0.021273505 -0.040055998 0.060899884
0.0087589715 -0.019531235 -0.0018029651 0.0005316377 0.0064302767 -0.011062117 0.018537015 0.008729742
00000000: 6d5f 0bbc 63e9 edbc 78f5 e0bd 479d 943d
00000010: 4445 633b 1f65 d23d 5edf 75bd 5391 24bb
00000020: 57e5 3ebc 8de0 62bd 529a af3c a408 683b
00000030: 0297 133c 0216 fd3b 55f8 5abb 2d27 dc3c
00000040: abe6 66bd 9b60 dfbc c0ed 3e3e dc96 0a3b
00000050: 16db 20bd dbd9 dbbc 87d7 cd3b bad2 573b
00000060: 2b73 9b3a e16c b9ba 0741 133c cdef d53c
00000070: 48ec 9cbc 0596 d5bb 46f9 62bc 52b6 0bbc
00000080: acb7 f33d c060 44bc 2bbb 073d 21d0 67bc
00000090: 8f46 8bbb 4b21 e13b 041f 9a3b 2b08 a43b
000000a0: 7628 c23b db9f 733e 86b0 a43c 9561 ae3b
000000b0: 76e1 9dba 4558 c6bb 5867 f4ba a6b6 8bbc
000000c0: eb23 6abc 04e9 1abd 13ef 27bd 4cbc 24bc
000000d0: 79c3 bcbc 5230 e9ba 9f41 8d3c 8b27 22bd
000000e0: 6641 8c3d 6522 77bc 061f 1d3c 4e45 a7b9
000000f0: b478 ca3c a0dc ac3c 6fe2 12bd 5052 b8bc
00000100: ac82 4fba 46a3 aaba 3c29 67bb 43be 95bb
00000110: aed0 1dbc 6a9e 2e3c e479 2f3c db1d e9bb
00000120: 7e9e 19bd 152c 97ba 0302 f2bb 87f3 f839
00000130: eb97 fdbd 25d1 d03c 10e3 603b 83ec b63a
00000140: 1476 85bc 606c d3ba 6195 633c 84ee c63d
00000150: b665 8f3d 6a59 c5bb 5d2e d13b da45 88bb
00000160: e4a9 06bb cafe d93a b8ce 403d 1049 5fb8
00000170: 99e4 733c fee8 06bb fff0 413c be44 36bc
00000180: db1d 0cbc 43ed 8c3b de95 8c3c 460f a0bb
00000190: e767 033d 6de8 70bd 50e8 e7bc aec0 233d
000001a0: 493f b1ba e655 46bb 9764 54bd 7e86 64bc
000001b0: b997 033d 11cb b43c 7759 88bc a723 d3bb
000001c0: 5cc1 653b 2867 55bd a2ff 9e3c 1016 5fbc
000001d0: 8773 c43b 1421 423c c2ae b23c 9468 d1bd
000001e0: 0b45 06bc c806 683c 34b8 023c 76db 37bc
000001f0: 52e2 213b 38f3 203b 7038 0abb 5f68 0f3c
00000200: 3462 95bc 8ab1 163d ac78 9e3d 3dd6 8fbd
00000210: 8fd1 56bc 68c8 23be 8f36 9e3d bc3c 0f3c
00000220: 0c3c 983c c064 053e 52c4 13bd 0e46 1a3b
00000230: 8ffe 2dbc 1f50 1dbd 3428 753c 80e6 27bd
00000240: 21d9 083e 0632 4f3d c714 e5be b643 9bbb
00000250: c421 6a3d a3dc 1ebb db6f 0e3c 9e65 5abb
00000260: 7716 5ebb 6539 d33c 2550 51bd f206 d9bb
00000270: 1106 e9b8 57f4 b8bb 0046 ae3c 9936 a7bb
00000280: 4c41 90be 1959 1a3d 6024 ebbc 5b6a 653c
00000290: eaf2 f03b 1b83 36bc 63ed efbb e086 35bb
000002a0: 99e4 ba39 e5f3 98bd 4390 d3bc b235 fd3c
000002b0: 6dbe 18bb 2aaa 3cbd acd1 dbbb db3c a43c
000002c0: 9251 e0bb 03a7 6d3d 5bb4 a03d 5b7b bc3c
000002d0: 1212 e23b d0dc 933c a4ee 973b 7442 3e3d
000002e0: d6d6 cebc 6374 80bc 916e e4bc cce1 c2bb
000002f0: 6b11 0fbd afc1 2cbd 5fa3 c53b 2870 253a
00000300: da75 29bb 510b b2bb e7ee 85ba beac 633c
00000310: e311 2b3b e7d8 ae3d 9f78 973e 5d84 f53b
00000320: 8152 bd3c 9210 d3bd 0497 043d 78f3 0bbd
00000330: 24bd 873e 16dd 43bc 7dd2 13bb 5b5d 993b
00000340: 3e89 f43c db40 3fbb a064 99bc 14f2 63be
00000350: 85af a3bc 9a6b 27bd 1d03 80bb e876 423a
00000360: b62f 02bc 0a93 903b d9dc 00be 05a7 823b
00000370: 4faf 6a3d 9c5c 8a3c e9b6 edbb 66da 293c
00000380: 3886 9bbb 472c 28bb f17a 55bd e3a0 503c
00000390: 7c29 5fbd 62a0 bb3c 973e 523c 138c 433d
000003a0: 543a 96bb 5f62 593c 4c7f 223d 3520 603c
000003b0: 7a8c 85bd 9d86 03bc 8ad1 593c af70 093d
000003c0: c406 1fb9 6f90 1f3e fa86 e8bc 1012 383d
000003d0: 18aa 8ebb c645 aebc c211 24bd 2872 793d
000003e0: ca81 0f3c f8ff 9fbc 7851 ecba 9a5d 0b3a
000003f0: 12b5 d23b e23d 35bc f0da 973c 3107 0f3c

bias f4 [11]
-0.29511356 0.467431 -0.6353573 -0.97081614 -0.3743254 -1.1448294 -0.36525577 -0.06520472
0.3723789 -0.2342644 -0.14563067
00000000: 2019 97be 1e53 ef3e c7a6 22bf 6887 78bf
00000010: 94a7 bfbe c589 92bf ce02 bbbe 0d8a 85bd
00000020: 72a8 be3e 02e3 6fbe 3520 15be
